udacity/Artificial Intelligence/Deep Learning/Developing a Handwritten Digits Classifier with PyTorch/mnist_net.pth (torch, 973391 bytes, 8 tensors)

fc1.weight f4 [256, 784]
000000 bd e2 f4 3b 08 57 9f bc 6b 3f c2 3b d0 3c 99 3b
       0.0074733184 -0.01945068 0.00592797 0.004676439
000010 14 95 e0 bc 9f fc 76 3a 09 1e 17 3c ef 22 b8 3b
       -0.027414836 0.0009421799 0.0092234695 0.005619399
000020 1d b4 1f 3d 1f c9 31 3c 53 a3 19 3d 04 3f 13 3d
       0.03899013 0.010851174 0.037509274 0.03594877
000030 90 7f 0c 3d 81 24 a1 3c 0e 39 fa bc 72 f7 12 3d
       0.03430134 0.019670727 -0.030544784 0.035880513
000040 7c 67 9f 3c c1 58 cb 3c c1 e2 01 bd e0 66 87 3c
       0.019458525 0.024822595 -0.03171039 0.016528547
000050 8b 1d 07 3d 68 ee 0f 3c 4f c7 c4 bc ed 5d 70 bc
       0.03298716 0.008784868 -0.024020819 -0.014670831
000060 8d f9 e8 3c e7 34 c6 bc bf 38 ee 3c 44 3a 71 3c
       0.028439308 -0.024195148 0.029079793 0.014723364
000070 41 99 bc 3c 95 24 a4 3c 57 0a 03 bc 0d 38 03 bc
       0.023022296 0.020036975 -0.007998071 -0.008008969
000080 65 f2 ef bc 66 e0 10 bb 64 64 1b 3d ea c9 cd 3b
       -0.029290387 -0.0022106408 0.037937537 0.0062801735
000090 79 23 15 3d b4 8b 9a 3b a2 d0 d0 bb a7 4b 9d bb
       0.036410782 0.004716361 -0.006372527 -0.004800278
0000a0 84 bc 9b 3c 57 a2 87 3c 73 eb f1 3c 1d d3 dd 3c
       0.01901079 0.016556902 0.029531216 0.027078206
0000b0 43 25 9a 3c 63 a4 18 3d c2 b0 47 3c cd f6 42 3c
       0.018816596 0.037266146 0.012188138 0.011899662
0000c0 7a 14 45 bc 0e 57 8f bc 5c 48 a9 bc 31 cc b3 3c
       -0.012028808 -0.017497566 -0.020664386 0.021947952
0000d0 ba 58 be 3c cf d8 03 bd fd 01 ff bc 88 78 0f 3b
       0.023235667 -0.032189187 -0.031128878 0.002189191
0000e0 a0 45 43 3c 09 a2 32 3a 26 d1 6b bc 02 4f 11 3d
       0.011918455 0.0006814306 -0.014393127 0.03547574
0000f0 bd 23 27 3c b7 0d 4a bc 07 b3 03 3c f8 4d 48 ba
       0.010201392 -0.012332371 0.008038289 -0.0007641013
000100 db 37 c4 bb 3c 25 26 bc 18 7a 0a bc 00 ad 19 3b
       -0.005988104 -0.010140713 -0.008451961 0.0023449063
000110 85 39 67 3c 13 8d 51 bc 5d 93 0d 3c 66 5e e3 bc
       0.014112835 -0.012789982 0.008641091 -0.027754974
000120 db cd 27 bd 49 df 8a bc 89 52 40 3b 89 d9 19 3c
       -0.040967803 -0.016952174 0.002934607 0.009390243
000130 a1 db 1a ba 86 07 b0 3c f4 c9 d0 bb 3d 5c af 3c
       -0.0005907361 0.021487962 -0.006371731 0.021406287
000140 9c 02 98 3c 34 84 83 bc 22 a7 15 3d 90 29 ec bc
       0.018555932 -0.01605425 0.036536343 -0.028828412
000150 8a 5c 12 bb 05 cc 6b 3c ff c0 90 bc f8 9e 77 bc
       -0.002233299 0.014391904 -0.017670153 -0.015113585
000160 d8 25 bf bc 37 d1 a8 3b 2b f8 93 3c b6 ab a5 b8
       -0.023333475 0.0051518935 0.018062672 -7.899797e-05
000170 58 8a e0 bc a7 0d 2b bd b8 65 ab 3c ad af 03 bd
       -0.027409717 -0.041761067 0.020922527 -0.03214996
000180 96 17 3b bd 22 87 85 3c db f0 93 3c 9a 75 80 bd
       -0.04567679 0.016299788 0.018059185 -0.06272431
000190 cc 44 36 bd c5 e0 5c bc 7f b5 86 bc fd 4b 05 bd
       -0.044499204 -0.013481324 -0.016443966 -0.03254317
0001a0 90 c7 c5 bc b4 a6 e6 3c e4 12 c9 3c 94 88 d7 bb
       -0.02414301 0.028155662 0.02454514 -0.0065775607
0001b0 17 a7 b9 3a b8 bc 09 3c 98 0a f3 3c bd 9e ce 3c
       0.0014164177 0.00840681 0.029668137 0.025222177
0001c0 67 19 fe bb fb b3 11 3d cd 3e 88 bc 3e 78 38 bc
       -0.007754493 0.035572033 -0.016631508 -0.011259137
0001d0 f9 5a 61 3d 96 8c a2 3c c1 30 95 3c a5 c1 41 bc
       0.0550184 0.019842427 0.018211724 -0.011825954
0001e0 0b 89 8a bb 81 e7 79 3c f9 ba fc 3c ed cf aa 3d
       -0.0042277626 0.015252949 0.030850874 0.0834044
0001f0 d3 4f 8d 3d 20 8e c5 bc 69 ff b8 bd 97 c7 a7 bd
       0.06899991 -0.024115622 -0.090330906 -0.081923656
000200 ee 4c 8e 3a e0 ca a8 3c b0 87 60 3c 0a d3 83 3c
       0.0010856667 0.02060455 0.013704225 0.016091842
000210 42 2a fb 3c 32 31 a1 3d 8d 2a 42 3d 38 7d da 3c
       0.030659799 0.078707114 0.04740386 0.026671037
000220 47 03 fc 3c 07 1f 10 b9 03 63 52 3c f1 fe 97 3c
       0.030763282 -0.00013744469 0.012840989 0.018554183
000230 c5 aa 85 bb e7 38 33 bc bf cc 85 bb 1d ac d4 3d
       -0.004079195 -0.01093886 -0.0040832455 0.103843905
000240 99 bb 97 3d 54 3c 29 3e 87 3b 0d 3e 49 f5 43 3d
       0.07408828 0.1652692 0.13792239 0.047841344
000250 42 42 47 3d be cf 35 3d 46 fb 14 3e e9 91 1c 3e
       0.048647173 0.04438757 0.14548978 0.15290035
000260 48 8f 09 bc 5c ed bd 3c e1 b6 c5 bb d9 4b 09 3c
       -0.008395977 0.02318447 -0.0060337638 0.0083799
000270 3f 50 2d 3d 7b 03 b7 3d ae 64 b5 3d 1b 0d c3 3b
       0.042312857 0.08936211 0.08857094 0.00595249
000280 76 d4 c5 3c 98 bb 4d 3d ee ff 6a 3d 7c 31 91 3c
       0.02414916 0.05022773 0.05737298 0.017723791
000290 81 4e 1f 3d 41 04 e6 3c 85 aa 50 3b e4 fc d6 bb
       0.038893227 0.0280782 0.0031839919 -0.0065609086
0002a0 38 99 97 3c b9 c9 83 3c 81 9e d7 3d ea 3e 37 3e
       0.018505678 0.0160874 0.10528279 0.17895094
0002b0 70 2c 35 3e 89 fb 16 3e 8c 82 21 3e 23 5f 1d 3d
       0.17692733 0.1474439 0.15772456 0.038420808
0002c0 7e 95 7b 3d 85 60 7a 3d 12 f1 b4 3d 62 f0 37 3d
       0.061421864 0.061127204 0.08835043 0.04490698
0002d0 d2 0e 73 3c f9 41 12 bc 52 4e 8b bb 0b 3a 22 3d
       0.014835076 -0.008926862 -0.00425128 0.039606135
0002e0 a9 c6 6c bc d6 e0 8a bd cd 27 2e bd b7 96 03 bd
       -0.014451661 -0.06781165 -0.042518426 -0.032126155
0002f0 f6 03 0e bc e3 98 fe 3b 5b 22 9f bc 50 0d 8e 3c
       -0.008667937 0.0077696904 -0.019425562 0.017340332
000300 ce 29 74 3d 69 eb 2d 3d e1 25 a7 3b 3f 03 12 3d
       0.05961018 0.042460833 0.005100951 0.035647627
000310 ac e1 3e 3d 0c 53 d0 3c 83 df 1e 3e 72 6e 54 3e
       0.046601936 0.025430225 0.1551495 0.20745257
000320 f1 89 3c 3e 76 f5 18 3e a8 5a 93 3d a7 c4 83 3d
       0.18411995 0.14937386 0.07195026 0.06433993
000330 d8 0b 0a 3e f0 58 f5 3d 98 99 25 3e 5b 02 1c 3e
       0.1348108 0.11979854 0.16171873 0.15235274
000340 8f 1a 97 3d 64 2f 51 3d 12 9c 20 3d a1 f8 88 3d
       0.073781125 0.051070586 0.03921134 0.06688047
000350 3a 11 05 3d d6 30 7e bd e4 8a 9a bd 52 f3 4b be
       0.03248713 -0.062058292 -0.075460225 -0.19917038
000360 08 9b 22 be d1 bd 0c be b7 cc 95 bd 46 0f 46 bd
       -0.15879452 -0.13744284 -0.07314437 -0.04835441
000370 a8 2c 98 3d 3f b2 53 3d eb 27 14 3d 33 40 69 bc
       0.074303925 0.05168366 0.03617088 -0.014236498
000380 15 cb 60 3d 0e ea 9e 3d ec 3d 43 3e 88 b5 91 3e
       0.054881174 0.07759486 0.1906659 0.2845881
000390 58 f0 58 3e af eb d3 3d 24 85 bb 3d d7 67 f4 3d
       0.21185434 0.103476875 0.09156254 0.119338684
0003a0 df f7 40 3e 95 52 13 3e 1f 1b 87 3e ac d0 8d 3e
       0.18844555 0.14386971 0.2638788 0.27698267
0003b0 d2 a3 44 3e 7e ab 0e 3e a2 21 08 3d 99 be 07 bd
       0.19203117 0.13932607 0.0332352 -0.033140752
0003c0 e3 81 05 be a7 c7 08 be a4 83 f9 bd 61 04 29 be
       -0.13037829 -0.13357411 -0.121833116 -0.16505577
0003d0 c1 c3 44 be fc 4c 2d be af 47 08 be a4 fb e5 bc
       -0.19215299 -0.16923898 -0.13308595 -0.028074093
0003e0 74 b2 f6 3b fa a2 97 bc f0 93 92 3b 53 34 e1 bc
       0.0075285975 -0.01851033 0.004473202 -0.02749077
0003f0 f7 50 f3 3c ef 99 c7 3d e2 ad 36 3e 35 c3 5b 3e
       0.029701693 0.097461574 0.17839769 0.21461184

fc1.bias f4 [256]
000000 2a 64 31 3c c1 2a 88 bc e1 87 86 bc a0 df 21 bc
       0.010827104 -0.01662195 -0.016422214 -0.0098799765
000010 94 b6 52 bc e1 fb ea bc 19 a5 95 bd 4b ff 20 bc
       -0.012860913 -0.028684558 -0.073068805 -0.009826492
000020 8c 23 60 3c 45 2e ff 39 bf 33 db bc 9b e6 0e bd
       0.01368035 0.00048671864 -0.026758073 -0.03488789
000030 54 ae 06 bd ab 6f e6 ba 6f ed 8f bd ec 0e d1 3c
       -0.032881096 -0.0017580887 -0.07027709 0.02551981
000040 49 cd 01 bd 9d 21 35 bc 4e 68 85 bd a9 ed 13 38
       -0.031689916 -0.011055377 -0.06514035 3.526887e-05
000050 99 20 22 bd 81 28 f8 bc 34 d5 0f 3c d4 14 20 3c
       -0.03958187 -0.030292751 0.008778859 0.009770591
000060 49 36 15 bc c8 5f 05 bd 39 24 0a 38 f3 d9 c4 3c
       -0.009107181 -0.032562047 3.29355e-05 0.024029708
000070 28 77 44 3c 39 e4 85 bc 47 07 5d bb c0 3a 82 bc
       0.0119913 -0.016344177 -0.0033726261 -0.015897155
000080 d2 e5 17 39 4b 74 25 bd 38 78 4c bc b4 c9 96 bd
       0.00014486097 -0.04039411 -0.012479834 -0.073626906
000090 b2 40 d3 3b aa 4a 3b bc 82 b6 a2 bc fc 51 6b 3c
       0.0064469213 -0.0114313755 -0.019862417 0.014362808
0000a0 59 7c c2 b9 03 66 26 bc 39 58 50 3c e6 b0 28 bd
       -0.0003709521 -0.010156157 0.012716346 -0.04118433
0000b0 50 ff d1 ba 6a 37 fb 3b fa 1e 42 bc ea 89 c9 3b
       -0.0016021524 0.007666518 -0.011848206 0.006150474
0000c0 ea 36 89 b9 ec 90 1c bd 17 04 39 bd 99 e5 28 bd
       -0.0002617159 -0.038224146 -0.045169916 -0.041234586
0000d0 40 2a 38 bd 2c 6f 18 b9 e0 22 da bc 61 bf 1d bd
       -0.044962168 -0.00014537264 -0.026627958 -0.03851259
0000e0 9e ee 2a bd e7 be 07 bd 39 56 91 3c 78 fb 3c 3c
       -0.04173147 -0.033141043 0.01774131 0.011534564
0000f0 4e 21 f5 bc 0a a6 c6 3c 82 43 41 bc 18 a3 03 bd
       -0.029923107 0.024249095 -0.01179588 -0.03213796
000100 f8 dc 3a 3c 13 25 d3 bc 20 ac cc bc 39 c0 f7 3b
       0.011405222 -0.025774514 -0.02498442 0.0075607565
000110 7b d5 81 bd 79 a0 24 bc 71 d8 b6 3b b8 86 0f bd
       -0.06339546 -0.010048025 0.005580001 -0.035040587
000120 55 8c 5a bc 8a 06 39 bc aa 2c 98 bc 7f b8 4b b8
       -0.013339122 -0.011293063 -0.018575985 -4.8570797e-05
000130 c0 a3 23 bd c9 37 c0 bc 9c 73 15 bd e0 8a 2a bc
       -0.039951086 -0.0234641 -0.036487207 -0.010409087
000140 28 2d 72 bc f4 e3 b1 bb 28 83 1b bd b2 ca ed bb
       -0.014781274 -0.0054287855 -0.037966877 -0.007256829
000150 75 9a cb bc 42 23 a3 bc 88 14 46 ba c8 62 12 bd
       -0.024853924 -0.019914273 -0.000755616 -0.035738736
000160 b8 d5 25 bd 82 de e8 3c c7 73 a8 bb 3a 6e 67 bd
       -0.04048702 0.028426412 -0.005140755 -0.056501605
000170 fe bf 1e bd 39 59 8d bc 32 dc f6 bc 8e bf 3a 3c
       -0.038757317 -0.017254459 -0.030134294 0.011398209
000180 13 b1 e0 bc 6f 85 39 bd 97 3f db bc 13 16 15 3c
       -0.027428186 -0.045293268 -0.02676372 0.009099501
000190 16 ce 3a 3c a2 8f 57 bd 17 42 60 bd fa 60 01 bd
       0.011401674 -0.052627213 -0.05475053 -0.031586625
0001a0 d8 02 94 bc 0a 82 63 3c 8a 8e 09 bd 33 0e 49 ba
       -0.018067762 0.013885984 -0.0335832 -0.00076696574
0001b0 bb cd 9c bd 93 af 1d bd 28 b8 fa bc 5d ae 2f bd
       -0.076564275 -0.03849752 -0.03060539 -0.042890895
0001c0 28 76 b4 3b 6b 0d 8f 3b 78 78 39 bd e7 94 4d bd
       0.0055072494 0.004365613 -0.045280904 -0.050190832
0001d0 a7 1c ef 3c d6 06 79 3c 3d b7 df bc cb 94 11 bd
       0.029188467 0.015199384 -0.027309055 -0.03554229
0001e0 b7 fb 52 3b 9e 07 e6 3b 0e bd 4e bc 70 80 d2 bc
       0.003219349 0.007019951 -0.012618316 -0.02569601
0001f0 e1 07 af bc cf a5 bf 3c 8c 1b 84 bd 6d 8e 12 bd
       -0.021366062 0.023394493 -0.06450567 -0.03578036
000200 95 3a a3 bc a0 68 26 bc 10 a1 11 bd ce d6 94 3c
       -0.019925395 -0.0101567805 -0.03555399 0.018168833
000210 b8 01 23 bd 33 64 24 bd db c4 cd bb bd af 9e 3c
       -0.03979656 -0.04013462 -0.0062795705 0.019370908
000220 7f ee 01 3c bf dc 8f bc 6c 13 96 bd d3 ed 49 bd
       0.007930397 -0.017561315 -0.07327923 -0.049299072
000230 fa 11 37 bd 31 98 8b bb d6 f5 38 bc 67 8f 3f 3c
       -0.04469488 -0.004260086 -0.011289081 0.011691905
000240 bc 1b e3 bc 9b 06 28 bc 96 11 12 bd 6b c0 82 bc
       -0.027723186 -0.010255481 -0.035661303 -0.015960893
000250 09 27 f8 3a fc 70 c4 3c 92 28 06 bd 84 46 88 bd
       0.0018932532 0.023979656 -0.032753535 -0.06654075
000260 fb 68 4f 3b c8 fd 85 bc ce 42 68 bd de 7c fd bc
       0.0031648267 -0.016356364 -0.056704335 -0.03094333
000270 fb 02 42 bb fd db 1e 3c 78 42 9a bd b7 ca d4 bc
       -0.0029603827 0.009696004 -0.07532209 -0.025975568
000280 36 9a 55 3c 2d 94 91 bc 5d dd 2b bc ad a5 57 bc
       0.013037255 -0.017770851 -0.010489789 -0.013162059
000290 f0 ac e6 bc 08 8c 81 bc 6b 81 24 bd c4 f8 40 bc
       -0.028158635 -0.015813842 -0.040162485 -0.01177806
0002a0 14 2e 17 3b 61 33 32 bc 1e 96 95 3c dc f5 4a 3c
       0.0023068236 -0.0108765075 0.018260058 0.012387719
0002b0 f6 a2 39 3c 69 42 e2 3c 45 50 0b bc bf 37 da bc
       0.011330357 0.027619557 -0.0085030245 -0.02663791
0002c0 31 26 e8 bc 83 30 23 3c c1 e3 75 bc 5f 82 21 bc
       -0.028338524 0.009960297 -0.015007914 -0.009857743
0002d0 47 74 85 3c 97 1d 11 bd 10 e6 bf bb c3 e0 8e bb
       0.016290797 -0.03542861 -0.005856283 -0.00436029
0002e0 88 1d ad bc 1d 90 f3 3b 8e f2 75 bc 60 13 5d bc
       -0.021132246 0.007432951 -0.015011443 -0.013493389
0002f0 fe 9a e7 bc c2 e0 9d ba fe 02 05 3b 9f 1b a6 3b
       -0.028272148 -0.0012045132 0.0020295973 0.0050692107
000300 0a 57 0d 3c fd 93 8b 3c 1a f4 70 bd fd 3b 76 bc
       0.008626709 0.01703834 -0.058826543 -0.015028951
000310 34 11 15 3c 03 4a 30 3c 4f 8f 2e bd d9 1f a9 3c
       0.00909834 0.010759833 -0.04261714 0.020645069
000320 5f d6 14 bc d6 5a dc bc 73 d5 12 bd 17 71 d4 bc
       -0.009084313 -0.026898783 -0.035848092 -0.025932832
000330 69 2f 04 bd b4 49 24 bd 43 6f 8f 3b 6e 7e bc 3a
       -0.032271776 -0.04010935 0.004377277 0.0014380941
000340 3f 12 61 3b 72 a3 1b bd 2b ea 89 ba 0f 94 30 bd
       0.003434315 -0.03799767 -0.0010522058 -0.04310995
000350 c1 7b 11 3c 93 c3 87 3c 54 8a 7a 3c 16 d7 7d 3c
       0.008879603 0.01657275 0.015291769 0.015493175
000360 02 a1 ee 3c 31 2a 0d 3c f9 cd b9 3c 95 95 b0 ba
       0.029129509 0.008616016 0.022681223 -0.0013472313
000370 c6 a0 18 bd ed 69 02 bd 73 d1 83 3c 40 08 c1 bc
       -0.0372627 -0.0318393 0.016091084 -0.023563504
000380 70 a6 ee 3c 94 e6 e0 bc e6 b6 67 3b 62 1d 3d ba
       0.029132098 -0.027453698 0.0035356819 -0.0007214156
000390 53 e7 98 bc 4b 26 a6 3c d0 2d 91 3c 1a 6f ab bc
       -0.018664991 0.020281931 0.01772204 -0.020927
0003a0 6e de 04 bd 14 0e da bb 90 21 0b bd 3b d6 38 3c
       -0.032438688 -0.0066545103 -0.033967555 0.011281545
0003b0 01 69 cf bc 04 36 14 bb e8 73 9e bd 15 3e 27 3c
       -0.025318624 -0.0022615204 -0.07736951 0.010207673
0003c0 ed dc 11 bd 9a a1 02 bd 91 3d 26 bc cc 80 08 bd
       -0.035611082 -0.031892397 -0.0101465145 -0.033325955
0003d0 10 f2 d9 bb 81 a8 11 bd cc 0f 38 bc d6 2a 0b bb
       -0.0066511706 -0.03556109 -0.011234235 -0.002123525
0003e0 cc cc 21 bd 62 bf cb 3b 65 b4 40 bd d0 20 5d bc
       -0.03950195 0.006217883 -0.047047038 -0.013496593
0003f0 6f f5 64 bd 6b df 9c 3c 65 4f 17 3c 55 02 8b 3a
       -0.055898126 0.019149503 0.009235238 0.0010605553

fc2.weight f4 [128, 256]
000000 a9 52 c1 3d bf f3 07 bd 3b c3 ab bd bd e5 00 bd
       0.09439594 -0.03319144 -0.08386847 -0.031469095
000010 0f 05 0a be a5 08 9a 3d 64 7a 2c 3c 06 b1 9b 3c
       -0.13478492 0.0752118 0.010527227 0.01900531
000020 4c 07 64 3c 03 c4 30 bd ad 74 c4 3c 54 dc a6 3d
       0.013917755 -0.04315568 0.023981417 0.08147493
000030 1a d4 cb bc c0 26 ec 3c 96 39 61 be e5 93 ea bc
       -0.024881411 0.028827071 -0.21994624 -0.028634975
000040 ee d0 35 bd 18 0f 39 3d 2b cc 01 3e 98 0e ad bd
       -0.044388704 0.04518041 0.1267554 -0.08450049
000050 bd 0a a7 3d 04 60 f8 bc 5a 1b 52 bc 34 3b 3e 3d
       0.08156345 -0.030319221 -0.012823904 0.04644318
000060 bd 20 f9 bc bd 74 80 be 85 38 92 bd 0e a9 4e 3d
       -0.030411119 -0.25089064 -0.071396865 0.050454192
000070 97 8a 15 bd 6d 13 6b 3c 60 2b 5c bd 08 5a d8 3c
       -0.036509123 0.014347893 -0.053752303 0.026410118
000080 fe 03 1b 3e 00 8d 23 bc dd ac f1 bd fa ad b4 3d
       0.15138242 -0.0099823475 -0.11800549 0.08822246
000090 46 f5 fa 3c a6 85 6f bd c7 5e 44 3d bc 66 67 bd
       0.030634534 -0.058477066 0.04794195 -0.05649446
0000a0 bc fd 20 3d a1 d2 e7 bb b0 6b 9b bc 06 79 44 3d
       0.03930448 -0.0070746695 -0.018972248 0.04796698
0000b0 44 8c dc bc af 1a 1b 3d 26 53 c4 3d c4 fa 6e bd
       -0.026922353 0.037867244 0.09586172 -0.058344617
0000c0 c8 ef d0 bc 26 22 59 3d 52 eb fe 3c fc a8 e4 3c
       -0.025504962 0.053011082 0.031118069 0.02791261
0000d0 da 55 1b be 2c 26 15 be 2c f8 d8 bc 8c 74 3d bd
       -0.15169469 -0.14565343 -0.026485525 -0.046253726
0000e0 fc 4a 28 3d c1 5a c6 3d 28 7f 83 bc e3 f6 dc 3d
       0.041087136 0.09685279 -0.016051844 0.107892774
0000f0 f7 de 6d 3d 3c b6 78 3d be a1 3c bd fd 13 85 3c
       0.058073964 0.060720667 -0.046052687 0.016244883
000100 5a aa 27 bd 38 29 1d bc 1c a1 61 3d 0e 0c d3 3d
       -0.040933944 -0.009592347 0.055085286 0.103050336
000110 e7 49 d1 bc d1 8d 5d 3b 64 f8 b5 bc 5d 38 d0 bc
       -0.025547935 0.0033806453 -0.022213168 -0.025417501
000120 65 b8 ed bb c2 e1 93 bd 16 56 5e bd e7 dc 0c 3d
       -0.0072546476 -0.07220794 -0.054281317 0.034390356
000130 ba ec 95 3c 45 d8 49 3c c3 c4 b5 3d 08 76 79 bd
       0.018301357 0.012319629 0.0887542 -0.06090358
000140 12 58 2e 3d fb 99 28 3d be 4d 16 bc d0 dd d9 3c
       0.04256446 0.041162472 -0.009173809 0.026595026
000150 a7 5d 84 bd fb c0 6a 3c 32 58 1a bd 07 13 1f 3b
       -0.06463175 0.014328237 -0.037681766 0.0024272816
000160 78 ec 32 bd 25 fc 7f bd 21 d9 83 bd d3 86 4d 3c
       -0.043682545 -0.062496323 -0.064378984 0.012544352
000170 91 81 52 bd 3a 83 81 bd dc e7 20 3d 9d 56 35 bd
       -0.051393095 -0.063238576 0.03928362 -0.044272054
000180 36 5a c6 bc ca 35 9f 3d d7 7f 06 be 3a c1 43 bd
       -0.024212938 0.07773931 -0.13134705 -0.047791697
000190 c5 29 02 bd 29 14 3c 3c 0e 2d 86 be 78 94 6d 3d
       -0.031778116 0.011479416 -0.2620625 0.05800292
0001a0 4f f3 74 3d 6b 5a 81 be 28 9e 0b bd 08 e0 3a 3d
       0.05980235 -0.25264296 -0.034086376 0.04562381
0001b0 d2 13 b1 3c 6c 82 af bc 10 6c 81 bd b8 c6 89 bd
       0.021615896 -0.021424495 -0.063194394 -0.06727356
0001c0 15 8a 98 3d 98 15 29 3d 70 35 97 be f7 30 4d bd
       0.07448212 0.04128036 -0.29532957 -0.050095525
0001d0 ee 4e 02 3d 3b eb 02 3d 97 71 3f 3d 42 78 2b be
       0.031813554 0.031962615 0.046739187 -0.16745093
0001e0 b5 d8 fc 3c 14 da 44 3d 4e 9e 4c 3d f4 59 1f bd
       0.030865053 0.048059538 0.04995566 -0.038904145
0001f0 97 44 16 bd 0b 63 cc bc 6b 41 00 3c 28 96 c9 3c
       -0.036686506 -0.024949571 0.007828097 0.024607733
000200 18 3e 26 bc 53 60 f8 3c e9 cc 36 bd 26 3b 2b bd
       -0.01014664 0.030319368 -0.04462901 -0.041804455
000210 1c 3a a4 3c 1e 82 77 bd 6a 63 75 bd 71 7a ba 3c
       0.02004724 -0.060426824 -0.05990926 0.022763463
000220 af 53 fa bc 8b 1a 3c bd eb e5 82 3d 41 84 00 3d
       -0.030557482 -0.04592375 0.063915096 0.031376127
000230 92 1e a4 bd 74 40 d5 bd 2c df 3d bd 50 10 a1 3d
       -0.08013643 -0.10412684 -0.04635541 0.078644395
000240 94 db c5 3c 74 75 49 3d dc 0f f4 3c f7 c5 07 be
       0.024152555 0.049184278 0.029792719 -0.13259111
000250 ba 42 13 bc 11 d5 05 3d 4a 28 ab 3c 59 32 ee 3c
       -0.008988077 0.0326739 0.020893235 0.029076742
000260 38 41 30 3d c4 c3 55 3d 57 2c 84 be d8 b9 79 bd
       0.043030947 0.05218865 -0.2581508 -0.06096825
000270 31 a6 cf 3c 20 86 fa 3c ad 8c 87 3c a4 98 83 3b
       0.0253478 0.030581534 0.016546572 0.004015999
000280 cc 79 72 bd af ef 96 3d 66 cb 80 3d f8 0a 46 bd
       -0.059198186 0.07369935 0.06288795 -0.048350304
000290 af a9 10 3d 13 72 62 bd de f8 96 3c 90 3d 4f bd
       0.035318073 -0.05528457 0.018429216 -0.05059582
0002a0 00 0c d3 39 92 90 70 bd 50 f8 4c 3d e0 1f f6 3b
       0.00040253997 -0.058731623 0.050041497 0.007511124
0002b0 9d 98 1b be 00 ba 45 3c 91 e7 9a 3d 8e bf 22 bd
       -0.15194936 0.012068272 0.07563699 -0.039733462
0002c0 e7 4b a2 bc 9e 96 d2 3c 56 64 1c bd 0c 3a 62 bd
       -0.019811584 0.025706585 -0.038181625 -0.05523114
0002d0 b2 5d 34 bd 16 72 cb bc ae 7d 7e 3d 7c f9 67 bd
       -0.044034667 -0.024834674 0.062131576 -0.05663441
0002e0 80 f9 a8 bd c2 41 3d bc a3 e9 48 3d a8 6f 3c 3d
       -0.08250713 -0.011551322 0.04905094 0.04600492
0002f0 15 bf 62 bc b6 a8 2b 3d bc 2f 3c bd 86 3a 86 3c
       -0.013839503 0.041908942 -0.04594396 0.016385328
000300 c8 1c 59 3d 60 16 16 3d e8 0c 10 3e 35 c6 17 3e
       0.053005964 0.036642432 0.14067423 0.14821704
000310 20 4c b8 bc da d5 78 bd 43 c6 a6 3c eb 23 d6 bc
       -0.022497237 -0.06075082 0.02035821 -0.026140174
000320 1c f9 e3 3b c0 87 23 bd e7 5d 14 3d 85 89 40 3d
       0.0069571864 -0.039924383 0.036222365 0.04700615
000330 6f 68 0a be a7 8b 0d 3d df d9 89 bc 3d dc 16 3a
       -0.13516401 0.03455701 -0.016827522 0.0005754864
000340 dc 0a 20 be 50 f6 bf 3b 2d 7c a5 3d 01 48 cc bb
       -0.15629143 0.00585822 0.08080325 -0.0062341695
000350 59 1a bc 3d 24 36 ad be 06 52 1c 3d 3c 33 c1 3c
       0.09184713 -0.3383037 0.03816416 0.023584
000360 20 92 33 bb c7 1d 33 bd 77 fe 52 bd de d4 0c 3d
       -0.002740033 -0.04372957 -0.051512208 0.034382693
000370 1b 71 10 bd c5 2b db bd 14 40 0e be 7d 28 05 3d
       -0.035264116 -0.10701708 -0.13891631 0.032509316
000380 ab 04 e9 3c a5 fa 49 3d 46 77 d1 3c 1c 17 9d bc
       0.028444609 0.0493113 0.02556957 -0.019176058
000390 21 10 a0 3d 28 65 c1 3c d6 ab b0 3b 0d 3d 32 bd
       0.07815576 0.023607805 0.005391578 -0.043515254
0003a0 db 36 3e 3b 2b 88 16 bc b8 5e 66 3c f6 07 22 bc
       0.0029024396 -0.009187738 0.014060669 -0.009889593
0003b0 ee 4d 2e bd 3f 75 d9 bc 52 27 92 be d4 8e 23 bd
       -0.04255479 -0.026545165 -0.28545624 -0.039931133
0003c0 dc 7d 4f be 91 75 cf bc 7c bb 59 be 7b ae 3b 3d
       -0.20262855 -0.025324615 -0.21262926 0.045820694
0003d0 1d 5f 1b bd ed c0 04 bd 74 d2 e1 bc ba f1 30 3e
       -0.037932504 -0.03241055 -0.027566172 0.17279711
0003e0 c1 aa ab bb 87 e1 55 bd 8b f4 0b bd b5 ab 2b bd
       -0.0052388613 -0.052217033 -0.03416876 -0.0419118
0003f0 68 8c 03 3d e0 a0 d6 3b 39 db 6e bc 19 62 41 3b
       0.032116324 0.0065499395 -0.014578634 0.0029507934

fc2.bias f4 [128]
000000 65 e3 ca bb 89 4b 83 3e 8e d4 5e bc f7 f6 fd 3d
       -0.0061916583 0.25643566 -0.013600482 0.124006204
000010 50 96 80 3e 87 f0 9a 3d 33 5c 2c 3e 23 9b ad 3e
       0.2511468 0.07565408 0.16832046 0.33907422
000020 7b c9 14 3e b2 b0 c4 bd ca 55 1f 3e 24 ad a7 3e
       0.14529984 -0.096040145 0.1556007 0.32749283
000030 0c 22 4e 3e ac a1 ce 3d 81 18 bc 3e 41 2b 24 3f
       0.20130175 0.1008943 0.36737445 0.641285
000040 0a 24 ac 3e b7 45 cc bd 80 99 05 3e ef e2 f7 3c
       0.33621246 -0.099742346 0.13046837 0.030259578
000050 3f fd 4b 3e 0e fc 96 3e fb ba ed bc 2b 95 ab 3d
       0.19920824 0.29489177 -0.029019823 0.08378061
000060 09 f7 74 bd 94 22 d5 3d c0 0e d5 3e f7 f5 c4 3e
       -0.059805904 0.10406986 0.41612816 0.38468906
000070 5b 20 0f 3f 23 7a b3 3e bc 2d 60 3e a7 91 7a 3d
       0.55908746 0.3505412 0.21892446 0.06117406
000080 30 53 1e 3f ee bf c2 3e a2 14 3d bc 29 b2 14 be
       0.61845684 0.38037056 -0.011540564 -0.14521088
000090 fd 90 73 be 60 2a 13 3f 48 c3 1c be 84 d7 cd 3e
       -0.23785777 0.57486534 -0.15308869 0.40203488
0000a0 32 70 4e 3d cb a0 0f 3e 69 1c 57 bc 65 fd 58 3e
       0.050399967 0.14026181 -0.013129332 0.21190412
0000b0 3c 68 42 be f9 39 5a 3e 49 8b 11 3f ac 22 c4 3d
       -0.18985075 0.21311177 0.5685316 0.09576926
0000c0 fb f4 93 be 09 8b 47 3e 4e 0f 00 3f e3 17 2a 3d
       -0.28897843 0.19486631 0.50023353 0.041526686
0000d0 2c 8b 54 3e 41 8a 21 3e 44 83 8c 3e bf c2 86 3e
       0.20756215 0.15775396 0.27443898 0.26320454
0000e0 fe e5 b0 3d 18 54 ae 3e e6 11 79 3c 9a 9b ef 3d
       0.086376175 0.34048533 0.015202021 0.116996005
0000f0 8c fb 64 3e e7 02 ad be 32 f2 34 3f cb 38 8f 3e
       0.22361583 -0.33791277 0.7068206 0.27973017
000100 7c 36 b6 3e c6 6d b9 3d 88 2b ea 3e 69 fc 95 3d
       0.35588443 0.09054141 0.45736337 0.07323534
000110 75 a0 88 3e 42 96 e9 bd bc 4f 9b 3e 67 40 12 3f
       0.2668492 -0.114056125 0.3033427 0.5712952
000120 54 10 88 bd 2e e7 fc 3e 45 82 11 3f 40 3a 6d 3e
       -0.06643739 0.49395126 0.568394 0.23166752
000130 b0 1a 00 3f cc ab 6e 3d bd 1f 18 3f 64 55 ae be
       0.5004072 0.058269307 0.5942343 -0.34049523
000140 25 96 32 bd e9 a0 7d 3d c1 51 a5 3e b0 46 a3 3d
       -0.04360022 0.061921034 0.32288936 0.07972467
000150 b5 e6 10 3e 48 8c a3 3b 5a 18 58 3d 0b 6a 76 3e
       0.14150508 0.004991088 0.0527576 0.2406389
000160 22 dd 04 3f 71 d5 4c 3e 8f 5f 0a 3e 53 17 db 3e
       0.5189992 0.20003296 0.13513015 0.42791232
000170 5f 05 86 3e 96 e5 9c 3e ce a8 42 bd 7b 33 53 3e
       0.26175973 0.3064391 -0.047524266 0.20625107
000180 27 c3 7e 3e 89 29 c3 bd b3 a3 e6 bc 93 9c 4d 3d
       0.24879132 -0.095294066 -0.02815423 0.05019815
000190 0d 05 09 bd 08 75 69 be a1 cd 23 3e 38 f7 61 3e
       -0.033452082 -0.2279855 0.1599641 0.22066963
0001a0 2c 61 a4 3e 3c 2b 10 3f 91 70 42 3e ba 7d 95 bd
       0.32105386 0.5631597 0.18988253 -0.07299371
0001b0 f0 66 63 bd 88 31 7f be 3f 7d 88 3e d3 04 c8 bd
       -0.05551809 -0.24921238 0.26658055 -0.09766545
0001c0 e3 08 31 3e ba e2 98 3e 6d 98 b1 3e c4 3f b0 be
       0.17288546 0.2986048 0.34686604 -0.3442365
0001d0 72 ed f6 3d e3 95 c7 3c f9 64 7e 3e b8 a4 0f 3e
       0.12057008 0.024363464 0.24843206 0.14027679
0001e0 09 56 9f 3d d7 8b 43 be 58 b3 d4 3e f0 35 b5 be
       0.07780082 -0.19096313 0.41543078 -0.35392714
0001f0 fb 6c 20 3e ed 63 d6 3e b9 eb fa be ef 53 65 3e
       0.15666573 0.41873112 -0.49007967 0.223953

fc3.weight f4 [64, 128]
000000 f6 cd 9f bc 71 b0 d2 bc 5f 26 d9 bd e0 18 d4 3d
       -0.01950739 -0.0257189 -0.10603022 0.10356307
000010 a9 95 b7 3d 1f 85 bf 3d e5 c1 bd bc ec 28 af 3d
       0.08964092 0.09351563 -0.023163745 0.08552727
000020 13 26 9d bd 6c 85 a9 3d 0f 87 07 3e 39 ea 63 3c
       -0.07673278 0.08277401 0.13235115 0.0139108235
000030 5f b7 e5 bd c7 9a 69 3d 8c 96 8c 3c fe c8 36 be
       -0.11216616 0.057032373 0.01716163 -0.1785011
000040 cf e9 9d bd 34 f3 b5 3d be 45 31 be 04 70 1e 3e
       -0.07710611 0.08884278 -0.17311761 0.15472418
000050 f4 68 c4 bd de c8 11 be a7 08 d1 3d 37 ec 5b 3d
       -0.09590331 -0.14236781 0.102067284 0.05369207
000060 b0 ff 34 3d d3 c9 ad 3d 75 51 ae be 4d 29 a1 bd
       0.044189155 0.084857605 -0.34046522 -0.078692056
000070 28 e7 dd 3b 06 24 50 3e 76 f8 ab 3d 7c 3b 51 3c
       0.0067719407 0.20326242 0.083969995 0.01277053
000080 03 c7 23 be 1c 4d 8b 3d e8 ce 34 be f2 47 0c be
       -0.15993886 0.06801817 -0.17657053 -0.1369932
000090 75 3b 41 bd 03 75 92 be df 1c c7 bc 70 26 9d 3c
       -0.047175843 -0.28604898 -0.024305759 0.019183367
0000a0 f1 32 16 bd 3c 11 d2 3b 30 17 2b bd 72 d3 62 bc
       -0.036669675 0.006410746 -0.04177016 -0.013844358
0000b0 8f d7 d6 bd f1 73 16 be b0 8b 6e be 13 64 89 3d
       -0.10490333 -0.14692666 -0.23295474 0.06708541
0000c0 ce 38 76 3d 9d d5 23 bd 5c b1 ca 3c 3c 69 8c 3d
       0.060112767 -0.03999864 0.024742775 0.06856009
0000d0 bd f8 36 3e ed 2d 35 3b 6b 82 ce bb 29 04 19 3e
       0.17868324 0.0027645782 -0.006302168 0.14942993
0000e0 72 15 0f bd 21 90 13 3d 74 7b a1 bd 18 b4 38 bd
       -0.03493256 0.036026124 -0.07884875 -0.045093626
0000f0 79 0d f9 3d b8 fb 0d 3c 1c 42 a8 bd 59 d2 99 3d
       0.12160773 0.008665971 -0.08215734 0.07510824
000100 7b 94 06 be f1 a1 d4 bd c8 a1 35 bc e5 e0 2e 3d
       -0.13142578 -0.1038245 -0.011085935 0.042694945
000110 6a f4 eb bd 4b 32 93 3d 0f 2d ff bd 51 8d 8a bd
       -0.11521228 0.07187327 -0.12459766 -0.06765235
000120 c2 27 1d be 0a 0c ed 3d 2f 54 0e be 0f 2d e0 3c
       -0.15347198 0.11574562 -0.13899301 0.027365236
000130 2f 43 b2 3d 46 79 b3 bd f0 bd 5b be c9 75 82 bc
       0.087042205 -0.087633654 -0.21459174 -0.015925305
000140 37 39 50 bd 28 77 df 3d 20 44 91 bd bf 7c d1 bb
       -0.050835814 0.10911399 -0.07093072 -0.0063930447
000150 f5 9d 38 3e 58 c4 43 3e aa d4 f7 bd 3b 57 a8 bd
       0.18029006 0.19117868 -0.12101109 -0.08219763
000160 f4 31 33 be ca ae 02 bc 8f 38 0f be 45 a8 da 3a
       -0.17499524 -0.007976243 -0.13986419 0.0016682228
000170 f2 c1 36 bd 3c ef 6d 3d 22 59 3e 3c 53 86 f3 3c
       -0.044618554 0.05808948 0.011617931 0.029727137
000180 ae 4b 73 3e 0a 93 37 3d cd 79 59 3d fb ae aa bd
       0.23759338 0.04481796 0.053094674 -0.08334156
000190 f7 8a a8 3c b7 bc 6c bd 97 4c a0 bd 28 40 88 be
       0.020574076 -0.05779716 -0.07827108 -0.26611447
0001a0 20 40 87 bc cb 82 92 3d fc 25 99 3d 22 b8 c7 3d
       -0.01651007 0.07153853 0.07477948 0.097519174
0001b0 40 47 0c 3e 99 78 ae ba e2 b1 a7 3d 4e 42 e5 3c
       0.13699055 -0.0013311087 0.08188225 0.027985718
0001c0 d6 dc 6e 3a 20 6d a5 bc 94 93 24 be 87 89 88 3b
       0.00091118866 -0.020193636 -0.16071922 0.004166785
0001d0 1f 58 91 bc 77 dc 12 be 61 7b 2f be dc ee a2 3c
       -0.017742215 -0.14341913 -0.17136909 0.019889288
0001e0 62 1e 92 be 7c 8c 24 be 8b 54 8c bd fa c7 a2 bd
       -0.28538805 -0.16069216 -0.06852063 -0.07948299
0001f0 8d d5 14 be 5d a7 91 be 98 af e2 3a 3f 28 8f bd
       -0.14534588 -0.28448 0.0017294763 -0.06990098
000200 a0 ac f8 3c a7 22 12 3d 4a 19 d3 bd 78 13 d9 3d
       0.030355752 0.03567758 -0.10307558 0.105994165
000210 92 79 44 bd 14 a1 36 3d 68 43 0c 3e 1b 4e 1c 3d
       -0.0479675 0.04458721 0.13697588 0.038160425
000220 ae 95 d9 bd 87 d8 3d 3c 19 e9 10 3e 54 05 af 3c
       -0.10624252 0.011587269 0.1415142 0.021364845
000230 12 9f 63 bd 7c 82 c9 3d 87 38 56 bd 12 22 94 bc
       -0.055571623 0.09839341 -0.052300002 -0.018082652
000240 23 b8 32 3d 47 ea 15 3e 81 b6 08 be d6 cb 92 bc
       0.043632638 0.14640151 -0.1335087 -0.017919462
000250 a3 1d 85 bd 17 35 02 bd 91 74 94 3d 68 4e e7 bd
       -0.064997934 -0.03178891 0.07248796 -0.11294252
000260 a1 79 f3 bb 21 eb c7 3d 0c 04 a4 bd a6 e1 1e 3a
       -0.007430271 0.09761644 -0.080085844 0.0006060846
000270 20 7f be 3d 21 4d 5a 3c 54 bd 7d 3d 48 a9 0e be
       0.09301591 0.013324053 0.061948135 -0.13931763
000280 11 a2 fd 3d 9c b4 a2 3d a4 bc a0 bd a1 60 20 be
       0.12384427 0.07944605 -0.0784848 -0.15661861
000290 fb d1 53 bd 5b 99 b3 bd 23 35 17 3d 3b ee 50 3b
       -0.051713925 -0.087694846 0.03691591 0.0031880278
0002a0 43 7c b0 bc d2 01 05 3e 97 23 1c be 32 13 a1 bc
       -0.021543628 0.12988976 -0.15247951 -0.019662473
0002b0 86 ad 08 be 00 12 04 be c5 cb 2e 3c 78 31 11 bc
       -0.13347444 -0.12897491 0.0106687 -0.008861892
0002c0 dc 8c 9e 3d a3 6d 83 3d 7b 65 3a 3e 03 68 a4 3d
       0.077417105 0.06417396 0.18202774 0.08027651
0002d0 a1 d6 5e be 6c c6 53 3e d4 6e 34 be c2 11 af bc
       -0.21761562 0.2068116 -0.17620403 -0.021370772
0002e0 d4 92 94 bb b5 4f 40 3d ef 25 34 be 31 37 b1 bd
       -0.004534105 0.046951015 -0.17592596 -0.08653105
0002f0 40 69 04 3e eb ab 8b bd 37 86 eb 3d d6 67 13 3e
       0.12930775 -0.068199 0.11500209 0.14395079
000300 a4 e7 1a bd e5 92 dd bc a1 71 05 3b 0f bf 92 bd
       -0.037818566 -0.027047584 0.0020361918 -0.07165348
000310 04 3d 18 bd e4 7f ee 3d 43 97 ae bd 15 49 51 3d
       -0.037167564 0.11645487 -0.08524945 0.051095087
000320 d9 5b df bd 41 1d 10 3e 6e a8 65 3c 8d 0e 2b bc
       -0.109061904 0.1407366 0.014017208 -0.010440481
000330 fe ef 89 bd e3 33 1f bc ed fd 1e 3d a9 c3 84 bd
       -0.06735228 -0.009716961 0.03881638 -0.06482632
000340 eb 72 5e be 14 f1 8a bd ce c3 13 be 32 db 26 be
       -0.21723525 -0.06784263 -0.14430162 -0.16294554
000350 e6 1f 88 be 3f 82 b8 3d 46 ba 48 bd 63 84 1a bc
       -0.26586837 0.090092175 -0.04900577 -0.0094309775
000360 fd 78 d7 3d d4 c4 50 bd 14 a6 ea bd 3f 2a 58 bc
       0.105211236 -0.05096896 -0.11457458 -0.013193666
000370 f9 d3 ae bd 82 62 fd bd f1 86 35 3d e0 26 24 be
       -0.08536524 -0.123723045 0.044318143 -0.16030455
000380 62 cb f6 3c 1d b4 d5 bd 79 0e 0d be 3d 3c 10 be
       0.030126277 -0.104347445 -0.13775052 -0.14085479
000390 22 6f 8c bd e1 06 f3 bd 3b 8f 34 be 03 a7 b0 bd
       -0.068571344 -0.118665464 -0.17632763 -0.08625605
0003a0 6c 40 94 bd b5 a7 45 3e 26 1c 83 bc 62 db c8 bd
       -0.0723885 0.19302256 -0.016004633 -0.09807469
0003b0 96 7e 2f bd 7f 53 50 3c 9f 81 6d 3d 06 91 59 bd
       -0.04284533 0.0127152195 0.057984944 -0.05311682
0003c0 44 97 55 bd c5 16 59 be 89 58 ab bd 9e 3a c3 bd
       -0.05214621 -0.21200092 -0.08366496 -0.09532665
0003d0 06 e6 0a bd fb 6a 58 be f9 5d 53 be 92 05 65 bc
       -0.033910774 -0.2113456 -0.20641316 -0.013978379
0003e0 7d 0d 8f be f4 00 69 3b fa 14 a1 3c 7f 84 9b bd
       -0.27939978 0.0035553547 0.019663323 -0.07593631
0003f0 40 8e 95 be b4 36 2d bd cc 9e 92 bc 38 87 f3 ba
       -0.2921009 -0.042288497 -0.017897986 -0.0018579727

fc3.bias f4 [64]
000000 2f 21 86 3d fc c9 ad 3b 04 e9 cd 3e 6b 5e ad 3e
       0.06549298 0.0053036194 0.4021684 0.33861098
000010 33 48 9d 3e e9 f7 0a 3f 8f 25 47 bd 02 f6 e5 3d
       0.30719146 0.5428453 -0.048619803 0.11228563
000020 dc 21 07 3f 49 1f 0a 3f 62 ab 88 be db 51 57 3e
       0.5278604 0.5395399 -0.26693255 0.21027319
000030 93 e9 59 3e db 40 2c 3f f2 1a 1d 3f a4 9c b1 3e
       0.21280508 0.6728646 0.6136924 0.3468982
000040 a4 79 0b 3f d7 4b 26 3f e4 ea 25 3f ef 47 c7 3e
       0.54482484 0.6495947 0.6481154 0.38922068
000050 3b 58 03 3f 71 87 14 3f 50 23 2f 3f d4 4f c1 3e
       0.51306504 0.5801917 0.6841326 0.37756217
000060 52 d7 1f 3f ee 73 f7 3d 7e 55 bb 3e 2c e1 b2 3d
       0.6243793 0.12082659 0.36588663 0.087343544
000070 43 a5 77 3f 53 26 cf 3e f9 21 18 3e c6 13 26 3f
       0.96736544 0.40458927 0.1485671 0.6487392
000080 e0 b2 5e 3f ef eb f2 3e 52 a1 b4 3e 33 8b 21 3f
       0.8699169 0.47445628 0.35279328 0.63103026
000090 38 a0 8e 3e 7e 91 c9 3e 22 69 f1 bd e0 ce 25 3f
       0.27856612 0.39368814 -0.117876306 0.6476879
0000a0 80 86 0f 3f 8a df 31 3f fc 87 ea 3e cc c7 be bd
       0.56064606 0.6948172 0.45806873 -0.09315452
0000b0 39 fd 2c 3f a1 7a 38 3d 97 95 cb 3e 59 c0 b3 3e
       0.6757389 0.045038823 0.39762565 0.35107687
0000c0 bf f9 17 3f 3c a0 48 3f 23 b1 24 3f 16 01 18 3d
       0.5936546 0.783695 0.6433279 0.03711041
0000d0 ae 0c 89 3d 50 77 17 3e 31 6a e0 3e 11 7f 9f 3e
       0.066918716 0.14791608 0.43831018 0.3115163
0000e0 54 a9 3a 3f 36 b5 32 3f 45 a9 91 bd 97 bc 7e 3e
       0.72914624 0.69807756 -0.07112364 0.24876629
0000f0 ce 5f d1 3e 23 32 bf 3e d1 72 be 3e e4 7d 8b bc
       0.40893406 0.3734294 0.37196973 -0.017027803

fc4.weight f4 [10, 64]
000000 50 c7 12 3e fa 4a 4d 3c cd 69 89 3d 68 89 f0 3c
       0.14333844 0.012530083 0.06709633 0.029362395
000010 a9 36 f9 bd c3 9b 11 3e 79 48 47 3d 50 9d 9f bd
       -0.12168629 0.14219575 0.0486531 -0.07793677
000020 fd 19 e4 bd 68 d6 8a bd 11 51 43 bc d8 17 2b 3d
       -0.11137769 -0.06779176 -0.011921183 0.041770786
000030 e6 e9 87 bd 7d db fb bc fe f1 05 3d 77 a3 54 be
       -0.066364095 -0.030744309 0.032701485 -0.20765482
000040 b3 a1 e7 bd 0f c6 3a 3d f9 25 2a be f6 e3 16 3e
       -0.113101386 0.04559904 -0.16616048 0.14735398
000050 55 db 00 bc d5 de ee bd 80 59 1a 3e 06 c1 8b be
       -0.007864793 -0.116635956 0.15073204 -0.27295703
000060 37 af f2 3d 70 a1 f2 bd 19 21 1b 3e 3b 35 05 bd
       0.11849826 -0.11847198 0.15149345 -0.032521468
000070 ad 51 a9 3d 28 e9 b8 3d 78 a0 cf be 66 ea 04 3e
       0.082675315 0.09028846 -0.40552115 0.12980041
000080 9a 18 9c 3d 56 12 6f 3d 90 5c 19 3e 31 3b 51 be
       0.0762188 0.058367096 0.14976716 -0.20432736
000090 42 20 0e be e8 92 dd 3c 17 39 04 3d 46 69 d4 be
       -0.13879493 0.02704759 0.032281008 -0.41486567
0000a0 97 21 97 bd 79 9a b7 bd 2d 6f 3b be 57 54 e2 bc
       -0.07379454 -0.0896501 -0.18304129 -0.027628107
0000b0 38 0e 95 be 91 1c 12 3c 40 68 4b be 25 44 15 be
       -0.2911241 0.008917944 -0.19863987 -0.14576776
0000c0 44 ae 8f 3e 67 74 c6 3d 1e cc ef 3d ae c7 d3 bd
       0.28062642 0.09690171 0.11708854 -0.1034082
0000d0 71 23 04 be ee e2 72 be f8 fb e2 bd 82 d6 c7 3d
       -0.12904145 -0.2371938 -0.110832155 0.09757711
0000e0 c2 b2 06 3c a6 2f e2 bc ba 0e 2e be bd d0 0e be
       0.00822133 -0.027610611 -0.16997805 -0.13946815
0000f0 48 38 02 3e ac 85 81 3d 69 b4 0c be a9 d3 bc 3c
       0.12716782 0.06324324 -0.13740696 0.023050146
000100 7d fe db bc 47 fa 2f be 9e 98 10 be 24 60 d7 3d
       -0.026854748 -0.17185317 -0.14120719 0.10516384
000110 3a 3e 82 bd 42 0e 91 be ab db 69 3e 57 a1 82 3d
       -0.06359525 -0.2833119 0.22837703 0.063784294
000120 cd b5 07 3e b7 3a 87 bd 60 32 88 bc cb 6b bf bd
       0.13252945 -0.06602996 -0.016625583 -0.09346732
000130 fe d5 37 be 71 90 a9 3d a5 ee 62 be c6 59 2a 3e
       -0.17952725 0.08279503 -0.22161348 0.16635808
000140 4e 09 96 3d df f7 5c 3e ef f8 31 3e 48 a7 a1 bd
       0.073259935 0.2157893 0.17380117 -0.078932345
000150 11 c8 3a be 94 64 68 be 08 91 a6 be 2d 9d e9 3d
       -0.18240382 -0.22694618 -0.32532525 0.11406932
000160 cc e7 06 be 2d df 05 3e c0 c2 f8 bd e4 63 67 3d
       -0.13174361 0.13073416 -0.121465206 0.056491747
000170 15 e2 d5 3d 71 2a ec bd 70 d3 64 bd 6d 80 9a be
       0.10443512 -0.115315326 -0.055865705 -0.30176106
000180 b8 6f 37 3e ca 2e 65 3d 11 52 a2 bd 6d 3f ca bd
       0.17913711 0.055952825 -0.07925809 -0.09875379
000190 ff c1 33 3d 14 6d cb bd 5c 98 e8 3d 05 4b ba 3d
       0.04388618 -0.099329144 0.11357185 0.0909634
0001a0 71 82 09 bd db f3 75 3d 4d 64 c9 3d e6 4b 03 be
       -0.033571664 0.06004701 0.09833584 -0.12821922
0001b0 d2 b2 cc 3d c1 6b 4c 3d 6a c6 07 3e 68 f8 81 3d
       0.09995045 0.04990745 0.13259283 0.06346208
0001c0 7c a1 da 3c 37 04 6e be 56 b6 97 be 3d bc 3e bd
       0.02668833 -0.23243795 -0.296313 -0.046566237
0001d0 7b 8a 3d 3e 67 77 ef bd 4f 27 25 3d ec 39 42 be
       0.18509857 -0.11692696 0.04032069 -0.18967408
0001e0 b7 d7 86 be 97 89 7c be c8 04 01 bd 1f 12 de 3c
       -0.26336452 -0.24661861 -0.0314987 0.02710825
0001f0 1a 32 fa bd 7c 1a aa 3d 23 4c 2e 3d ea fd f3 bc
       -0.12216587 0.08305833 0.04255308 -0.029784162
000200 f8 a0 49 bd 99 bf 23 be f9 7f e1 3d 7d f6 03 bd
       -0.049225777 -0.15991057 0.11010737 -0.03221749
000210 51 3e 62 bc 25 2c 34 bd 58 b6 90 3d 89 a5 0b 3e
       -0.013808803 -0.043987412 0.07066029 0.13637365
000220 52 cc 1b 3d 53 32 05 bc d5 a6 86 bd eb 50 30 bd
       0.038036652 -0.008129674 -0.065747894 -0.04304592
000230 e4 d6 43 3d 02 db 17 be 25 ba 0b 3e a5 29 3f bd
       0.047812358 -0.14829639 0.13645227 -0.046670575
000240 4d f7 d7 bd c5 b4 2d bb fa 6b b1 bd 01 3d 08 3d
       -0.10545216 -0.0026505452 -0.08663173 0.033261303
000250 54 85 0b be 1c 3d 02 be 48 c7 00 bd e5 aa c3 3d
       -0.1362508 -0.12718624 -0.03144005 0.0955408
000260 b7 36 85 3d a8 f3 a9 bd 4b 2d 47 bd c1 2b d2 3d
       0.06504577 -0.08298427 -0.04862718 0.10262252
000270 a8 87 50 be a4 45 93 bb 8b 0f bd 3d c7 91 42 bc
       -0.20364249 -0.004494386 0.0923148 -0.011875576
000280 45 de 91 be fd e2 ff 3d 14 7c ba bc 46 35 00 3e
       -0.2848989 0.124944665 -0.022764243 0.12520322
000290 15 9e b2 3d d5 a8 a7 3d f1 45 ae bc 48 3d f7 bd
       0.08721558 0.08186499 -0.021273585 -0.12072235
0002a0 ef ca 3f 3d 69 8a 59 3d b3 43 a6 3d a5 15 05 3e
       0.046824392 0.053110514 0.08118381 0.12996538
0002b0 80 f0 af 3d b2 63 a9 bd f9 46 9b bc 44 94 67 3c
       0.085907936 -0.082709685 -0.01895474 0.01413447
0002c0 a3 8b dc bd f6 4b 90 3d bd 4f 09 3e 1b cf 87 3d
       -0.10768821 0.070457384 0.13409324 0.06631299
0002d0 be 51 27 3e f3 a0 89 3b 82 30 96 bd 09 bf 70 3c
       0.16339776 0.004200095 -0.07333471 0.014693984
0002e0 50 ca 9f 3d 42 d3 09 be 86 c9 2d be 1c f8 2e 3c
       0.0780226 -0.13459495 -0.16971406 0.010679271
0002f0 e7 37 00 be 89 4b 24 3d ed cd 86 bd a7 65 90 3d
       -0.12521325 0.0401111 -0.06582246 0.07050639
000300 80 be ed 3d 93 e3 aa bc 92 99 3f bd b2 8e 14 bd
       0.116086006 -0.020860469 -0.046777315 -0.036268897
000310 e6 56 5a 3d 56 e8 87 3c 28 30 4b bd c2 71 39 b9
       0.05330553 0.016590279 -0.049606472 -0.00017685353
000320 54 6f 76 3c b3 b0 87 3d ea b4 10 3d 6d d0 34 bb
       0.015041191 0.066254996 0.035328783 -0.0027590052
000330 c0 1b bf 3c 51 97 91 bd 9b 27 d6 bc 47 79 a5 bd
       0.023328662 -0.071089394 -0.026141932 -0.080797724
000340 d7 18 fc 3d 38 0b 99 3d f8 e0 a9 3d 80 dc 24 bd
       0.12309425 0.07472843 0.082948625 -0.040249348
000350 94 7c da 3a 6f 86 a8 3d 60 1f c4 bc dd 33 81 3d
       0.0016669207 0.08228766 -0.023940742 0.0630872
000360 b5 bf 91 3d 1e c6 24 3d 1d fd e5 3d 39 d8 c2 3d
       0.07116643 0.040228 0.11229918 0.095138974
000370 25 b6 97 bd 6f 22 45 3d b6 0e c2 3d 2f f7 05 be
       -0.07407788 0.04812854 0.09475462 -0.13082574
000380 85 63 67 bb bf 4e c4 3d 82 4a 82 bd 70 75 5a 3c
       -0.003530712 0.09585332 -0.063618675 0.013333663
000390 00 9f ce 3a ba c6 bb 3d 52 75 73 3d 29 a7 bb 3d
       0.0015763938 0.091687635 0.059438057 0.09162743
0003a0 2c 7a b0 3d 89 bb f8 3d 4e d2 21 bd 27 a4 ff 3d
       0.086170524 0.121451445 -0.039507203 0.124824814
0003b0 7c ad c0 bd d4 1e 25 bc b7 59 f8 3d 35 68 30 be
       -0.094080895 -0.010078151 0.12126487 -0.17227252
0003c0 43 81 5a 3d 8f c4 ad bd e2 11 54 bd 9c 88 ee 3d
       0.05334593 -0.08484756 -0.051774867 0.1164715
0003d0 1b 15 19 bd eb 9f 90 3d 6d 06 06 bd ea 83 0d be
       -0.037373643 0.07061752 -0.03272097 -0.13819852
0003e0 e0 a3 09 3b 17 17 f0 bd eb 63 ab 3c 5a 43 bd bc
       0.0021002218 -0.11723154 0.020921668 -0.023103405
0003f0 89 76 4a 3c 96 57 d2 bc a7 3e 67 be aa bb eb bd
       0.012357363 -0.02567653 -0.22582494 -0.115104035

fc4.bias f4 [10]
000000 89 d1 c4 3d 31 6d ca bd db 7e 66 be 0e b5 a6 be
       0.09610278 -0.09884108 -0.22509329 -0.3256001
000010 c7 60 84 3a 83 35 3f bd 9b ab 0e be 53 d8 5d be
       0.0010099643 -0.046681892 -0.1393265 -0.21664552
000020 2d 1f ca 3e 96 de b4 3c
       0.3947691 0.022078793
