udacity/Artificial Intelligence/Deep Reinforcement Learning/Collaboration and Competition/agent2_checkpoint_critic.pth (torch, 166386 bytes, 5 tensors)

fcs1.weight f4 [200, 52]
0.49600285 0.5449566 0.16576941 -0.20088278 0.19317189 -1.0006958 0.058629412 -0.20147805
0.36398008 0.42432106 0.112354524 0.14176182 -0.039767455 -1.0441841 0.11389359 0.14754368
0.19039841 0.36651635 -0.08659584 0.026550286 -0.16277984 -0.6754785 -0.09767221 -0.021646777
0.3294049 0.30668154 -0.13669169 -0.2583873 -0.116214395 -1.099522 -0.13904355 -0.30322593
0.37075186 0.14960694 0.14166334 0.28130752 -0.04127111 -0.9665644 0.13048875 0.23998053
0.339916 0.14103748 -0.08675919 0.22877643 0.21364997 -0.6416906 -0.040934276 0.2371586
1.6834615 1.4121934 1.8931241 0.8909684 0.34564075 0.7287496 -0.12304703 -0.5204581
0.18007557 -0.6355619 -0.053127702 -0.5650126 0.29111302 0.489311 -0.124451935 -0.14900859
-0.051791057 -0.46496063 -0.019862607 -0.12413852 0.31064054 0.5799851 -0.17878869 0.3752054
-0.25079313 -0.25046435 -0.15847345 0.37925047 -0.03117915 0.2453251 0.02299186 -0.18798465
-0.16472587 -0.5305122 0.011384107 -0.17836918 0.149056 -0.6685118 0.02332936 0.27028143
0.119870774 -0.44374532 0.00021258615 0.2852803 0.19329165 -0.824151 -0.14974557 0.31910825
0.15788768 -0.19418004 -0.08118572 0.30927047 0.49570906 -0.45492423 -0.4487051 0.8677431
0.18785411 1.646062 0.05987774 0.1256133 0.060442265 -0.48314783 -0.01812959 0.07369694
0.34094933 1.4454497 -0.05216404 0.018549545 0.13594018 -0.39491853 0.05479272 -0.076438054
0.3667155 1.1331928 -0.056460623 -0.39927793 0.30996487 -0.09621197 -0.065010674 -0.32970962
-0.14707905 0.6267813 0.021717409 -0.041451517 0.010099382 -0.45737523 0.0018896495 -0.08543456
-0.042297054 0.8273474 -0.027938565 0.40577808 -0.16385362 -0.3537984 -0.0045752246 0.33389214
-0.04871615 0.64031655 -0.023997588 0.057467286 -0.35840082 -0.16621311 -0.012382326 -0.0064851553
-0.16940491 -0.045558576 -3.751334 -0.07798896 0.33661166 0.43595836 -0.07022858 0.4713579
0.016952807 -0.23518752 0.025990242 0.45469826 0.42092422 0.7022261 0.028638028 0.1501966
-0.10215785 -0.28905287 0.014292379 0.1623789 0.3397323 0.7093606 -0.05823095 0.24451952
-0.084470265 -0.45924416 -0.040111568 0.21517827 0.07730487 1.45739 0.06577397 0.096530356
-0.025119951 -0.14941257 0.050928093 0.104016796 0.09942777 1.3925352 -0.00093714544 -0.069659494
-0.0107548265 -0.31981233 -0.021178685 -0.02550607 0.072611734 1.4596882 -0.023833519 0.0052199084
0.15238532 -0.38846666 0.06180285 0.03656208 -2.7123148 -0.20106408 -1.6541474 -0.69574773
0.06254338 -0.30786702 0.06066976 -0.15923454 0.043917794 -0.6392332 0.03137976 -0.09504177
0.3545063 -0.112315886 0.09280831 0.54504716 0.029765615 -0.76215374 0.13988651 0.5622005
0.29793826 -0.17260541 0.08305864 -0.5604795 -0.39210132 -0.89307827 -0.0024577894 -0.603617
0.08319435 -0.111011095 0.13731356 -0.057286553 -0.12104128 -0.613361 0.16404784 -0.08760272
0.338686 -0.3041785 -0.053781774 0.0064408993 0.03150982 -0.70974416 -0.021873303 -0.039028946
0.33122805 -0.3609377 -0.1990684 0.04377436 0.40547067 -0.9139373 -0.16074823 0.019753091
00000000: 16f4 fd3e 4782 0b3f 75bf 293e 37b4 4dbe
00000010: dace 453e cd16 80bf 6525 703d 4350 4ebe
00000020: 995b ba3e 9c40 d93e 211a e63d 032a 113e
00000030: 33e3 22bd d3a7 85bf 0b41 e93d b115 173e
00000040: cdf7 423e 08a8 bb3e 2959 b1bd fc7f d93c
00000050: c2af 26be 29ec 2cbf 5e08 c8bd 9554 b1bc
00000060: c2a7 a83e 5d05 9d3e e8f8 0bbe 574b 84be
00000070: d001 eebd 23bd 8cbf 6f61 0ebe 6e40 9bbe
00000080: 30d3 bd3e 9032 193e 3210 113e 8a07 903e
00000090: e50b 29bd c470 77bf d89e 053e 75bd 753e
000000a0: 7809 ae3e 216c 103e cdae b1bd 5e44 6a3e
000000b0: 0fc7 5a3e d645 24bf b3aa 27bd b4d9 723e
000000c0: ab7b d73f c1c2 b43f e451 f23f 8116 643f
000000d0: d3f7 b03e 558f 3a3f 1500 fcbd be3c 05bf
000000e0: bb65 383e 2fb4 22bf 6f9c 59bd aaa4 10bf
000000f0: c40c 953e f986 fa3e a8e0 febd b595 18be
00000100: dc22 54bd 520f eebe e8b6 a2bc 563c febd
00000110: 470c 9f3e e779 143f 6214 37be ec1a c03e
00000120: f567 80be dd3c 80be dd46 22be 1e2d c23e
00000130: 6b6b ffbc 8136 7b3e 6d59 bc3c 0c7f 40be
00000140: e6ad 28be a6cf 07bf 6884 3a3c 69a6 36be
00000150: 23a2 183e 9723 2bbf 371d bf3c 5462 8a3e
00000160: cf7e f53d 9632 e3be a9e9 5e39 4210 923e
00000170: 3fee 453e 8ffb 52bf e756 19be 2862 a33e
00000180: 4fad 213e 22d7 46be b344 a6bd b358 9e3e
00000190: 94cd fd3e d4eb e8be adbc e5be 6924 5e3f
000001a0: d45c 403e 29b2 d23f 5c42 753d c6a0 003e
000001b0: 4f92 773d 275f f7be 8284 94bc 6cee 963d
000001c0: e990 ae3e 7f04 b93f f6a9 55bd 37f5 973c
000001d0: e733 0b3e c332 cabe 556e 603d 8e8b 9cbd
000001e0: 22c2 bb3e 760c 913f 4143 67bd 286e ccbe
000001f0: b7b3 9e3e c80a c5bd 5124 85bd b3cf a8be
00000200: e49b 16be bd74 203f b5e8 b13c 11c9 29bd
00000210: e177 253c 162d eabe 1eae f73a 51f8 aebd
00000220: ad3f 2dbd 0acd 533f 6bdf e4bc 25c2 cf3e
00000230: 3ec9 27be 1025 b5be c4eb 95bb e9f3 aa3e
00000240: 968a 47bd c9eb 233f 9796 c4bc d162 6b3d
00000250: 5080 b7be c533 2abe 3ddf 4abc 6d81 d4bb
00000260: 7b78 2dbe a19b 3abd db15 70c0 adb8 9fbd
00000270: 5d58 ac3e ef35 df3e 00d4 8fbd d355 f13e
00000280: 9de0 8a3c ffd4 70be 7de9 d43c 36ce e83e
00000290: 6183 d73e 17c5 333f 4c9a ea3c 23cd 193e
000002a0: 2338 d1bd bdfe 93be 952a 6a3c a846 263e
000002b0: 64f1 ad3e a898 353f 9483 6ebd 5363 7a3e
000002c0: bffe acbd 0d22 ebbe 074c 24bd b157 5c3e
000002d0: 0452 9e3d c18b ba3f 81b4 863d b5b1 c53d
000002e0: 5bc8 cdbc 9cff 18be fa99 503d c206 d53d
000002f0: c9a0 cb3d 983e b23f c4aa 75ba a3a9 8ebd
00000300: 0335 30bc 71be a3be ec7e adbc 1bf2 d0bc
00000310: 76b5 943d 10d7 ba3f 833e c3bc c40b ab3b
00000320: e60a 1c3e 1ae5 c6be fc24 7d3d 1fc2 153d
00000330: 9196 2dc0 bee3 4dbe 1abb d3bf 861c 32bf
00000340: be16 803d bfa0 9dbe db80 783d 610e 23be
00000350: 25e3 333d c9a4 23bf 1088 003d 42a5 c2bd
00000360: da81 b53e df05 e6bd 4912 be3d 3688 0b3f
00000370: 05d7 f33c 821c 43bf 693e 0f3e 5fec 0f3f
00000380: 5d8b 983e 79bf 30be a61a aa3d 967b 0fbf
00000390: 81c1 c8be c7a0 64bf dd12 21bb a586 1abf
000003a0: cd61 aa3d c959 e3bd ed9b 0c3e 4ea5 6abd
000003b0: 7ee4 f7bd 3a05 1dbf 28fc 273e 0e69 b3bd
000003c0: 4068 ad3e 49bd 9bbe 474a 5cbd 2e0e d33b
000003d0: 7110 013d cbb1 35bf a42f b3bc d1dc 1fbd
000003e0: b996 a93e d4cc b8be 96d8 4bbe be4c 333d
000003f0: da99 cf3e cbf7 69bf 2f9b 24be 3cd1 a13c

fcs1.bias f4 [200]
-0.48315394 -0.7564293 -0.15935828 -0.33853275 -0.60099876 -0.4768262 -0.10289291 -0.05323701
-0.7645683 -0.3437526 -0.63161254 -0.18810837 -0.38284624 -0.72517747 -0.34089223 -0.4357379
-0.14732018 -0.7640892 -1.1137358 -0.40838477 -0.64462835 0.04052414 -0.8582004 -0.13134499
-0.41678327 -0.23836567 -0.17260166 -0.936442 -0.8483364 0.33923617 0.55766255 -1.1117053
-0.3180698 -0.20286497 -1.0060965 -0.49988005 -0.5771171 -0.70030516 -0.407131 -0.36842614
-0.6344126 -0.26968443 0.48730686 -0.06798741 0.026853096 -0.80138993 -0.27942017 -0.6586821
-0.1872964 -0.2580645 0.12702152 0.152771 -0.5127793 0.44684795 -0.36414072 -0.7540366
-0.40105805 -0.3217671 -0.3463808 -0.5132068 -0.77161264 -0.19684678 -0.9375322 0.8600681
-0.30637082 0.20952305 -0.30687824 -0.5413954 -0.7704537 -0.023313329 0.2682834 -0.60067415
-0.4351978 -0.39873064 -0.1878125 0.2936653 -0.56631863 -0.12622191 -0.25178936 0.16219045
-0.7080822 0.20719625 -0.69501543 -0.082886666 -0.042638775 -0.7115056 -0.6873867 -1.0542212
0.053127132 -0.4933929 -0.37428394 -0.026665563 -0.17725664 0.45674905 -0.7641344 -0.81093407
0.5110351 -0.38067168 -0.56732285 -0.37779295 -0.17561965 -0.74149984 0.06621979 0.1271178
-0.40152952 -0.6702984 -0.38320833 -0.20254914 -0.38889953 -0.37107262 -0.5394801 -0.2631477
-0.51302356 -0.19530565 -0.407523 -0.4514879 -0.35174853 -0.11362162 -0.2591987 -0.59428
-0.5104497 -0.5627981 -0.28639206 -0.6875582 -0.69581413 -0.58883137 -0.67742926 -0.52669126
-0.8076012 0.054685652 -0.9583626 -0.61619 -0.33242622 -0.5894738 -0.3298451 0.09007074
-0.52553135 -0.059415285 -0.31973955 -0.35969716 -0.6286647 -0.24110052 -0.69578946 -0.29560336
-0.86234236 -0.75461024 -0.4725704 -0.5597951 -0.6270102 -0.34683973 -0.9256132 -0.016049601
-0.87741804 -0.36418453 -0.7210805 -0.55569637 -0.14261518 -0.9597127 -0.22990386 -0.041437242
-0.15974283 -0.54141104 -0.1396811 -0.33953252 -0.20020835 -0.6722118 -0.43724197 -0.17250182
0.233243 -0.26050833 -0.42122772 0.032926876 -0.4172126 -0.34486943 -0.8804972 -0.7856813
-0.42087376 0.0743033 -0.77332413 -0.6239148 -0.2318986 -0.40490502 -0.1316167 0.22781822
-0.8423459 -1.3236052 -0.60642225 0.1574128 0.0732579 -0.38500273 -1.3754758 -0.7595999
-0.42040142 0.13787313 -0.7161951 0.1861678 -0.85949314 -0.8215523 -0.24114735 0.029229362
00000000: f45f f7be 5aa5 41bf d12e 23be 2a54 adbe
00000010: 0edb 19bf 9022 f4be 85b9 d2bd 0d0f 5abd
00000020: c0ba 43bf 5700 b0be 5cb1 21bf 7b9f 40be
00000030: 6c04 c4be 3ba5 39bf 6d89 aebe 0a19 dfbe
00000040: 1adb 16be 5a9b 43bf e58e 8ebf cf17 d1be
00000050: 5d06 25bf a4fc 253d 05b3 5bbf 4d7f 06be
00000060: 9e64 d5be 2116 74be 7dbe 30be aaba 6fbf
00000070: 932c 59bf 5db0 ad3e f9c2 0e3f 5c4c 8ebf
00000080: 0bda a2be d6bb 4fbe c5c7 80bf 47f0 ffbe
00000090: f2bd 13bf 3347 33bf 7973 d0be 5aa2 bcbe
000000a0: dd68 22bf 1414 8abe 4980 f93e fc3c 8bbd
000000b0: 06fb db3c e427 4dbf 2910 8fbe 649f 28bf
000000c0: a1ca 3fbe 0821 84be ee11 023e 0070 1c3e
000000d0: 8145 03bf 41c9 e43e a770 babe 8b08 41bf
000000e0: 7b57 cdbe a8be a4be d358 b1be 8561 03bf
000000f0: 6888 45bf 3492 49be 1c02 70bf 6c2d 5c3f
00000100: a3dc 9cbe 368d 563e 251f 9dbe e498 0abf
00000110: 743c 45bf 98fb bebc 715c 893e c8c5 19bf
00000120: 3fd2 debe 6c26 ccbe ec51 40be 4c5b 963e
00000130: 42fa 10bf 5140 01be 89ea 80be 4115 263e
00000140: e044 35bf 412b 543e 88ec 31bf 7cc0 a9bd
00000150: ffa5 2ebd 3b25 36bf 93f8 2fbf b8f0 86bf
00000160: d69b 593d ff9d fcbe 25a2 bfbe bd71 dabc
00000170: c482 35be 03db e93e 509e 43bf 6099 4fbf
00000180: 32d3 023f 66e7 c2be 123c 11bf 146e c1be
00000190: a3d5 33be efd2 3dbf 3e9e 873d 2b2b 023e
000001a0: 4795 cdbe ad98 2bbf e233 c4be 0b69 4fbe
000001b0: d71d c7be 3bfd bdbe 5e1b 0abf 4cbb 86be
000001c0: 8355 03bf 34fe 47be dba6 d0be 6c29 e7be
000001d0: 6218 b4be 74b2 e8bd b1b5 84be bc22 18bf
000001e0: d5ac 02bf 8913 10bf fba1 92be d003 30bf
000001f0: e020 32bf a7bd 16bf 016c 2dbf 3dd5 06bf
00000200: f4be 4ebf 10fe 5f3d 4057 75bf a1be 1dbf
00000210: c533 aabe c1e7 16bf 75e1 a8be 0277 b83d
00000220: 3989 06bf 715d 73bd e7b4 a3be 3a2a b8be
00000230: 2bf0 20bf 0ee3 76be 421f 32bf 5359 97be
00000240: 78c2 5cbf 232e 41bf bff4 f1be bb4e 0fbf
00000250: be83 20bf fa94 b1be fdf4 6cbf 747a 83bc
00000260: 789e 60bf 6576 babe bb98 38bf 1e42 0ebf
00000270: b709 12be bbaf 75bf eb6b 6bbe 19ba 29bd
00000280: a093 23be ea99 0abf 9008 0fbe 35d7 adbe
00000290: 6b03 4dbe 1316 2cbf 2ede dfbe 51a4 30be
000002a0: 41d7 6e3e 5961 85be 29ab d7be 55de 063d
000002b0: e49c d5be ba92 b0be 4468 61bf 6922 49bf
000002c0: c47c d7be 542c 983d 92f8 45bf e1b8 1fbf
000002d0: d476 6dbe b64f cfbe 87c6 06be 2e49 693e
000002e0: fba3 57bf e56b a9bf 7d3e 1bbf d230 213e
000002f0: 3d08 963d 141f c5be 970f b0bf 2475 42bf
00000300: db3e d7be 9d2e 0d3e 9058 37bf c6a2 3e3e
00000310: be07 5cbf 4051 52bf 55ef 76be 6a72 ef3c

fc2.weight f4 [150, 200]
0.026237134 -0.08483561 -0.098579206 -0.11910147 0.10143724 -0.039329454 -0.0060012247 -0.10823594
-0.08330432 -0.09715264 -0.06475165 -0.15285815 -0.03352302 -0.105513945 -0.0050138324 -0.10034714
-0.071424484 0.034120616 -0.10116415 0.05583606 0.0013490305 -0.118530445 -0.15053639 -0.16164526
0.036036946 -0.010155828 -0.14254509 -0.011900737 -0.074555896 -0.052656565 -0.049143977 -0.010804312
-0.109857365 -0.01805729 0.026994945 -0.19451085 -0.03855364 -0.1313866 -0.08490782 0.043304067
-0.13302308 -0.070907965 -0.23967108 -0.21785407 -0.030540172 -0.045365497 -0.23226532 -0.16592856
-0.0010728659 -0.086752936 -0.0055419845 -0.09473805 0.106115505 -0.063099645 -0.021801032 -0.0024302297
-0.22411656 -0.10606712 -0.15129831 0.008969734 -0.19614922 0.08182878 -0.0105436295 -0.13113546
0.028108079 0.13469966 -0.1994108 -0.0896721 -0.04037381 0.069332436 -0.08697116 -0.09026089
-0.0054333853 -0.027275858 -0.01888878 -0.08828455 -0.16610534 -0.05180976 -0.13717708 -0.07737018
-0.0515468 -0.039533652 -0.06985847 0.017717345 -0.07342192 0.011883053 -0.06179786 -0.076831885
0.053038877 -0.037102293 4.990233e-05 -0.1697119 -0.0010202378 0.050429087 -0.013149927 -0.09401584
-0.088514246 -0.05720284 -0.0059610014 -0.011490458 -0.010972534 -0.09721 0.09298294 -0.07862932
-0.0081611555 -0.094224356 0.04932023 -0.15670991 0.008940566 0.0170199 0.068586014 -0.08191037
-0.09523783 0.08682111 0.08505519 0.030404722 0.06417127 -0.0019971551 0.041289184 -0.18912257
-0.010110806 -0.039033934 -0.017491871 -0.06411825 -0.16538347 -0.26409736 -0.020498158 -0.056940116
-0.0200461 -0.15181182 -0.06812125 -0.0831043 -0.005797663 -0.046398878 0.003876614 -0.080885805
-0.033746473 -0.025339555 -0.017305996 -0.14692189 0.019551838 0.0014683614 -0.13933602 -0.07181674
-0.111886896 -0.08227524 -0.039497774 -0.098165125 -0.039333217 0.01183824 -0.10007571 -0.16237167
-0.07457171 0.051110964 -0.0047506234 -0.02390757 -0.024031743 -0.15121983 -0.03412141 -0.048006162
0.05107717 -0.16570668 0.002821411 0.13101551 -0.06504482 -0.07374949 -0.12099138 0.19327417
-0.13057896 -0.043771468 0.021765567 -0.1164862 0.09081231 -0.0466159 -0.16765554 -0.110652514
-0.07282707 -0.1435598 -0.04902391 -0.059256136 -0.14123665 -0.058386065 -0.102308534 -0.095786445
-0.13504916 -0.02757595 -0.051777463 0.0064161373 -0.009625131 -0.074904494 -0.10056418 -0.063030265
-0.1511957 -0.0049699685 -0.09544407 0.006931072 -0.031529717 -0.1156467 0.034778494 -0.017957242
0.0048323083 -0.013685856 -0.00022252442 0.27654 -0.026942076 -0.14750598 0.16660523 0.02446691
-0.07931969 -0.05725159 0.097566925 0.088674545 -0.10710497 -0.2703654 0.028871754 -0.0047138487
0.12976497 0.07797959 -0.48073566 0.038403556 0.026534088 0.14688084 -0.14434262 0.21962026
-0.14359398 -0.007113704 0.17010516 -0.14143838 -0.23183835 0.14383727 0.010793679 -0.1259574
0.25604346 0.11193366 -0.343208 0.0025560851 -0.057621118 -0.14889923 -0.017175337 0.033954658
-0.30061984 0.07855615 0.26365358 0.023966875 -0.065790325 0.05503298 0.074881695 0.015750164
0.13068075 -0.06875803 0.016801717 0.19259429 -0.27617657 -0.04106651 -0.06181916 0.054043517
00000000: 42ef d63c 4bbe adbd e5e3 c9bd 79eb f3bd
00000010: 54be cf3d ec17 21bd eca5 c4bb ceaa ddbd
00000020: 759b aabd f7f7 c6bd 839c 84bd d986 1cbe
00000030: 6f4f 09bd b217 d8bd 134b a4bb cd82 cdbd
00000040: 0047 92bd 0fc2 0b3d 262f cfbd 5ab4 643d
00000050: f4d1 b03a 17c0 f2bd 3626 1abe 5686 25be
00000060: 7a9b 133d a164 26bc 57f7 11be 4ffb 42bc
00000070: c3b0 98bd 69ae 57bd 324b 49bd 9204 31bc
00000080: e6fc e0bd e2ec 93bc 8124 dd3c da2d 47be
00000090: 6cea 1dbd 358a 06be 27e4 adbd 9b5f 313d
000000a0: 3437 08be 3238 91bd 566c 75be 2315 5fbe
000000b0: 622f fabc 2cd1 39bd f6d6 6dbe 2de9 29be
000000c0: 689f 8cba 86ab b1bd 8999 b5bb 0606 c2bd
000000d0: 1653 d93d 633a 81bd 1498 b2bc 7d44 1fbb
000000e0: d07e 65be b839 d9bd f2ed 1abe cbf5 123c
000000f0: 57db 48be d995 a73d 30bf 2cbc 6048 06be
00000100: ea42 e63c b5ee 093e 5832 4cbe 02a6 b7bd
00000110: 025f 25bd 2afe 8d3d ef1d b2bd b4da b8bd
00000120: 8a0a b2bb 9f71 dfbc a5bc 9abc 88ce b4bd
00000130: 8517 2abe 7936 54bd 2678 0cbe 4274 9ebd
00000140: bd22 53bd 0aee 21bd f511 8fbd f723 913c
00000150: 3b5e 96bd 23b1 423c c11f 7dbd 095a 9dbd
00000160: 4b3f 593d 93f8 17bd 384e 5138 f5c8 2dbe
00000170: 80b9 85ba bb8e 4e3d cb72 57bc 608b c0bd
00000180: f546 b5bd 864d 6abd 8154 c3bb 7942 3cbc
00000190: 25c6 33bc 0916 c7bd d76d be3d 6908 a1bd
000001a0: 5eb6 05bc b3f8 c0bd 0204 4a3d 9078 20be
000001b0: 747b 123c 516d 8b3c d376 8c3d a0c0 a7bd
000001c0: 0d0c c3bd 44cf b13d 6a31 ae3d 5313 f93c
000001d0: 3a6c 833d b4e2 02bb d91e 293d 59a9 41be
000001e0: cba7 25bc 0ce2 1fbd 1d4b 8fbc 6e50 83bd
000001f0: 495a 29be c537 87be c1eb a7bc 0a3a 69bd
00000200: b837 a4bc 8f74 1bbe 2783 8bbd 9632 aabd
00000210: 52fa bdbb c00c 3ebd ca0e 7e3b 75a7 a5bd
00000220: be39 0abd e694 cfbc 4ec5 8dbc b172 16be
00000230: 2d2b a03c 0876 c03a 1aae 0ebe a814 93bd
00000240: f524 e5bd ec7f a8bd 6bc8 21bd cc0a c9bd
00000250: de1b 21bd 2df5 413c 7ef4 ccbd c244 26be
00000260: 0db9 98bd bb59 513d 1eab 9bbb cfd9 c3bc
00000270: 38de c4bc 5fd9 1abe e4c2 0bbd 1ca2 44bd
00000280: 4b36 513d 03af 29be 6ce7 383b ee28 063e
00000290: 3836 85bd f909 97bd 54ca f7bd aae9 453e
000002a0: 7eb6 05be b649 33bd b44d b23c 5190 eebd
000002b0: cefb b93d 50f0 3ebd e5ad 2bbe c99d e2bd
000002c0: 5c26 95bd 5701 13be 4ccd 48bd 90b6 72bd
000002d0: 57a0 10be 3a26 6fbd 2387 d1bd af2b c4bd
000002e0: 544a 0abe f5e6 e1bc 9b14 54bd 763e d23b
000002f0: bab2 1dbc 8767 99bd 98f4 cdbd 0316 81bd
00000300: 0cd3 1abe 1edb a2bb 2e78 c3bd 0c1e e33b
00000310: 4e25 01bd 2dd8 ecbd e573 0e3d 111b 93bc
00000320: 5758 9e3b a43a 60bc 7255 69b9 a796 8d3e
00000330: a1b5 dcbc cf0b 17be 909a 2a3e d46e c83c
00000340: 5d72 a2bd a580 6abd 2bd1 c73d 009b b53d
00000350: da59 dbbd 556d 8abe 7584 ec3c a176 9abb
00000360: 1ce1 043e c3b3 9f3d fc22 f6be 0c4d 1d3d
00000370: 045e d93c ee67 163e 8dce 13be 22e4 603e
00000380: 4d0a 13be 131a e9bb 0c30 2e3e 39d5 10be
00000390: 0867 6dbe 144a 133e f9d7 303c fafa 00be
000003a0: 2118 833e 7a3d e53d f5b8 afbe fe83 273b
000003b0: 1f04 6cbd 0a79 18be 4bb3 8cbc 0a14 0b3d
000003c0: d8ea 99be 0ce2 a03d 9afd 863e 2e56 c43c
000003d0: 14bd 86bd 436a 613d 935b 993d 7d06 813c
000003e0: 2dd1 053e 03d1 8cbd c1a3 893c 7037 453e
000003f0: 0467 8dbe 5b35 28bd 1636 7dbd bc5c 5d3d

fc2.bias f4 [150]
-0.20320165 1.4877189 -0.084802724 -0.092163585 0.033854213 -0.6700037 0.07113148 0.01839072
-0.11175494 -1.8047771 -0.07321798 -0.8530766 -0.0051167584 0.2716089 -0.14268914 -0.08776521
0.16765207 -0.09967142 0.11794315 -0.25205263 -0.31465024 -0.15315242 0.46693814 -0.10992219
-0.19979097 -0.06973303 -0.92125064 -0.098972656 -0.094948076 -0.47713336 -0.13077167 -0.4953529
-0.14935347 -0.13382609 -1.0305067 -1.0779873 -1.2638304 0.03938323 -0.116544105 -0.16032645
-0.34326315 -0.38409215 -0.10778012 0.0037369262 -0.15845683 -2.4483256 -0.11259475 -0.15131205
-0.46315703 0.23987319 -0.1344313 -0.090480156 -0.1846932 -0.14250319 -0.37059352 -0.07337199
0.8845532 0.016985122 0.3108388 -0.25669003 0.47324422 -0.15145756 -0.7607386 -0.12394758
-0.14797589 0.40109324 -0.043044064 -0.1861991 -1.2378315 -0.03288183 -0.37845317 -0.16069685
-0.17486951 -0.16383477 -0.09876498 -0.5967891 -0.73321575 -0.15015092 -0.1886423 -0.073834814
-0.4301335 -0.6695736 0.36586866 -0.12455895 -0.14381258 -0.17341082 -0.10558399 -0.20544787
0.009930379 -0.051004015 -0.036943834 -0.06420389 -0.11484879 -0.16620351 1.2425437 -0.15573274
0.3547189 -0.31815022 -0.2007182 -0.47252214 -0.14912973 0.9588994 0.2842447 0.50595033
-0.5175788 -0.20627259 -0.7494916 0.24184807 -0.39206696 -0.061102804 -0.4386803 -1.3279314
-0.12855355 0.37400717 0.14279771 -0.29625618 -0.11956622 -0.06808909 -0.07271415 -0.20811829
-0.9104632 -0.33761272 -0.23670578 -0.15995087 -0.2116424 -0.1010585 -0.25533757 -0.15725492
0.0070735007 -0.038013555 0.2830935 -0.20144178 0.3803514 -0.24516633 -0.111329176 -0.17545411
-0.21335247 -0.10716218 -0.19376682 -0.38702378 0.39811665 -1.2652495 -0.0740945 -0.33988371
-1.0635489 -0.53274035 -0.16650909 -0.062843196 0.089548565 -0.40918648
00000000: 1814 50be 936d be3f 0dad adbd 43c0 bcbd
00000010: b7aa 0a3d 5d85 2bbf 62ad 913d 23a8 963c
00000020: c6df e4bd f002 e7bf 4ff3 95bd 3a63 5abf
00000030: 7baa a7bb 5210 8b3e 1a1d 12be 3fbe b3bd
00000040: fcac 2b3e 8820 ccbd 2e8c f13d 0b0d 81be
00000050: d619 a1be fdd3 1cbe 8412 ef3e e31e e1bd
00000060: 0196 4cbe 31d0 8ebd 15d7 6bbf 2db2 cabd
00000070: 2374 c2bd d34a f4be 02e9 05be e59e fdbe
00000080: 1ef0 18be b509 09be a5e7 83bf 7dfb 89bf
00000090: 32c5 a1bf 4f50 213d adae eebd 9e2c 24be
000000a0: 30c0 afbe baa7 c4be d3bb dcbd 38e7 743b
000000b0: 8242 22be 5eb1 1cc0 1498 e6bd 8cf1 1abe
000000c0: eb22 edbe 51a1 753e 5ca8 09be a94d b9bd
000000d0: 3720 3dbe 5bec 11be 6fbe bdbe 0e44 96bd
000000e0: 1472 623f 6224 8b3c 4326 9f3e e06c 83be
000000f0: 114d f23e b117 1bbe c4bf 42bf 3bd8 fdbd
00000100: fe86 17be 185c cd3e f94e 30bd faaa 3ebe
00000110: 4371 9ebf 19af 06bd 9dc4 c1be b78d 24be
00000120: fe10 33be 4dc4 27be 4b45 cabd 2cc7 18bf
00000130: 07b4 3bbf 2ac1 19be 722b 41be b536 97bd
00000140: 753a dcbe 2d69 2bbf 2353 bb3e c318 ffbd
00000150: 9b43 13be 9b92 31be 6b3c d8bd ed60 52be
00000160: 07b3 223c 96e9 50bd 6b52 17bd 547d 83bd
00000170: d835 ebbd 4131 2abe ac0b 9f3f 6778 1fbe
00000180: b79d b53e 96e4 a2be 1289 4dbe 6cee f1be
00000190: 77b5 18be 6e7a 753f 8588 913e f685 013f
000001a0: 0b80 04bf 1f39 53be aede 3fbf 05a7 773e
000001b0: 00bd c8be ef46 7abd b49a e0be a8f9 a9bf
000001c0: 8ba3 03be de7d bf3e 9039 123e e4ae 97be
000001d0: 22df f4bd 4b72 8bbd 28eb 94bd f61c 55be
000001e0: 1e14 69bf 93db acbe 0063 72be 29ca 23be
000001f0: c9b8 58be c2f7 cebd 9bbb 82be 6f07 21be
00000200: d3c8 e73b 1ab4 1bbd a2f1 903e c146 4ebe
00000210: 6bbd c23e e20c 7bbe 8d00 e4bd 3eaa 33be
00000220: 1279 5abe d877 dbbd cf6a 46be fb27 c6be
00000230: f2d5 cb3e b2f3 a1bf dbbe 97bd 3d05 aebe
00000240: 5f22 88bf ac61 08bf 5c81 2abe efb3 80bd
00000250: 3d65 b73d e480 d1be

fc3.weight f4 [1, 150]
0.015691577 -0.010605694 -0.022215877 -0.018301025 -0.008931733 -0.011469224 0.010865784 0.014546543
0.010123154 -0.01754079 0.0010892653 -0.0098006185 0.007053763 0.007441959 -0.025889615 0.015089959
0.008169906 0.018484406 0.0045972383 0.008034232 0.017912291 -0.028448902 -0.017199574 -0.010977738
-0.016273199 0.039738826 -0.010808518 -0.039676294 0.027446618 -0.019673837 0.00807748 -0.023880837
0.0064975256 -0.017291034 -0.008340185 -0.011467364 -0.013704287 0.020856295 -0.020423474 -0.025649302
-0.03283516 0.0029734725 0.012069096 -0.04087039 -0.0030812395 0.016822262 0.0047988086 -0.0043242397
-0.017433304 -0.012382391 0.026800465 -0.01599218 0.02120183 0.02777378 -0.00584333 -0.010463622
0.0052022017 0.017674077 -0.011357462 -0.012744062 0.006702444 0.017995311 -0.009385457 -0.0008480673
0.02232717 0.014630637 -0.00083790976 0.017211774 -0.008795349 -0.024806097 -0.01784565 -0.0036093392
-0.0023902701 -0.017379755 0.009458662 -0.0061685033 -0.0075784507 0.0095681185 0.014862368 0.017889086
-0.027225576 -0.022741044 0.0072539165 -0.0056032357 0.0015849458 0.0027577034 0.016004344 0.016438538
-0.039427996 0.012247906 0.014312095 -0.009032345 -0.007871711 0.0006200344 0.00769076 0.018240139
-0.024159292 -0.0003179605 0.0064684185 -0.043988295 -0.022738641 -0.010731377 0.018465733 -0.020579526
-0.01882343 -0.012099361 -0.009040957 -0.021090373 -0.021796992 0.004431918 0.019970477 -0.014592491
-0.007172652 -0.008501587 0.014600953 0.0062880795 0.014098635 0.0016517566 -0.008317464 -0.017838199
-0.014824795 -0.0021483845 -0.03372835 0.0008891552 0.032193843 0.02128793 -0.014938599 0.009952195
0.017265482 -0.054639947 -0.013082699 0.016600817 -0.039916992 -0.013943252 0.0018370696 0.0047446955
0.023038667 -0.026425244 0.0077739907 -0.011694911 0.008187262 -0.025110716 0.008114186 -0.02163932
-0.012054054 -0.0118333595 0.021369312 0.022991365 -0.03651697 -0.029741041
00000000: 9f8b 803c 81c3 2dbc 12fe b5bc 08ec 95bc
00000010: 6756 12bc 69e9 3bbc 6706 323c a054 6e3c
00000020: 96db 253c b4b1 8fbc aec5 8e3a c692 20bc
00000030: 4123 e73b addb f33b 7516 d4bc e03b 773c
00000040: 12db 053c 9c6c 973c 6ea4 963b 03a2 033c
00000050: ccbc 923c ac0d e9bc 1fe6 8cbc f8db 33bc
00000060: 5f4f 85bc 2ec5 223d 3616 31bc 9c83 22bd
00000070: bbd7 e03c 072b a1bc 6857 043c bfa1 c3bc
00000080: 32e9 d43b eda5 8dbc 45a5 08bc 9ce1 3bbc
00000090: f287 60bc d2da aa3c 214f a7bc 7c1e d2bc
000000a0: 297e 06bd 97de 423b 75bd 453c b667 27bd
000000b0: 9fee 49bb d7ce 893c 533f 9d3b 5ab2 8dbb
000000c0: 4ad0 8ebc 83df 4abc a68c db3c 0802 83bc
000000d0: 76af ad3c d785 e33c 6879 bfbb 9d6f 2bbc
000000e0: 3b77 aa3b 3ac9 903c a614 3abc 78cc 50bc
000000f0: 2da0 db3b e76a 933c 76c5 19bc d550 5eba
00000100: 78e7 b63c 57b5 6f3c 2ca7 5bba b5ff 8c3c
00000110: 5e1a 10bc 2836 cbbc 0a31 92bc aa8a 6cbb
00000120: 14a6 1cbb fd5f 8ebc 81f8 1a3c 2821 cabb
00000130: a754 f8bb 99c3 1c3c 4a81 733c 228c 923c
00000140: 2c08 dfbc 6d4b babc 43b2 ed3b 599b b7bb
00000150: f5bd cf3a 96ba 343b 8b1b 833c 1daa 863c
00000160: 407f 21bd 71ab 483c 477d 6a3c 67fc 13bc
00000170: 59f8 00bc ce89 223a c502 fc3b 586c 953c
00000180: b5e9 c5bc f0b3 a6b9 07f5 d33b 122d 34bd
00000190: 6346 babc a8d2 2fbc 7345 973c 6596 a8bc
000001a0: 9833 9abc 663c 46bc 8620 14bc b8c5 acbc
000001b0: 9b8f b2bc 9f39 913b 2099 a33c 5815 6fbc
000001c0: 9108 ebbb 3e4a 0bbc d638 6f3c 3c0c ce3b
000001d0: f6fd 663c c17f d83a f945 08bc 6a21 92bc
000001e0: b2e3 72bc e9cb 0cbb bd26 0abd 3216 693a
000001f0: b1dd 033d 0664 ae3c 07c1 74bc 880e 233c
00000200: 5770 8d3c 23ce 5fbd d158 56bc 70fe 873c
00000210: 0080 23bd 3d72 64bc d4c9 f03a 6479 9b3b
00000220: 96bb bc3c c179 d8bc f6bc fe3b 039c 3fbc
00000230: de23 063c fdb4 cdbc 5df1 043c f144 b1bc
00000240: 5e7e 45bc b5e0 41bc b20e af3c 6358 bc3c
00000250: d192 15bd 7ca3 f3bc
