udacity/Artificial Intelligence/Deep Reinforcement Learning/Collaboration and Competition/agent1_checkpoint_critic.pth (torch, 166386 bytes, 5 tensors)

fcs1.weight f4 [200, 52]
00000000: 2fb6 c6bc 637f 823f 2f73 093d 306e 243f
00000010: 2ea5 95be be3b 07bf f8b1 96bd 2c47 243f
00000020: 68e2 443e 59a6 9d3f fd85 1a3c b650 923e
00000030: 68c3 08be 6fca 52bf 12bd 333c 9246 953e
00000040: 8377 d43e 7f3c 753f 78eb 783d 671c 82bf
00000050: 4106 ec3e 8f38 9ebe fd8c 4b3d d347 88bf
00000060: 3610 96ba 6241 d13d 1974 a2bd 4f66 1a3e
00000070: 8e0c bd3e 2d89 20bf 1c45 a7bd 53f7 d83d
00000080: c5d8 bf3d c270 c03e c60f f03d fe06 083e
00000090: 671e 573d b0eb 3ebf 9e2d d93d 1e69 bb3d
000000a0: fc01 f9bc 6176 d83e 5e1c 74bc 8426 83bb
000000b0: 57fa d1be 10ec 8cbe 5956 fd3c 2d88 8f3b
000000c0: cb00 673f 9e13 153c b0a4 8d3f 168b d7bf
000000d0: b9ac 5e3e f773 3bbe 73c4 a8bd 2079 3f3d
000000e0: 51ab 5f3e 85d8 a5bd 7796 4cbc 99b6 0f3b
000000f0: 12b5 173e e298 03be 53ad b5bc c931 62be
00000100: db55 04be d6c6 12bf abc8 a83d b7ba 48be
00000110: 6957 713e cfea fdbe 4c28 553d 9ef2 883e
00000120: a4f5 1cbf 7432 5bbf 502f 943d e804 8b3e
00000130: 50e6 443e a330 8b3f 0565 8c3c 3a7d 033e
00000140: e5f3 4fbe 0137 c53c 8832 b53b fd55 0d3e
00000150: 133c 853e b567 6f3f 0c36 cb3d 6b4e aabd
00000160: 220d 4a3e a658 0dbf 74de 9b3d de96 8bbd
00000170: c82f e63e beec 993f 465b 00bc fd2c d63e
00000180: 5d2c 053f d1c9 4cbf 80bb 783d 7023 d13e
00000190: 60a8 38bf df9f 7fbd 6195 c93f f17c ecbe
000001a0: e9af 403e 89cc 8e3e 3f9f ec3b 74f0 9dbd
000001b0: a1e0 94be 992e 133f 52f8 90bd 5b22 04be
000001c0: b551 9f3e a44b 883e 299a c0bd 34ad 973d
000001d0: a713 08bc fd86 6b3e 328e 533c 156e abbc
000001e0: ffc1 5e3e 9497 173e b5f9 edbc da4a 45be
000001f0: 6c45 b53e 1a3b 9abe a202 1abd 3d1c fcbd
00000200: 8799 b53d 8d23 233f 180e 833c 187d 0abc
00000210: d6fe b83e adc7 193f 81f9 7abb f8c6 56bd
00000220: 8f1b 283e 1209 1e3f a24f 9f3c f2d6 89bd
00000230: c5a2 a0bc 7ad0 8a3e ae59 2f3d e887 0ebe
00000240: e936 9e3c 5114 ac3e 1b8e cbba 39be cfbe
00000250: 9811 cebe 3612 bebe 9fd9 243c 417c f0be
00000260: d783 78be 23eb 58be ce10 a0bf 2166 0b3f
00000270: 9489 213d 043b 90be a97b 19bd 2cf3 363d
00000280: 32aa 02ba 9d7d f8be 72a0 703d 5764 e53c
00000290: 7d0c 263d 1d66 7abe d389 d8bc 18e2 9e3c
000002a0: 8146 80bd 1388 27bf df07 27bd 9957 013d
000002b0: 1bb5 9a3d 6dcb 65be f3f7 40bd b915 3cbe
000002c0: e13f fd3d e48d b0bf 7e80 edbc 5621 5abe
000002d0: bd00 7ebd 5f97 d33f cbc2 663d 9748 703b
000002e0: 3348 fbbb e592 ccbe c1f3 293d 95bb 363c
000002f0: c82d 16be 7a26 d83f 4713 193d 4ee5 6f3e
00000300: ceed 4dbd cf67 2fbf d153 8c3c 078e 8e3e
00000310: c58b 1fbe 4c27 0740 a658 01bd ff08 b73e
00000320: 0d54 64bd a47e a7bf 4f6b 5d3d 1e15 c73e
00000330: a7b6 9cbf 580d 863e 18aa 2ac0 2c86 10bf
00000340: 2065 9bbe 6c97 08bf 99e0 653d 1ded 43be
00000350: e26f b8bd ca70 fa3e 44d2 db3c 9a31 02be
00000360: 5ea8 05be 2945 e8be 3b0b b6ba 2c6b 10bd
00000370: c1f4 2c3d 4b49 2b3e ff22 3b3d f051 94bc
00000380: bf45 51be 8e08 a6bd 8b75 443d 9375 8ebd
00000390: 42bd 10be 0867 15c0 49d1 19bd 9dcd e6bd
000003a0: 7b29 933e ef8d ae3e eba0 21bd d436 9c3d
000003b0: aee2 533c eed7 033f eb7e 50bc 0141 3c3d
000003c0: 28ac 083e 966e 843e d4fc d4bc da4a c0bd
000003d0: 2b0e 9c3c bff3 603e 59a1 c13b 7fb4 0ebe
000003e0: 384c 8ebc 6cea d43e 97b3 ce3c 7c96 483e
000003f0: d66d 1e3e dabc 16c0 ad27 823d 60fd 2f3e
-0.024256794 1.0195125 0.033557113 0.6423063 -0.29227585 -0.52825534 -0.073581636 0.641711
0.19226992 1.231639 0.009431359 0.28577203 -0.13355792 -0.8234014 0.010970371 0.29155403
0.4149743 0.95795435 0.060771435 -1.0164918 0.4609852 -0.30902526 0.049695004 -1.0646919
-0.0011448923 0.10217549 -0.079323 0.1507809 0.3692364 -0.62709314 -0.081674784 0.10594048
0.093675174 0.37586027 0.117217585 0.13283917 0.05251923 -0.7457838 0.10604404 0.09150909
-0.030396454 0.42277816 -0.014899341 -0.004002394 -0.41011307 -0.2752385 0.030924963 0.004380247
0.90235585 0.009098915 1.1065884 -1.6839321 0.21745576 -0.18305956 -0.08240595 0.046746373
0.21842696 -0.080979384 -0.0124870455 0.0021928905 0.14815167 -0.12851289 -0.022177374 -0.22089304
-0.12923376 -0.5733465 0.082413994 -0.19602476 0.235685 -0.49593207 0.052040383 0.26747602
-0.6131232 -0.8562386 0.07235587 0.2715218 0.19228482 1.0874218 0.017138014 0.12840739
-0.20307882 0.02407408 0.0055297054 0.13802333 0.26022395 0.9351762 0.09922418 -0.08315738
0.19731572 -0.5521339 0.07610789 -0.06815885 0.4495833 1.2025373 -0.007834261 0.41831198
0.5202082 -0.7999545 0.06072569 0.4084735 -0.7213192 -0.062408324 1.5748712 -0.46189073
0.18817104 0.27890423 0.007221132 -0.077118784 -0.29077628 0.5749298 -0.07078613 -0.1290373
0.31117025 0.2662021 -0.09404404 0.07406083 -0.008305467 0.23000713 0.01291232 -0.020926515
0.21753691 0.14803916 -0.029049734 -0.19266835 0.35404527 -0.30123216 -0.037600167 -0.123100735
0.08867174 0.6372612 0.015997931 -0.008452676 0.36131924 0.60070306 -0.0038295689 -0.052435845
0.16416763 0.6173259 0.019447152 -0.06730451 -0.019608865 0.2711218 0.042810135 -0.13919032
0.019313293 0.3360925 -0.0015530022 -0.40574816 -0.40247798 -0.3712327 0.010061651 -0.46969798
-0.24269043 -0.21183448 -1.2505128 0.5445271 0.039437845 -0.28170025 -0.037471447 0.0446655
-0.00049844675 -0.48533335 0.058746763 0.028001947 0.040539254 -0.24453016 -0.026432907 0.01939492
-0.062634476 -0.6544201 -0.04077899 0.03157768 0.075540744 -0.22440882 -0.047111463 -0.18367662
0.123656996 -1.3793302 -0.028991934 -0.21301779 -0.062012423 1.653057 0.056338113 0.003666436
-0.007668519 -0.39955822 0.041492227 0.0111531215 -0.14665902 1.6886742 0.0373719 0.23427317
-0.050275616 -0.68517774 0.01712981 0.27842733 -0.15580662 2.1117735 -0.031578682 0.3574905
-0.05574422 -1.3085523 0.054057416 0.388833 -1.2243241 0.26182055 -2.6666317 -0.5645473
-0.3035059 -0.5335605 0.056122396 -0.1913342 -0.09005715 0.48914176 0.02683366 -0.12714234
-0.13052508 -0.45365265 -0.0013888845 -0.035258457 0.042225603 0.16727178 0.04568767 -0.018105477
-0.20436762 -0.081071004 0.04796366 -0.06956019 -0.14134696 -2.3344135 -0.037553106 -0.11269686
0.28742585 0.34092662 -0.039460104 0.07627645 0.012932463 0.5150136 -0.012725572 0.04596043
0.13346922 0.2586562 -0.025999464 -0.09389277 0.019049725 0.21967982 0.0059091267 -0.13936041
-0.017370328 0.415851 0.02523212 0.19588655 0.15471587 -2.3552766 0.06355224 0.17186499

fcs1.bias f4 [200]
00000000: 0921 f9be 9176 2dbf c2dd 393e 81c4 123e
00000010: 679f 243f 0eaf f8be 9cff 4bbf 211b d5be
00000020: f62f 91be c524 c2be 8a15 25bf 0781 cfbe
00000030: 70fb 73bf 68be adbe d4bf 06bf b96c dbbe
00000040: 054f a1be a56f c1be 2dd0 24bf 4cc9 c1be
00000050: cfb1 b4be 5249 a1bd 8f9e 56be 9ac4 61bc
00000060: 3248 68bf 5693 1bbf 763e b0be b07c 97bf
00000070: 675e dabc 83ac d7be 9f10 913f 16e5 1dbf
00000080: ac9b 26bf 2bec b7be 8409 d6be bf33 e0be
00000090: 3890 35be 12ec 00bf 6828 98bf dab1 f8be
000000a0: 94aa c7be 7f8e 3cbe b7fe 2dbe 5836 9abe
000000b0: 8db3 9ebf 9f0f d6bf 53bb c03e e3b4 80be
000000c0: 558d 65be b6cc aabe 0aec 0abf 21f5 b3be
000000d0: 3e57 053a e3c7 59bf adce 79be 99b2 ebbe
000000e0: 23ff e0be e3c3 6cbd b839 8cbe f713 2dbe
000000f0: 8e29 08bf 3fd2 81be ffdf afbe e8cf 2b3f
00000100: 9830 3dbf 55f7 9abe d3d0 bbbe e285 d1be
00000110: fbac 09bf cf4b 6abe 9a66 7e3e 8df0 65bf
00000120: 84b8 3fbf 09d3 92be 38b5 5cbe bad5 e6be
00000130: ce00 b6be 8436 f2be 4beb bdbe a1aa 88be
00000140: b89d e1bc d957 6cbd 2665 9bbe 703c 33bf
00000150: abd4 263f 230f 97be a938 e4be 8c7a cdbf
00000160: c3c3 98bd 664c 14bf 01e6 d03e a84c 0dbf
00000170: 00d6 913e 0d1c 27bd be54 e5bd f8d8 10bf
00000180: 140a ea3e 3397 1dbf e446 873f 38ce d6bd
00000190: 9545 b2be 8791 67bf 0433 6abe 1206 14bf
000001a0: c68b 493e fb2a d6be 0245 48bd a519 8cbd
000001b0: bf0f 5cbf 35de e7be 3949 4dbf 0d8a 87bf
000001c0: 0ff8 123e 83a3 bdbe ce2e 78bd 8c14 b3be
000001d0: 6515 99be 4276 45be 8f49 c9be 5eaf 19bf
000001e0: 8fc7 f9be 94cc 09be 5963 66be 65b3 3bbc
000001f0: a1da 07bf 2ada 3fbe 1abb c4be d09c febe
00000200: 6889 fabe b04b d73e 8ec2 803c fd6f 6dbe
00000210: a8ef 04be d451 36bf dc71 7fbe c124 083d
00000220: 389e 1fbf 7b22 eabe 14be 29bf a1a5 a0be
00000230: 5d72 ddbe 80e0 7abd 0025 0dbf 7ea3 5d3d
00000240: fcf6 67bf bc81 b6bd 9d40 0abf 49b4 50bf
00000250: a687 00bf fc20 983c c342 1cbf 7d7e 25bf
00000260: 676a 28bf 33d7 42be b10f 6cbf f6e6 04bf
00000270: 468c 11bf 30e5 04bf 3ddd 05bf feb6 e9be
00000280: 365c 25bc e5bd 823d 9c66 1dbf 5af6 663d
00000290: 0fd2 1cbf 60c2 a7be 20f7 68bf 9661 97be
000002a0: ac2c a3be 9149 6cbd 94dc e1be 43ae d8be
000002b0: 904f b3bd d32d e3be 1e64 e3bd f57b 113e
000002c0: 5dd6 a4bd 6a38 7dbf 55d6 60bf 1ac3 bdbe
000002d0: 1048 aebd d07b bbbe 4a5f 9bbe be88 2bbf
000002e0: 0084 113d 040e 15bf 6c6e 42bf 2cb0 403f
000002f0: c071 90bd ad2a c73e 478d e5be ccea e5be
00000300: 3766 45bf d10f 1a3c ba60 62be b5a6 6abe
00000310: 95a6 d3bd 0949 69bf a94c aabe fc71 40be
-0.48658016 -0.6775904 0.18151 0.14332773 0.6430573 -0.48571056 -0.79686904 -0.4162226
-0.28356904 -0.37918678 -0.6448599 -0.40528128 -0.9530554 -0.3393433 -0.52636456 -0.42856386
-0.315056 -0.3778049 -0.6438015 -0.3784889 -0.35291907 -0.07875313 -0.20958923 -0.013779784
-0.9073516 -0.6077169 -0.34422654 -1.1834927 -0.026656343 -0.42123803 1.1333197 -0.6167768
-0.65081286 -0.3592237 -0.41804135 -0.4378948 -0.17730796 -0.50360215 -1.1887331 -0.4857319
-0.38997328 -0.18413733 -0.16991697 -0.30119586 -1.2398545 -1.6723517 0.37642917 -0.25138006
-0.22417195 -0.33359307 -0.5426642 -0.35147956 0.00050865475 -0.8507063 -0.24395247 -0.46034697
-0.43944654 -0.057804 -0.27387786 -0.16902147 -0.5318841 -0.25355718 -0.34350583 0.67114115
-0.73902273 -0.30266824 -0.36682758 -0.40922457 -0.5377957 -0.22880481 0.24843827 -0.89820176
-0.74890924 -0.28676632 -0.21553504 -0.45084935 -0.3554749 -0.47307217 -0.37093577 -0.2669268
-0.027541026 -0.057700966 -0.30350608 -0.70014095 0.65168256 -0.29503736 -0.44574478 -1.6053023
-0.074592136 -0.57929075 0.4080048 -0.55195093 0.28483582 -0.040798236 -0.11197804 -0.5658107
0.45710814 -0.61558837 1.0568509 -0.10488552 -0.34818712 -0.9045643 -0.22871023 -0.5782176
0.19682226 -0.41829666 -0.048893936 -0.06840829 -0.85961527 -0.45286718 -0.80189854 -1.0589005
0.1435244 -0.37038812 -0.06059151 -0.34976614 -0.29899135 -0.19283393 -0.39313933 -0.60033214
-0.48785064 -0.13456947 -0.22498836 -0.011456345 -0.53067976 -0.18735567 -0.38423997 -0.49729013
-0.48932958 0.42049932 0.01571777 -0.23187251 -0.12982047 -0.7121861 -0.24945778 0.033238176
-0.623508 -0.45729432 -0.6630566 -0.31376365 -0.43251315 -0.061249256 -0.5513458 0.054110996
-0.90611243 -0.089114636 -0.5400484 -0.81525093 -0.50206983 0.018570416 -0.6103937 -0.6464613
-0.6578736 -0.19027404 -0.92211443 -0.5191492 -0.56854665 -0.5191221 -0.5229071 -0.45647424
-0.010092786 0.06383876 -0.61484694 0.056387283 -0.61258024 -0.32765484 -0.9100208 -0.2956664
-0.3187002 -0.057687346 -0.441136 -0.4232045 -0.0875541 -0.443709 -0.1110308 0.14207442
-0.08048699 -0.98914206 -0.87827045 -0.37062913 -0.085098386 -0.366179 -0.30346137 -0.67005527
0.035526276 -0.5822451 -0.7594974 0.75268817 -0.07052946 0.38899747 -0.4483435 -0.44905698
-0.7710909 0.009403185 -0.22107211 -0.22915156 -0.103345074 -0.9112707 -0.33261612 -0.18793482

fc2.weight f4 [150, 200]
00000000: 4c08 a3bd 524b 6e3e 41f4 823d d486 70be
00000010: 852f 823e d3ca 71bd 2998 1cbe e80e cebe
00000020: 07e9 c0be b031 ecbe 6a45 9b3e 89ce b4be
00000030: 1014 c3be 45ec 38bf 7fbd 88bf da27 eb3c
00000040: a179 a4be 6f3f 6bbf 790e 44bf 13ae e0bd
00000050: 2547 31bf deba afbc 962c 19bf 98b0 59bf
00000060: 724c fbbe d0c2 fcbe 46bb f8be b02f cabe
00000070: 0486 65be 25af 363d fe6e 553d 6a06 673e
00000080: 037d 95be 5ec4 e6bc d7d4 5d3e 3a26 5c3e
00000090: e996 003f 08ba b73e 9816 8d3c 7fe3 57be
000000a0: 8213 563d 9465 733d 6843 443e 01d4 87be
000000b0: 09ee 08be 082d cbbe 513e 7cbc f605 36be
000000c0: d6d4 153e 795f 6cbe 745e b2be a253 46be
000000d0: 36d0 c4bc b89f ddbe 810d 49bf 4887 6ebe
000000e0: b0b3 c0bd 9947 d3bc b4ac 16be e9dc 50bf
000000f0: 83f2 06be c79d 92be b647 283e 19dd 07be
00000100: 0a4b fbbd 7499 cabc f70e a1bf d4fd 02bf
00000110: a52d 633d 5c5e 10be ec93 0fbf 99e5 323c
00000120: d6d3 87be 9f65 c83c 7d67 6dbe 6e45 a03e
00000130: 31b3 66be 0e30 5d3e 063b 113e 5731 54bf
00000140: b768 2abe dd27 4dbe 3bdb 283c 9c11 8d3d
00000150: 62d1 c83d 55e8 cf3d ca75 4dbb d61c 7a3e
00000160: 951c 57bf 9886 12be 295e c53d 7bef c6be
00000170: 96f1 dfbc ce96 42be c284 873b 5dba 08bf
00000180: 8ad9 08bf 1a60 3fbf 19a4 7cbf 8697 d5bd
00000190: 2b9f bebe c20d f5bd 7cdb a43e 0bfe 063e
000001a0: 1f1a a73d 885c b83d 44d4 b4be 06bf 91be
000001b0: 2a66 a2bd 637b 883c f6c5 d3bc 7ebb 053e
000001c0: e8f1 c83e 3ce7 03bf 97b0 35be dbcf 91be
000001d0: dfe7 7fbe c65a 08be 4ed7 9ebe 2917 edbc
000001e0: 8956 af3d 4c73 29be 09a2 69bf b937 f1bd
000001f0: 286f 6c3e 6021 3cbe a52f fbbe fe83 c0bd
00000200: 495a cebe 850b 5bbd 486a 3abf 2150 da3b
00000210: f4d5 76be 7393 583d 30c9 51bd 2765 23be
00000220: 5cae 683d f1e2 10be 4275 853d 2c9f 0abd
00000230: 3ba2 4b3e 085c 103d 678a 463e 50c7 863d
00000240: 2339 b5be aee0 433b e97b b4bd 6ec3 babd
00000250: b79c 16bf e733 c6be 2724 103e d39e 643e
00000260: 6469 d8be 25e4 ed3d 5d17 1dbf 95f9 81bf
00000270: 4cf4 35be 6246 7e3e ac69 493e 9337 9bbe
00000280: d477 c1bf de2b 013e 6fbc 4dbd 155c f2bd
00000290: d708 90bb e18a 95be 42a8 aa3d f035 2d3d
000002a0: 4b5b 96bd 63ae 92bd 5cfb 493e 54c4 afbe
000002b0: 0fda 91be bc85 a9be f213 25be 5dda 17bc
000002c0: fb39 05bf 5572 06be 9912 343c 2f2e 34bd
000002d0: 81b3 86bd 3032 6bbd 1e86 a6be 2184 dfbe
000002e0: 1636 b5be d369 e1be aad0 43be 8a23 a8bd
000002f0: d407 273e d47e 8cbb eddd 0dbe 2030 f1be
00000300: 2ab8 4dbe 741f 58be 934d 14be 4b43 1dbe
00000310: 44ed 1fbf 63b5 afbd 3585 853d 33b2 2bbf
00000320: 9853 303e a6bd 32be 1062 1a3e 00fa 3abe
00000330: b4dd c0bc 7188 c1be 2bcf 89bd d378 b7bd
00000340: 9a27 d03d b2df a7be 159d 863e f0e0 2ebf
00000350: dc86 bcbe ab20 f2be 8cb9 83bf f9c8 583e
00000360: 13c4 2a3e bc59 a2bf 1e53 3d3e 3da2 abbe
00000370: 77ac 36bc 7c40 0a3e 9ea6 1cbf ed0c 2dbd
00000380: e147 3dbe 2d6a 23be 9f57 0e3c 8261 99be
00000390: b8d7 babb 300d f5be b6c7 ca3d aa53 0dbe
000003a0: dce0 59bf ce5f 83bd 169a 443e 7888 983e
000003b0: 0bf4 88be ccbc fbbe 1d43 89bd ab0f 49be
000003c0: 4147 4bbe b0a1 50bd e792 d4be 3115 1cbf
000003d0: 2648 d5be 9945 2f3d ecb1 95be 3dc5 963d
000003e0: 793c 4abf 8887 f2bd 0baa df3c bec2 59be
000003f0: dde4 803d e040 31bf 747a 243e d746 d93c
-0.07960567 0.2327092 0.06394244 -0.23488933 0.2542688 -0.05903132 -0.1529242 -0.40245748
-0.37677786 -0.4613166 0.30326396 -0.35313824 -0.38101244 -0.7223552 -1.068283 0.028705526
-0.32124045 -0.91893667 -0.76584584 -0.10970702 -0.6924918 -0.02145141 -0.5983366 -0.85035086
-0.4908176 -0.4936738 -0.48580378 -0.39489508 -0.22414404 0.044600625 0.052107804 0.2256104
-0.2919694 -0.028169807 0.21663223 0.21498957 0.5023027 0.35884118 0.017222688 -0.21082877
0.052264698 0.059423044 0.19166338 -0.26528934 -0.13372053 -0.39682794 -0.015395717 -0.17775711
0.14631972 -0.23083295 -0.34837687 -0.19367841 -0.024025064 -0.43285918 -0.7853623 -0.23293793
-0.09409273 -0.025790976 -0.14714319 -0.8158708 -0.13178448 -0.28636 0.16433606 -0.13267936
-0.12270172 -0.024731375 -1.2582692 -0.5116856 0.055463452 -0.14098495 -0.56085086 0.010918998
-0.26528805 0.02446252 -0.23184009 0.3130297 -0.22529294 0.21600363 0.14182672 -0.82887787
-0.16641508 -0.20034738 0.010306175 0.06888124 0.098055616 0.10151736 -0.0031350725 0.24425063
-0.8402799 -0.14309156 0.096371 -0.38854584 -0.027336877 -0.1900284 0.004135699 -0.5340937
-0.5345694 -0.74756014 -0.98687893 -0.104292914 -0.3723081 -0.11965515 0.32198703 0.13182847
0.08159279 0.09002024 -0.35318196 -0.28466052 -0.079296425 0.016660398 -0.025851231 0.13059804
0.3924706 -0.5152471 -0.17743145 -0.28478894 -0.24990796 -0.13315877 -0.3102364 -0.028941708
0.08561427 -0.16547889 -0.9126287 -0.117782064 0.23089278 -0.18372107 -0.49059787 -0.094001755
-0.40303257 -0.053477783 -0.7281842 0.006662384 -0.24105054 0.052874994 -0.051217258 -0.15956555
0.056806907 -0.14149071 0.06516506 -0.033843204 0.19886105 0.035244018 0.19388734 0.065809846
-0.35395154 0.0029888558 -0.088126965 -0.091193065 -0.5883288 -0.38711473 0.14076291 0.22326212
-0.42267907 0.11615781 -0.61363775 -1.0154291 -0.17768973 0.24831536 0.19669217 -0.30315837
-1.5114694 0.1261439 -0.050228532 -0.118339695 -0.004395585 -0.2920752 0.08332874 0.042287767
-0.073416315 -0.07162168 0.19724792 -0.34329474 -0.28486678 -0.33109844 -0.1612089 -0.00926837
-0.52041596 -0.13129552 0.010990762 -0.043989357 -0.065772064 -0.05742091 -0.32524198 -0.43655494
-0.35392827 -0.4402605 -0.19122568 -0.082099035 0.1631158 -0.00428758 -0.13854189 -0.4710703
-0.20089784 -0.21105748 -0.14482717 -0.15357701 -0.62471414 -0.08579519 0.06519548 -0.67068785
0.17219388 -0.17455158 0.1507647 -0.1825943 -0.023543216 -0.3779941 -0.06728967 -0.08958592
0.101638034 -0.32787853 0.2629172 -0.6831198 -0.3682164 -0.4729055 -1.0291 0.21170415
0.16676359 -1.2683635 0.18488738 -0.33522215 -0.011149517 0.13501161 -0.6119174 -0.042248655
-0.18484451 -0.15958472 0.008687883 -0.29957205 -0.005701985 -0.47861624 0.09901373 -0.13801447
-0.85108733 -0.06414758 0.19199404 0.29791617 -0.2674869 -0.49167478 -0.06702254 -0.19634883
-0.198514 -0.050935447 -0.41518328 -0.60969836 -0.41656607 0.042790983 -0.29237306 0.07361839
-0.78998524 -0.11842257 0.027302762 -0.21265694 0.06293652 -0.69239616 0.16062337 0.026523037

fc2.bias f4 [150]
00000000: 19d6 26bd 5a7f 433e 8046 01be 6202 0dbd
00000010: 7d79 5dbe cad0 14bf fa34 09be f2be 01bf
00000020: ec86 f6bd c1c6 82be 6984 d2bd 7bec 85be
00000030: e98c 19be 2723 37be d016 8a3e 2aab e73e
00000040: 6df8 42be c291 7ebe 86cb cdbd 9981 d3be
00000050: 56f8 1abe ba0c 9bbb a6ef 04bf 0d63 b1bf
00000060: 6bdd 10be 7c25 06bf cacd efbe a524 11be
00000070: e8b8 cdbd 9cc4 04bf b098 23be 54a1 743f
00000080: e762 22be 1dc0 d6bd 6070 d2bc af5b 80be
00000090: 3a36 13be df60 dbbd dad3 15be 19ae 6dbe
000000a0: e339 d0be ba8d 04be 7b58 ee3d e929 09bf
000000b0: ba1b b7bd 280b 86bd e721 4ebe 30df 42be
000000c0: 08ad 31bf 854f 35be e3da bdbe 2530 bcbd
000000d0: 5fc5 82be 62c7 163f 26f8 b4bd 5be8 46bd
000000e0: 1bb7 a3bd 6785 2cbe 1043 bbbf 458d 31bf
000000f0: acee 08be 3407 31be 8fae 36be ec83 20bf
00000100: 33dd 213e 758f 11be 9e52 40bd e924 83bd
00000110: c1b8 83bf b5bf c8bd 7eff d8bc 3f98 133e
00000120: 9e8e bbbe 053e 66be ca68 f4bd ddb2 ddbd
00000130: b8fd 86bf 3b61 f2bd 1c1d 18bf d17b 1abe
00000140: b5ed 743e 8ea7 3dbf efeb a03f 8ed1 4abd
00000150: ed7f f0bd 2d13 46be c787 58be bcfd 49be
00000160: 5adb eebd 0ddd ecbd f5e6 47bd f916 7cbd
00000170: efb7 91bf c84b 94be 7d02 053f 1703 03bf
00000180: 7185 02be 442a c1bd 95ed 48be 885c 41be
00000190: d773 48be 47dd c83d e3ed 633f 0cf1 5ebe
000001a0: 5391 bbbe 0464 37bf 5e53 683e 28cc 8fbe
000001b0: d926 2cbf cc3e d3bd ba16 f5be 9520 23bf
000001c0: e77a 56be 489e 0cbf 2bf3 2abd 7890 9ebe
000001d0: ff0c 943e 40da 93bd 36da 01be acec 43bf
000001e0: b2b5 17bf ab94 d23e a495 38bf 13f8 84bd
000001f0: 60e2 e0bb 8f26 94bd df47 6abf 6fd7 d9bd
00000200: 76ff 08be b2bb 67be 2fab a7bf dc33 2cbe
00000210: 1389 463e eb37 0ebf 6626 a8be c444 5bbe
00000220: ddf2 37be 05a7 e2bd bd7a 203c ae70 1bbf
00000230: a68c 6e3e 3cf0 abbd 344d c1be 1694 cabe
00000240: bace 3d3e 47cd 37bf 340d 8cbe 9368 30bd
00000250: eb4c e7bd 2251 22be
-0.040731523 0.1909155 -0.1262455 -0.0344261 -0.21628375 -0.58131087 -0.13399115 -0.50681984
-0.12037453 -0.25542262 -0.102791615 -0.26156983 -0.14995159 -0.17884503 0.2697053 0.45247775
-0.1904008 -0.2486029 -0.10048585 -0.41309813 -0.15133795 -0.0047317417 -0.51928174 -1.3858353
-0.14146964 -0.52400947 -0.46836692 -0.14174135 -0.10045034 -0.518625 -0.15976214 0.9555867
-0.15858041 -0.104858615 -0.02568835 -0.2506995 -0.14376155 -0.10711836 -0.14631596 -0.23210944
-0.40669164 -0.1294469 0.1163797 -0.53579575 -0.08940835 -0.06545097 -0.2013012 -0.19030452
-0.6940465 -0.17706116 -0.3708106 -0.0918887 -0.25541207 0.58897984 -0.08836393 -0.048561435
-0.07993909 -0.16847764 -1.4629841 -0.69356185 -0.13372296 -0.17287904 -0.17840026 -0.62701297
0.15807037 -0.14214881 -0.04695379 -0.064035244 -1.0290757 -0.0980219 -0.026489016 0.14413546
-0.36632246 -0.22484596 -0.119340494 -0.10825131 -1.0546179 -0.118349515 -0.5941942 -0.15086295
0.23918803 -0.74083793 1.2572001 -0.049516253 -0.1174315 -0.19343252 -0.21145545 -0.19725698
-0.11662932 -0.115655996 -0.048804242 -0.061545346 -1.1384257 -0.28964067 0.5195692 -0.5117659
-0.12746216 -0.0943189 -0.1962188 -0.18882954 -0.1957544 0.0980783 0.8903486 -0.2177164
-0.3663431 -0.71636987 0.22688052 -0.28085446 -0.67246777 -0.10314712 -0.47868901 -0.6372159
-0.20945321 -0.5492902 -0.04173581 -0.30969596 0.28916165 -0.07219362 -0.12680897 -0.7653301
-0.5926162 0.4112905 -0.72103333 -0.06492629 -0.0068629235 -0.07233917 -0.91515917 -0.10636794
-0.133787 -0.22630194 -1.3099116 -0.16816658 0.19388227 -0.55554074 -0.32841796 -0.21412951
-0.17963739 -0.11067013 0.009794888 -0.6071881 0.2329584 -0.083954304 -0.37754214 -0.39566106
0.18535891 -0.71797603 -0.27353823 -0.04306848 -0.11293968 -0.15851262

fc3.weight f4 [1, 150]
00000000: c438 3f3c 9d9a 7fbc 78ab 3e3c b3e6 6a3b
00000010: f764 0fbc 9979 24bc 552f c93c 8360 153c
00000020: 6936 c33c 8ca3 30bc 21b7 b8bb b785 9dbc
00000030: 0303 75bc 2c32 893c d238 fc3c 5754 453c
00000040: 3e2b c83a e536 383c f8f3 40bc 1597 1bbc
00000050: 3230 1dbc 1151 533c e043 40bc a109 20bc
00000060: dede 033d 682b 953c 4900 39bd 0fbe 4bbc
00000070: 6e2b 6c3b b052 ebbc 6c67 963b b95c 7abc
00000080: bbda bcbc c7a4 9bbc 3d9d b2bc fe57 f83b
00000090: c216 da3c c942 1bbc 5b02 2aba e90f 2a3c
000000a0: 9597 d3bc fafd 37bc 74ac 9bbb 5743 35bd
000000b0: 97d2 ecb9 a8bf 503a 14f9 233d ae2f edba
000000c0: f600 37bc e5ff 3abd b51b 103c 7902 803c
000000d0: f4a6 8c3b 1e05 ec3b 81c1 e7bc 3df7 31ba
000000e0: 9a8a 5a3c d669 603c d573 6abc 1941 15bc
000000f0: 7288 bdbc 1357 253c 5bf5 1bbb c9d8 f8bb
00000100: 69b7 853b a53e babc 8cb5 9dbc 408f da3c
00000110: 9609 a8bc 4078 693c ad4a 003d 9283 98bc
00000120: 49f6 483c 46ea 6abc 4965 8abc 9d2a b23c
00000130: 95e8 5bbc 21b3 ca3b 27b2 d23c 95fd 0e3c
00000140: 4290 2abc f869 bcbc 51e5 dd3b d693 e93c
00000150: bb83 b9bb 9dd2 813c e0f9 05bb b43f 173c
00000160: 545d 01bd ffa2 c03a 006e 62bc 455d ad3b
00000170: cccb 81bc a1b9 223d b473 1f3c e914 1c3b
00000180: 8f26 acbc 4a1c 90bc d529 26bc edef aebc
00000190: 5b97 1e3c 3024 09bd aef7 3b3c ba7c 513c
000001a0: e2be 45bc 410a dbbc 419d 50bc e077 babc
000001b0: 703a 79bc f9da 2ebb df18 a6bc 4134 423c
000001c0: 43f1 7cbc 7c63 66bc 7844 873c 6203 663d
000001d0: 354e 033c cbcf d43b c0c4 5cba 8cb7 60bc
000001e0: d627 a0bc 3c77 7f3c 217e f439 e140 b83c
000001f0: 4437 743c b679 b13c fcca 1dbc c6a9 cebb
00000200: c7cf 3a3c 7b88 a33b 68da 1bbc b26e a03c
00000210: 4ef0 3fbc 5f19 03bc cc56 303c cb1a de3c
00000220: 67ad 603c b9f5 80bc 53a4 283d 6a9d 99bc
00000230: 7795 9d3b d632 36bc 8896 82bc f392 d2bc
00000240: a02a 8e3c 6d19 4fbc 91f7 2dbc b7cd fc3b
00000250: 9b34 86ba f2bb 6d3c
0.011671249 -0.0156008275 0.011637561 0.0035843074 -0.008752099 -0.010038757 0.024558702 0.0091172485
0.023829656 -0.01078118 -0.005637065 -0.0192288 -0.014954331 0.016747557 0.030788813 0.012044034
0.0015271676 0.011243557 -0.011776917 -0.00949647 -0.00959401 0.012897746 -0.011734933 -0.009767921
0.032194965 0.018209174 -0.045166288 -0.01243545 0.0036036628 -0.028725952 0.0045899656 -0.015280896
-0.023053518 -0.01899947 -0.021803493 0.007578849 0.02662218 -0.009476372 -0.00064853363 0.01037977
-0.025829116 -0.011229986 -0.0047507826 -0.044253673 -0.0004517033 0.00079631293 0.04003246 -0.0018095875
-0.011169663 -0.045654196 0.008795668 0.015626179 0.0042923633 0.0072027585 -0.028290512 -0.00067888555
0.013338709 0.013697108 -0.014309843 -0.009109759 -0.023136351 0.010091561 -0.0023797366 -0.007594202
0.004080702 -0.02273495 -0.019251607 0.026679635 -0.020512383 0.014249861 0.031321216 -0.018617425
0.01226575 -0.014338082 -0.016894 0.021748835 -0.013422151 0.0061859046 0.025719715 0.008727451
-0.01041037 -0.022999749 0.0067717214 0.028512876 -0.0056614554 0.015847499 -0.0020443127 0.009231497
-0.031583145 0.0014697014 -0.013820171 0.0052906596 -0.015844248 0.03972781 0.009732176 0.0023816174
-0.02101448 -0.017591614 -0.0101418095 -0.02135464 0.009679641 -0.033481777 0.011472626 0.012786085
-0.012069436 -0.026738288 -0.012732805 -0.022762239 -0.0152116865 -0.002668081 -0.020275531 0.011853279
-0.015438381 -0.014061805 0.01651214 0.05615557 0.0080142515 0.0064944974 -0.0008421652 -0.013715636
-0.019550245 0.0155923925 0.0004663328 0.022491874 0.0149057545 0.021664482 -0.009630915 -0.0063068597
0.011402077 0.004990635 -0.009512521 0.019584034 -0.011715008 -0.008001654 0.0107628815 0.027112385
0.013713217 -0.01574217 0.041172337 -0.018751819 0.0048090774 -0.011120519 -0.01594092 -0.025704836
0.01735431 -0.012640339 -0.010618106 0.007714953 -0.0010239066 0.014510142
