udacity/Artificial Intelligence/Deep Reinforcement Learning/Collaboration and Competition/agent1_checkpoint_actor.pth (torch, 144552 bytes, 6 tensors)

fc1.weight f4 [200, 24]
00000000: 5db7 9db9 0252 2d3e 6b8d 0abd cc33 65bd
00000010: ac55 a73d 7a13 5f3a f785 cd3c 72fe 18be
00000020: 7997 28bd 467a 2d3c 37b2 d3bd 7e80 c7bd
00000030: 8427 ea3c df61 6bbd 1558 b6bd 070c 95bd
00000040: 5947 80bd 6d6c 48bd 95a1 debd 29ad 03be
00000050: 102d f13c da6a f6bd 9887 90bc aa36 52be
00000060: 7b6f febb 20cb 0abe 0405 0fbd 662d 063e
00000070: 21af 2e3b 797b 5e3e 8529 e83c dc52 e23d
00000080: b77e 3dbd 0892 40be 2d3a 683c 1984 833d
00000090: ecdd b4bc dad3 b13e a180 113c cf5f 353c
000000a0: 4d87 3abd 2a66 72bc 615d 2f3c 1136 fa3d
000000b0: 6c7f 08bd 3d64 a03e bb5f 9ebc eb69 d03d
000000c0: 5bf2 223e e2f4 5d3d a938 5c3d 1c9d 22be
000000d0: 88bb c23d c491 2ebe f7c7 873d 960c 1fbe
000000e0: 6d78 8a3d 6fab f93d 4390 a43b 4662 3abd
000000f0: 020e 383e 0fbf a4bc 7aa4 13bc e775 0abe
00000100: bc4f 183e 51e0 8c3d 1216 23bd 87a4 153d
00000110: 4ab7 143e 666b 6abd 65e3 973d d92b 923d
00000120: b71e a5bc ef48 bdbe fe8c 853b a065 fcbd
00000130: 4aa2 96bc 6a22 d0bc 3bac 14bb 64a7 253b
00000140: 06dd c1bd 9a09 bbbe 13ad d03c f9b9 373d
00000150: b6f7 0c3d dea4 1fbe ac3c a43a 0014 cbbb
00000160: be1c 69bc 2b84 b3be 7e1b e93c fe6f 8a3e
00000170: 3e04 423d 98ab cfbe 3db0 28bd f1e0 4c3e
00000180: 9b84 563d e3a0 513e 15d5 77bd 5dd8 c5bc
00000190: 9ef9 f9bd 4a96 0d3e 6bb2 a83c 384d 923d
000001a0: 673d 103d 6ed2 e83d 77c9 e43c 5099 e73a
000001b0: 8252 803e 0472 a53c e47e 1ebd e70c d5bc
000001c0: 222b 12bd 22be fe3d 2d92 e1bc 6b9f 2ebd
000001d0: fb64 d53e 5433 babd c97e c93c 9780 5b3d
000001e0: 5222 9c3d 811a 15be f5af c23c aec6 013d
000001f0: d699 313e 3fa3 11be 39b0 7cbb 7daf 74bd
00000200: 3e0a 613d e9c8 c9bd 21b0 363d efd4 8abd
00000210: 44c3 d53d 5af4 c63d 1fd5 f43c e2af 483d
00000220: 34c6 3e3d c01a 84bd 8dcb e13d 1a49 803b
00000230: 2588 54bc befa 283e f662 1f3c 982a 84bb
00000240: ea7b 883e c851 9a3d cfd5 963d 7ab7 b3bd
00000250: 9384 2bbe 73ce 87be 1fba 20bd bfb0 81bd
00000260: 0e7a 623e 2791 633d cb14 293d 9bff 94bc
00000270: 1019 e3bd a978 85be 58c5 15bd 2337 883c
00000280: 9567 dc3d 9e2a a33d 18a7 dabc 41a6 293e
00000290: f0c0 84bd 50e3 95be 4db2 0a3d a5e5 ca3d
000002a0: 1ee1 583c 5eed 40be 039e 943c 6fe6 d93c
000002b0: 1e18 d7bd ce83 c03d 77e7 b6bd e6af 9b3d
000002c0: bcc6 bdbd 3f18 afbd 3760 32bb 651f 81bc
000002d0: 62af 8abd 064f e13c 8e88 053d 7757 a73d
000002e0: 3023 99bc adf5 2bbd e968 e73d fd10 273e
000002f0: 3f71 39bd 2ec1 8cbd 5631 48bc 45cd 6c3d
00000300: b27f d8bc 8c52 6dbe 30be afbc fe48 b83d
00000310: 8cbc 143e e238 993d 1ff8 50bc a2f4 b3bb
00000320: 8fd7 b0bd c8b8 05be f80a 9fbc 2f35 84bd
00000330: bd71 1e3d 35b6 a7bd 3a81 fc3c fbcc 2ebc
00000340: b03c a4bd 27b3 0cbe be75 67bc ef29 643b
00000350: e0b4 153d 5a07 29bd b983 353d 0c69 94bd
00000360: 0597 17bd 7f6b 68be b067 70bb 26d3 9ebd
00000370: 4171 74bd 7445 ca3d 276e 1b3d a0d8 c7bd
00000380: ce63 223d 6906 0dbe 50bb 8c3d 0d73 b93c
00000390: 7421 803d 9e37 353e 965b 40bd 391b c43c
000003a0: 8504 c43c cc92 8dbd dd3e 323c 3f26 143e
000003b0: 297d 693e 2576 c63d 4650 5bbd e842 b53d
000003c0: 4843 e83c f553 55ba 89d0 a9bd 0ee5 923b
000003d0: d091 f43c 7ab4 17bd 2fc3 a0bd 6e36 0a3d
000003e0: 24c8 173c 1e9e e3bc 1ea1 3c3d 1461 0e3e
000003f0: bf51 c93d 4d79 923d 9726 98bd 3d68 3a3d
-0.0003008199 0.16925815 -0.033826273 -0.0559576 0.081706375 0.0008509677 0.025088293 -0.14940813
-0.04116008 0.010588234 -0.10336726 -0.09741305 0.028583296 -0.057466384 -0.08903519 -0.07277685
-0.062636085 -0.048931528 -0.10870663 -0.12859024 0.029440433 -0.12032099 -0.017642781 -0.20528665
-0.0077647544 -0.13554049 -0.034916893 0.13103256 0.0026654678 0.21726789 0.02834011 0.110509604
-0.046263423 -0.18805707 0.014174026 0.0642168 -0.022078477 0.34731942 0.008880765 0.011070206
-0.04553919 -0.014794866 0.010703416 0.122173436 -0.033324644 0.31326476 -0.019332757 0.10176452
0.15912764 0.054188617 0.053764973 -0.15880245 0.09508425 -0.17047793 0.06629937 -0.15532145
0.06761251 0.121909015 0.00502208 -0.045503877 0.17974094 -0.020110635 -0.009011382 -0.13521539
0.14874166 0.068787225 -0.03981597 0.03653386 0.14523044 -0.05723133 0.07416419 0.071372695
-0.020156248 -0.36969706 0.0040756455 -0.12324071 -0.018387932 -0.025407035 -0.0022685665 0.0025276775
-0.09465985 -0.36530763 0.025473153 0.04485509 0.034415923 -0.15590236 0.0012530289 -0.0061974525
-0.014228044 -0.35061774 0.028455492 0.27038568 0.047367327 -0.40560603 -0.0411837 0.20007683
0.052372556 0.2047153 -0.060505945 -0.024151022 -0.12205814 0.13826862 0.020592889 0.071436346
0.035214808 0.11368261 0.027928097 0.0017669592 0.25062948 0.020195968 -0.03869523 -0.026007129
-0.035685666 0.12438609 -0.027535522 -0.0426325 0.41678604 -0.09091821 0.024596589 0.05358943
0.076237336 -0.14560892 0.023765543 0.031683616 0.1734384 -0.1422243 -0.0038557185 -0.05973767
0.05494141 -0.09852774 0.044601563 -0.06778895 0.104376346 0.09714575 0.02988678 0.04899586
0.04657574 -0.06450415 0.11025152 0.0039149644 -0.0129719125 0.165019 0.009728184 -0.004033398
0.2665704 0.0753513 0.073649995 -0.0877523 -0.16749792 -0.26524696 -0.03924 -0.0633254
0.22116873 0.05555835 0.041279595 -0.018188288 -0.11088765 -0.2606862 -0.036565155 0.016627854
0.10761944 0.07967113 -0.026691005 0.16567327 -0.064821124 -0.29274988 0.033861447 0.099070825
0.013237266 -0.18840548 0.018141752 0.026599137 -0.10502647 0.0940014 -0.08930867 0.07601909
-0.09266421 -0.085495465 -0.0027217993 -0.01576204 -0.06771733 0.027503502 0.03260093 0.081709795
-0.018693537 -0.04198234 0.11299307 0.16315074 -0.045274016 -0.068727836 -0.012218794 0.057812948
-0.026428077 -0.2317602 -0.021452993 0.08998297 0.1452505 0.07481553 -0.012754469 -0.005491809
-0.086348645 -0.1305877 -0.01941441 -0.064554565 0.038682688 -0.0818905 0.030823339 -0.010668988
-0.08019388 -0.13740216 -0.014127193 0.0034815033 0.03654945 -0.041266777 0.044315074 -0.072465986
-0.037009258 -0.22697257 -0.0036682896 -0.07755117 -0.05967832 0.098765284 0.037946846 -0.09758115
0.039645962 -0.13771977 0.068716645 0.022637868 0.06256381 0.17696998 -0.046962343 0.023938762
0.023927936 -0.06912765 0.010879246 0.14467715 0.22801651 0.09690503 -0.05354335 0.08850652
0.028352395 -0.0008137816 -0.08291728 0.004482872 0.029854685 -0.03703735 -0.07849728 0.033743314
0.009264026 -0.027785357 0.04605209 0.1390422 0.09830045 0.071520425 -0.074292354 0.045509566

fc1.bias f4 [200]
00000000: debb 493e a635 8bbc 5418 5d3d e1ab b93a
00000010: e6a7 60be 96bb 18bd 2891 8b39 8c14 2abd
00000020: f667 8b3e bc23 39be 476f 88be 13dc 88be
00000030: 8f99 303e d0de 17bd 1c3a 453e ef88 dd3b
00000040: 4276 003d eeb2 503c 6373 3a3c bacd 7bbd
00000050: a3f1 b83c a150 8b3e 9d87 873d 60f8 6cbe
00000060: d0b6 07be 8626 323e 74e8 a53d 404e efbd
00000070: ce00 74bd b0d9 55be 7cf0 dbbc 408b ed3d
00000080: 15a2 67bd b7ca 7ebe 79ab e8bd a58d 3e3e
00000090: 6565 31bd 02d3 b4bd 131c 283e 0854 163e
000000a0: a1d4 1ebe 68c7 55be 6fef c3bd 2c63 173e
000000b0: 6d10 7dbd 78a9 37bc 8fcd 8d3d 4e9d 823c
000000c0: 6ab6 213d d1e1 84bd 8836 1bbd 558c 893e
000000d0: 31fa 1c3e 2187 243e f4a3 a43a fd93 08be
000000e0: 4d28 31bd 52fd 4e3c 3d49 aebd 3d8f a7be
000000f0: a333 20be a20b c83d 670f 823e 6773 11be
00000100: 586a 75be fe12 46bd 78ef c4bd e3ad 0d3d
00000110: 89ed 87bd 6db8 4ebd 0cbb 093e c63d 603e
00000120: 3633 a13d 1696 453e 6756 bf3d 35ad 8b3d
00000130: 33f4 483e 2816 80bb d183 2bbe c620 b83d
00000140: 4165 c93d 3a2a 49be ed2a b4bd d896 97bd
00000150: c47f 2b3d 41d8 2f3e 94db a4bd 9d1c f23d
00000160: 6855 763d c47f 263e 8909 76be a038 6ebe
00000170: 3c7a 7abe 86e4 b63d a410 49be a62c 933d
00000180: a94b 2e3e 159f 53be 6e31 30bd 2db4 643d
00000190: 254e 793c f12f 4bbe 039d 263e 2979 abbd
000001a0: 8adc 72be 6e93 54be a5c4 40be ab43 ed3d
000001b0: 2431 1c3e 2b37 353d 5256 93bc 10cf a8bd
000001c0: 80d4 01be ca21 e5bd 7cdb 90be 9499 a3be
000001d0: 3ea3 05be db65 94be 0325 95bd be34 36bd
000001e0: ba6b 003e 3b5b 8bbe c086 e93d 31fe f13d
000001f0: 981d d33d cca2 0cbe ce9f 433e 622f 67be
00000200: 2e48 353e 96a1 803e 7329 b23d f644 46be
00000210: b59c 5ebd d637 03bd 1a90 4dbd a16d 18bd
00000220: c51d cabc d846 01be 1d38 673c cbb9 283c
00000230: d2d7 42be a95f 02be 33ff 073e f261 d6bc
00000240: e51c e9bd f17f 823e 954c a13d 250a 65be
00000250: b13d e0bd c11b 58be e8b1 223c affd 3f3d
00000260: aaa9 803d 5f3a 1c3e 3b95 94bd 4655 6bbd
00000270: c92c 87be 4905 4abe 3914 313e ed82 1bbe
00000280: 95be 243e 35a1 50bd 12ad 6fbe 1475 3abe
00000290: 0b20 583e b884 443b 1121 c8bd 4a0f 46bd
000002a0: 9c6d 073c 8a1e cdbd 4832 803a 27be eebd
000002b0: 51e6 803e 151c fabd 5f16 0b3d d4e1 bfbd
000002c0: 02dc 68be 5afd a73e da68 69be 2dbc ee3c
000002d0: ecda 34ba 0599 893e 7d57 b7bd 7ba1 db3d
000002e0: c3c4 843e 433a 43bd bcb0 493d d804 0bbe
000002f0: 82c7 f63d a7ca cfbd d220 363e 0531 01be
00000300: a818 503d e45c 6f3d e0b4 63bd ad23 fbbd
00000310: a00d 2bbe 5b2e d33d d3f6 c1bd 881b 6bbd
0.19700572 -0.016993355 0.05397828 0.0014165604 -0.21939048 -0.03728827 0.00026620296 -0.0415235
0.27227753 -0.18080038 -0.26647398 -0.26730403 0.17246078 -0.037077725 0.19260448 0.0067607085
0.03136278 0.012737973 0.011380049 -0.061475493 0.022576159 0.27209952 0.06617663 -0.23141623
-0.13253331 0.17397508 0.081009775 -0.11684847 -0.05957108 -0.20883822 -0.02684807 0.115988255
-0.056551058 -0.24882017 -0.11360831 0.1860872 -0.043309588 -0.08829309 0.1641696 0.14680493
-0.15510799 -0.20876849 -0.09567153 0.14783925 -0.061783243 -0.011209838 0.06923973 0.01594415
0.039480604 -0.064883836 -0.037893802 0.26864877 0.15329815 0.16067173 0.0012561069 -0.13337703
-0.043251324 0.012633638 -0.08510063 -0.3272647 -0.15644698 0.09767844 0.25402376 -0.14204179
-0.23966348 -0.048357956 -0.096159875 0.03458966 -0.06637103 -0.05046885 0.13450259 0.21898565
0.07871096 0.19295534 0.09342652 0.06820146 0.19624405 -0.003908891 -0.16749503 0.08990626
0.09833766 -0.19645014 -0.0879725 -0.07401818 0.041869894 0.17172338 -0.08049694 0.11821864
0.060140043 0.16259676 -0.24027075 -0.23263788 -0.24460691 0.08930306 -0.19635254 0.071862504
0.1702105 -0.20666154 -0.04301589 0.05583589 0.015216385 -0.19842507 0.16270833 -0.08372719
-0.23716941 -0.20759365 -0.18825014 0.11585172 0.1525312 0.044242065 -0.017985497 -0.08242619
-0.12678719 -0.111880854 -0.28292453 -0.31953108 -0.13050553 -0.2898396 -0.0728245 -0.044483893
0.12541094 -0.2721804 0.11402655 0.11816061 0.10308379 -0.13733977 0.1910393 -0.22576669
0.17703316 0.2512328 0.08699312 -0.19362244 -0.054348666 -0.03203567 -0.050186254 -0.037213925
-0.024672398 -0.12624681 0.0141125 0.010298203 -0.19027641 -0.12731804 0.13280945 -0.02616975
-0.11382464 0.25488237 0.07875935 -0.22367151 -0.10949267 -0.21104337 0.0099301115 0.04687279
0.06282361 0.15256642 -0.07255026 -0.05745437 -0.26401356 -0.19728579 0.1729287 -0.15186663
0.16088326 -0.05093499 -0.23405865 -0.18208724 0.21105973 0.0029986333 -0.09771932 -0.048354425
0.008265879 -0.100155905 0.000978061 -0.116573624 0.25175717 -0.122123875 0.03395688 -0.09369245
-0.22740176 0.3281048 -0.22793904 0.029142464 -0.0006899077 0.26874557 -0.08952234 0.10724159
0.25931367 -0.047662985 0.049240813 -0.13576066 0.12049772 -0.10146075 0.17785957 -0.12616356
0.050804764 0.058438197 -0.055592418 -0.12262664 -0.16704416 0.10311576 -0.09470906 -0.057399303

fc2.weight f4 [150, 200]
00000000: 821f 313e ded3 0e3e e3f8 c53d a55b 703e
00000010: bda7 5b3e beb5 fabd e58a 76be 772c afbd
00000020: cdbf 51bd 648e 293d 1c97 493d 4d29 0f3e
00000030: 1fda 0a3e e870 80bd e499 623e 76e0 0f3d
00000040: e780 14bd f94e 663e 4197 ee3d e96c 85bc
00000050: 2414 f13c b832 d9bc 8d4a ae3d d173 153e
00000060: 0215 133e 3bfa b13d 2fea ed3d 23bd a03d
00000070: d81e e4bd 6ef0 003b 1457 dc3c ad53 afbc
00000080: cc8b de3d cf52 4ebd 9c9e 143d 6c98 823b
00000090: ac32 62bc 38b5 66be 9048 c43b f057 423d
000000a0: 3c18 03bd 006c abbd 7af1 d1bd abb7 6f3d
000000b0: 0a59 6a3d 7124 1fbd 4280 943c de43 593d
000000c0: 81f6 fcbc ec6e 0f3d 9d5b 22bd 75f0 913d
000000d0: 318f e7bd 20c6 d73d 8dc7 a53d d8d5 82bc
000000e0: 5233 5fbd dac8 1d3c e333 d9ba 88d4 003e
000000f0: a988 c03d c5a3 7ebd fac5 f2bd bf0b ad3d
00000100: cb52 bc3b df5f 143c 2978 f13d 0995 d53d
00000110: bdeb 0fbd 9564 6abd 0dd0 b5bc ac1e 26bc
00000120: 5320 833d 3176 aebd de35 813d c89c 28bd
00000130: e261 81bd 923e ebbc 0be1 95bd fb82 d63a
00000140: baad e6bb 6057 2bbd 7773 10bd 4823 3abc
00000150: 7733 6d3d 569a a33c ea80 803e 881f 83bd
00000160: b5a1 96bd b309 78bd 81bc dfbd 5cf3 da3c
00000170: 441e 053e dba5 103e 73d0 dd3c 545e 863d
00000180: 4b27 8cbd 6650 d93d f0c3 c13d 7c2b 8bbc
00000190: 51d6 8e3d 9a46 a53d 3c3f bb3d 0022 593e
000001a0: 99ef ed3d 9767 7fbd 9b4e 1a3e 22dd 993c
000001b0: ca9e 93bd 1423 8c3c ddf4 87bd 7655 0f3d
000001c0: 5327 be3d 82c7 a7ba c5ce d33d f7ab 4fbc
000001d0: b922 0e3e 4fee 153b 9b9a b7bc 9ae6 2a3d
000001e0: e60d 5bbc 8e5c 193d f896 4c3d ef20 16bc
000001f0: f02d 143d c1b7 973d 9fe6 e2bd 9619 acbc
00000200: 4bc9 e2bb cebb a3bd 0095 89bd b5bd 993d
00000210: 439a 3f3e ef83 5abb 4b4a 363d 4ff9 5a3d
00000220: 5c47 b9bd 0f9a 10bd b717 ac3d 5c3a 383e
00000230: 2af5 dc3d ba49 b13d 3477 b83d 7e23 2b3e
00000240: b248 f63d 3c19 5d3d b457 833d daa3 873e
00000250: 09dd 8cbc 8b8e 843b 3b06 e4bd 231f 83bb
00000260: b589 a2bd a863 8cbd 1337 923a 88c8 56bd
00000270: 52bf 0d3e 4824 ef3d c371 68bd eb5e 4a3c
00000280: 798f 163c 9c8a b9bb 5805 bc3c d1ee 243d
00000290: accb 283c 7bc1 9e3d c297 80bc e24f c1bd
000002a0: 5294 21bc 5d09 a03d 20a7 e43d 03b8 8ebd
000002b0: e3b6 843d 42bb b23d a048 af3d 8680 c23d
000002c0: 6eb6 ab3d c30e 97bd fe52 b63c 8060 f63b
000002d0: fa74 b03b 9211 80bd 5af6 a5bd 79b2 8fbd
000002e0: c90c 373e f9b5 fe3d 71b9 173c 5ce9 edbc
000002f0: d036 32bd a11c 2c3e 6dc4 9fbd 2eb8 dcbb
00000300: ac9e d43d 1fdb 573d bc18 db3c 0145 c33d
00000310: 4cd3 ccbc 886d 303d 5ee1 153e 8671 f1bc
00000320: 66d3 d6bc 720f bf3c 810d 843d c1e9 65be
00000330: 1b46 a7ba d29c 503d 3db8 47be dc18 5e3d
00000340: d246 cabb cda9 0fbc 08ef 46bc 8982 173d
00000350: f63f 35bd bd97 61bc 0954 b03d addc c83d
00000360: f1eb 0b3e 11a8 45bc 92f7 f33c 0b87 fa3d
00000370: d605 4fbd cdfd 7ebb de88 7fbe 3462 a23d
00000380: 79f7 e8bd c1f7 04bd 7d29 d4bd 02ba 6abd
00000390: 3be3 513d 2f3f c93d 1b5f 393d 6330 e7bd
000003a0: 7b17 88bc 9607 dabd 186e a5bd 1b06 ba3d
000003b0: 715c b13d 748a c5bb 0486 503d 94ca 103d
000003c0: d861 be3d b53c a63c e919 313e 2e5e bcbd
000003d0: 2d15 9fbd c3c0 a9be d01f c0bd b018 d2bc
000003e0: 1c9a 853d bcfb 5cbd 7888 e73c 767b 883c
000003f0: d3fd 9f3d 8342 863d fdf7 eabc 8a6c 913d
0.17297176 0.13948008 0.09666612 0.2347246 0.21450706 -0.12241696 -0.24076422 -0.08553403
-0.051208306 0.04139556 0.049216375 0.13980599 0.13559769 -0.06271535 0.22129017 0.035126172
-0.036255743 0.22491063 0.11649943 -0.016287284 0.02942855 -0.026513442 0.08510313 0.14594962
0.14363483 0.08690306 0.116169326 0.07848575 -0.111386955 0.0019674557 0.02689699 -0.021402204
0.10866508 -0.05037194 0.036284074 0.0039854553 -0.013806026 -0.22530067 0.0059900954 0.047447145
-0.032005534 -0.08370209 -0.10251136 0.05852477 0.05721382 -0.038853113 0.018127564 0.05304324
-0.030879261 0.035017893 -0.03963815 0.07125942 -0.113066085 0.10535836 0.08094702 -0.01597111
-0.054492302 0.009630406 -0.001657125 0.12581074 0.09401066 -0.0621679 -0.11854167 0.08449506
0.0057471744 0.009056061 0.11790497 0.10428817 -0.035136927 -0.05722483 -0.022193933 -0.010139149
0.0640265 -0.08518637 0.063091025 -0.041165143 -0.06317498 -0.02871636 -0.07318314 0.001636594
-0.007039753 -0.041831374 -0.035266366 -0.011360951 0.05791041 0.019971054 0.25098354 -0.064024985
-0.07355062 -0.060556125 -0.10924626 0.02672737 0.12999827 0.14125769 0.027076935 0.065609604
-0.06843432 0.10611038 0.094612 -0.016988508 0.06974471 0.08070107 0.091429204 0.21204376
0.11617965 -0.06235465 0.15069048 0.018782202 -0.07208021 0.01710657 -0.06638501 0.03499361
0.09284844 -0.0012800547 0.103421725 -0.012675277 0.13880433 0.0022877639 -0.022412589 0.041723825
-0.013370013 0.037441783 0.049948663 -0.009163125 0.036176622 0.07408095 -0.11079144 -0.021008294
-0.0069209686 -0.07994805 -0.067178726 0.07506887 0.1871119 -0.0033342799 0.044504445 0.053460415
-0.09046814 -0.03530317 0.08402961 0.17991012 0.10788949 0.0865664 0.09007111 0.16712758
0.12025584 0.053979144 0.064132124 0.26492196 -0.017195242 0.0040453128 -0.11134001 -0.0040015145
-0.07936422 -0.068549454 0.0011155329 -0.052437335 0.13842514 0.11676842 -0.056749117 0.012351732
0.00918948 -0.0056622755 0.022951767 0.040266816 0.010302465 0.07751747 -0.015697364 -0.094390646
-0.0098620225 0.07814286 0.11164689 -0.06968691 0.064801954 0.08727123 0.08558774 0.0949717
0.08384405 -0.073758624 0.02225637 0.007518828 0.0053850384 -0.06253351 -0.081036285 -0.07016463
0.17875971 0.12437052 0.009260521 -0.029041938 -0.043509305 0.16807796 -0.07801137 -0.006735823
0.10381827 0.052699205 0.026745193 0.09534646 -0.025003098 0.043073207 0.14636752 -0.029473078
-0.02622385 0.023322795 0.06447888 -0.22452451 -0.0012761982 0.050930806 -0.19503875 0.054222926
-0.006172993 -0.008768511 -0.01214195 0.036989722 -0.04425045 -0.013769087 0.086097784 0.098077156
0.13664223 -0.012063996 0.029781137 0.12232789 -0.050542675 -0.0038908601 -0.24954554 0.07928887
-0.11375327 -0.03246284 -0.10359476 -0.057306297 0.051242094 0.098265044 0.045256715 -0.11288526
-0.016612759 -0.10645978 -0.08077639 0.09083196 0.0866021 -0.006028468 0.050909057 0.035349444
0.09296006 0.02029262 0.1729504 -0.09197651 -0.07767711 -0.33154878 -0.09381068 -0.025646538
0.06523535 -0.05395101 0.028263316 0.016660433 0.07812085 0.06555655 -0.028682703 0.0710078

fc2.bias f4 [150]
00000000: 19dd 11be 89fa 5f3d 1d90 d33d 6b76 c3bd
00000010: 484f d83b b6f4 303d 422c ce3d 316f a83d
00000020: 64d9 cebc 544d 9e3d b615 313e 8a9c 613b
00000030: cbf8 84bd c99a a0bd 8efb e6bd dc22 623d
00000040: ca0c 903d 9b1a eaba 97e7 8dbd ec2b 813d
00000050: 0941 e73d d082 5f3c af15 ff3c 2559 893e
00000060: 7f0a 323e 263f 563e 8fed 2a3e 9760 003e
00000070: c308 9c3d 5ced 54bd 8873 463d 4e4c ec3d
00000080: 7816 f93c 4507 733d f76e ec3d 34bb eb3d
00000090: 6d22 fcbb 06db 1c3e 6379 883d 5cf6 d0bd
000000a0: 00ad 473e 93ab 8cbd 143e 933d f5ef 04be
000000b0: f8ce 05be d528 b9bc 1dfd 273e 03fa 5c3d
000000c0: ca6e ab3d 42fb 7f3d a19f cbbd ef0b fc3c
000000d0: c21f c33c c60f 823d 92bc 5f3c 1daa 2b3a
000000e0: 6c18 063e d88d 873d ddf9 043e 15b6 7b3c
000000f0: 8f17 8fbc c8a1 8c3d 383e 8639 3d4b 093e
00000100: 0fee 1e3d 398a 62bd f727 ad3d b0a9 c7bd
00000110: b58a 32be 3d16 d4bd aea8 30bc dac1 fa3d
00000120: 19ff 86bd f662 173e 8d55 41be 341b da3d
00000130: 464e b33b 5e05 203e c9b2 41be c720 a33d
00000140: f196 813d 8fd6 68bd 1fc3 073e a45a dbbd
00000150: 64a8 01be cd4f bf3d 160f 77bc 35f6 703d
00000160: c0a3 45bd 66c4 9dbd cf4a 2ebd 0914 cd3c
00000170: 1720 223d 4f63 2c3e c2c5 b6bd 65fe 48bb
00000180: 21a9 acbc d96c a3bd aa86 d7bd 43af a33c
00000190: a6b3 d83d f04f 89bd 714f fdbc ea11 d63d
000001a0: 8665 633d 2299 c6bd a482 443d d14c 113e
000001b0: 2f21 12bc d61d 0d3d d3b8 e13d dcb3 4aba
000001c0: b515 7a3c 5c45 ee3d ab8d 0e3d 4980 453d
000001d0: cb6d c6bd 35c6 c53d b2c7 e83d 84f4 053e
000001e0: 247b 19be 13e5 b83d c3d0 a6bd 82e3 dcbd
000001f0: e703 fe3d a0bd 8b3d 1a02 2fbc 17dd e7bd
00000200: ffbf a63d e47e 7c3d 000c a13d c69b 8c3d
00000210: 08d9 a93d acc9 743d 85ff 9b3c cc58 0dbd
00000220: e74f 49bb b242 993d 7869 093e 223f 1abe
00000230: d513 c13c 6c99 22be 339f e43d f999 8e3d
00000240: 0393 843d 569b 863d 2324 a13d 65f8 e43d
00000250: fe79 b7bd a1f7 9fbd
-0.14244498 0.05468229 0.10330222 -0.09544071 0.006601248 0.043202125 0.10067035 0.08224333
-0.025250144 0.07729593 0.17293438 0.003442558 -0.06492766 -0.07842023 -0.11278449 0.055209026
0.07033689 -0.0017860712 -0.06928938 0.063072056 0.11291701 0.013642028 0.03113827 0.26825824
0.17386816 0.20922527 0.16692184 0.12536846 0.07618859 -0.051984176 0.048450023 0.115379915
0.030406222 0.059333105 0.11544602 0.115103155 -0.0076945336 0.15317926 0.06663778 -0.10203239
0.19499588 -0.06868663 0.07189575 -0.12982161 -0.13067234 -0.022602478 0.16405149 0.053949367
0.08370741 0.062495477 -0.09942556 0.03076741 0.023818854 0.06350665 0.0136557985 0.0006548481
0.13095254 0.066188514 0.1298594 0.015363236 -0.017467288 0.06866795 0.00025604828 0.13407607
0.03880125 -0.0553076 0.08454888 -0.09749162 -0.17435725 -0.10355804 -0.010782404 0.122440055
-0.06591625 0.14783844 -0.18880291 0.1064972 0.0054719774 0.15627047 -0.18915857 0.07965236
0.06327618 -0.056845244 0.13258027 -0.10710648 -0.12661892 0.09341393 -0.01507928 0.05882855
-0.048251867 -0.07703476 -0.04255181 0.025033968 0.039581385 0.16834758 -0.08924438 -0.003066921
-0.02107674 -0.079797454 -0.10523732 0.019981032 0.1058114 -0.067047 -0.03092167 0.104526356
0.055516742 -0.096971765 0.04797615 0.1418946 -0.008919044 0.034452282 0.110215805 -0.00077324896
0.015263964 0.11634323 0.034803074 0.048218045 -0.0968891 0.096569456 0.11366214 0.13081557
-0.1498838 0.090280674 -0.08145287 -0.10785581 0.12403088 0.068232775 -0.010681653 -0.113214664
0.08142089 0.06164445 0.07863617 0.06865649 0.082933486 0.05976264 0.01904274 -0.03450851
-0.0030717792 0.07483424 0.1341914 -0.15063146 0.023569027 -0.15878838 0.11163177 0.06962962
0.06473353 0.06572597 0.07868221 0.1118019 -0.08958815 -0.07810903

fc3.weight f4 [2, 150]
00000000: 2238 bdbc cb50 9a3d a725 0f3e 8886 02bd
00000010: 65e7 d63d f4fe aa3d 3811 8d3d ea04 1e3e
00000020: 4549 1f3e a3b2 833e 7a4d a13d 6a76 e63d
00000030: 2560 e0bc d2e2 733e 0793 94be f9ec 1a3d
00000040: 4db6 fa3d 0a7b 813e fed9 1abd 7dde 443e
00000050: 29d9 2b3d a154 c93d e7a6 eb3d 3313 0a3c
00000060: aa89 773d b3d3 05bd 4900 e1bd 3ec4 a03c
00000070: 7c53 b6bd 4ffe 48bd 7d29 533e f1d8 743c
00000080: 2573 2d3e 72c5 0d3e dd50 7c3e b21c d5bb
00000090: 8080 64bd 8ab8 14bd 054d 233d c13e 3dbd
000000a0: d991 843a 051c 5abe a5d1 6c3e 27af 2fbd
000000b0: 706b d1bc fc9b dabc 0cb5 123d 9d2f e43d
000000c0: c1f1 7d3e 04d2 313e 134a 6f3e 3c66 413e
000000d0: a43c 883e e0d9 e73d 9dd4 833e 36d8 643e
000000e0: 53c2 7d3e c1ec 883e 93d0 dc3d c280 033e
000000f0: 5aa3 823c cba0 4c3e 58e4 823e 7eaa 283e
00000100: 62aa 8e3d 16eb 10bd a8be fc3d 3759 36bd
00000110: 9aa2 e9bc eef5 08bd ac67 c2bd 6c6e 463e
00000120: 42da 3ebd 1c0c a2bd ad0f 09bd 2347 cb3d
00000130: 5ec8 113e 145d 9c3e e10c ccbc 7d9e 603e
00000140: 04eb 723e c961 f43c 689d 833c bef6 63bd
00000150: 4771 d8bc b9b7 ad3e e382 81bd 62a4 253e
00000160: cbb8 f5bd fc6e 833d 4d39 afbd 34ed 1b3e
00000170: 14de 593e 8505 423d d12b 02bd d391 123e
00000180: 0808 ab3e 4358 853e a564 29bd 5485 e3bd
00000190: 708a 353e 14c1 4ebd ea2a 23bd b268 413e
000001a0: 42b7 f83e 0f1b 2d3c 8a99 4e3c 83d3 bcbc
000001b0: 86f4 6b3e 6dd9 4cbe 7e16 d13d bafe 4f3e
000001c0: 55e1 963e d67c f03d da08 7a3c 05e2 3c3e
000001d0: 19bf f1bc ca7e 743d 7150 313e 0408 073e
000001e0: 1930 0abc f55b f63d b64f 07be 0017 92bc
000001f0: c7b8 4abc 82b7 cc3e 2929 ef3b 08eb f5bc
00000200: d53e 283e e9f3 ce3d c754 b13d 9d61 6a3d
00000210: 11f3 bbbd d413 ab3e 34b7 0c3f a616 1bbd
00000220: 5da2 37bd 55d4 883e 880a ac3d 8bd0 51bc
00000230: 62e0 253e 5264 c3bc 83a1 ce3d 01fd 65bc
00000240: 3b5d 183e a5d9 e63d 17a4 2a3e 2546 223e
00000250: 05df 0abd d227 493e d1b5 053e eb34 0bbe
00000260: bc45 bb3e 7dd4 043d 3ede c8bc 6c75 433d
00000270: 095a 7abe 0623 a63c 4771 fbbd 5026 3fbe
00000280: 3cfa 1d3d 01f1 12be dc7d 843d f97a ea3e
00000290: 3eb9 613d 70c0 87be 736c 3bbe 30a9 48bd
000002a0: 6b5f 2d3d d76e 193e 84f6 b0be a905 4fbd
000002b0: 8f08 05be 3ed5 75be 1db5 a8be 2e3b a4be
000002c0: c7cb cdbe d786 88be da30 a0bd 2bfe ae3e
000002d0: ec4d aabd 0920 9bbe 1ec5 813c 54e9 be3c
000002e0: 2fb2 22be dd30 6fbe a939 d73c 15a2 cfbd
000002f0: da43 b4bd 1aa4 813c 7340 5dbe 78df 48bb
00000300: ef99 2fbe 4434 2e3d f977 423d 3209 013d
00000310: ff1d 82be 4dbf 9d3e e0dd 8f3d 37de 5ebe
00000320: 48e0 f7bc a5a1 2c3d 8e5e 91be fa94 23be
00000330: a096 a7bd a20e b2bd d1b0 1dbd 786a 66be
00000340: ffad dbbd ac55 aebd 21b8 353e cdd9 d1be
00000350: 3f5c 503d 83a7 0cbf bccd 91be 1b09 db3d
00000360: 825a 9f3e a571 493d efc7 983d 5251 d53d
00000370: f7c5 20bd 5d99 92bc e920 9e3d f174 8cbe
00000380: 6c1b 903d 1a37 aebd 01ac 983e 27cc 8dbd
00000390: cb36 a03d 1ad0 2b3e 6cf7 4e3c b37d ed3e
000003a0: dc2e 47be 20bf 1b3d e4a9 bf3d 27f8 033d
000003b0: 17b9 083d b95a d4be 25d2 76be 99f9 a13e
000003c0: a598 e8bc 7c00 43bd 58f1 c7bd a3a7 88be
000003d0: b943 433d fc19 c5be 8330 933d 6cc7 0cbe
000003e0: f452 123d a659 6bbe cf9a 923c 16cc 793c
000003f0: 99c8 3d3d 20cb 7b3d ebc5 1bbf 63af b43d
-0.023098055 0.07534941 0.13979207 -0.03186658 0.10493354 0.0834941 0.0688805 0.15431562
0.15555294 0.25722227 0.078761056 0.112530544 -0.027389595 0.23816994 -0.29018423 0.03782365
0.12241802 0.25289184 -0.03780555 0.19225498 0.041955147 0.09830595 0.115064435 0.008427429
0.06043402 -0.032672595 -0.109863825 0.019624826 -0.08902642 -0.049070653 0.20621295 0.014944301
0.16938455 0.1384485 0.24640222 -0.006503665 -0.05578661 -0.036308803 0.039868373 -0.046202425
0.0010114267 -0.21299751 0.23126848 -0.042891648 -0.025563926 -0.026685707 0.03581719 0.11141894
0.24799253 0.17365271 0.23368101 0.18886656 0.26608765 0.11320853 0.2574815 0.22348103
0.2478116 0.2674313 0.1078197 0.12842086 0.015947033 0.19983213 0.25564837 0.16471288
0.06966092 -0.035380445 0.12341052 -0.044518676 -0.028519917 -0.03343766 -0.0949243 0.1937806
-0.046594866 -0.07912466 -0.033462215 0.099256776 0.1423659 0.30539763 -0.024908485 0.21935458
0.23722464 0.029831784 0.016066268 -0.055655234 -0.026421202 0.33929232 -0.06323793 0.16175988
-0.11998137 0.06417653 -0.08555851 0.15227205 0.21276122 0.047368545 -0.031780068 0.1431344
0.33404565 0.260439 -0.041355748 -0.11109415 0.17728591 -0.050477102 -0.039835848 0.18887594
0.48577315 0.010565533 0.012609849 -0.023050075 0.23042497 -0.20004816 0.10209368 0.20312014
0.2946879 0.117425606 0.015260899 0.18445595 -0.029510068 0.059691228 0.17315842 0.13186651
-0.008434319 0.12029258 -0.13214001 -0.017833233 -0.012373156 0.39983755 0.007298608 -0.030019298
0.16430219 0.10105116 0.08658748 0.057221998 -0.091772206 0.33413565 0.54967046 -0.037863396
-0.044832576 0.26724496 0.08400446 -0.012806068 0.16198877 -0.023851547 0.100894 -0.014037372
0.14879315 0.11271981 0.16664158 0.1584707 -0.033904094 0.19644096 0.13057639 -0.13594405
0.3657664 0.032429207 -0.024520036 0.047719404 -0.24448408 0.020280372 -0.12277465 -0.18666959
0.03856872 -0.14349748 0.06469318 0.45796946 0.0551083 -0.26514006 -0.18303089 -0.048989475
0.042327326 0.14983688 -0.34563076 -0.050542507 -0.12991546 -0.24007127 -0.32950678 -0.320764
-0.40194532 -0.26665375 -0.07821818 0.3417829 -0.08315644 -0.30297878 0.015841063 0.023304619
-0.15888284 -0.23358484 0.026272612 -0.101383366 -0.08802004 0.01582532 -0.21606617 -0.0030650776
-0.17148565 0.042530313 0.047477696 0.03150291 -0.2541351 0.30810013 0.07024741 -0.21764456
-0.030258313 0.042146344 -0.28392452 -0.15974799 -0.08183026 -0.08694197 -0.038498703 -0.22501552
-0.107265465 -0.08512434 0.17746021 -0.4098648 0.050869223 -0.549431 -0.28477275 0.10695096
0.3112374 0.049180645 0.07460009 0.10415901 -0.039251294 -0.017895395 0.07721121 -0.2743297
0.0703648 -0.085066035 0.2981873 -0.069237046 0.07822951 0.16778603 0.012632232 0.46384963
-0.19451469 0.038024068 0.09358576 0.03221908 0.03337964 -0.41475466 -0.24103601 0.3163574
-0.0283931 -0.047607884 -0.097628295 -0.26690397 0.047672007 -0.38496387 0.07186987 -0.13747948
0.03572364 -0.22983417 0.017896084 0.015246412 0.046333883 0.061473012 -0.60848874 0.08822515

fc3.bias f4 [2]
00000000: d0fa 08bd 674b d1bd
-0.03344232 -0.1021946
