udacity/Artificial Intelligence/Deep Reinforcement Learning/Collaboration and Competition/agent2_checkpoint_actor.pth (torch, 144552 bytes, 6 tensors)

fc1.weight f4 [200, 24]
0	0x3d92196d	0.07133756
1	0xbe1183d7	-0.14210449
2	0xbd1ac5b8	-0.037786216
3	0x3dca0d1c	0.09865782
4	0x3c985e42	0.018599633
5	0xbd2474cc	-0.04015045
6	0x3cad15ee	0.021128621
7	0x3baaa224	0.005207317
8	0x3d9b33fe	0.07578276
9	0xbe2030a8	-0.15643561
10	0xbd948684	-0.07252219
11	0x3c610be4	0.013735745
12	0x3dcad607	0.09904104
13	0xbd5b4295	-0.053530294
14	0xbd6e58f9	-0.05819032
15	0x3d1d2ab4	0.038370803
16	0x3cd3d54c	0.025858544
17	0xbe2e4cc9	-0.17021479
18	0xbd482cef	-0.048870977
19	0xbdb6ebab	-0.08931669
20	0x3e252eff	0.16131209
21	0x3b25daf1	0.0025307501
22	0x3d2cd206	0.04219248
23	0xbe29ff86	-0.1660138
24	0xbcfb5017	-0.030677838
25	0x3de80cb9	0.11330552
26	0xbdd57f9c	-0.1042473
27	0xbbaab3d5	-0.005209426
28	0x3db21ea5	0.08697251
29	0xbd9ac318	-0.075567424
30	0xbd27e5a5	-0.04099049
31	0xbcd2c8f6	-0.025730591
32	0xbc2d2e24	-0.010570083
33	0x3da79458	0.08182591
34	0x3ca84268	0.020539477
35	0xbcaaaa1f	-0.020833073
36	0x3d8bb571	0.068217166
37	0x3d1e29e4	0.03861417
38	0x3c79cc09	0.0152464
39	0xbd97839f	-0.073981516
40	0xbc06b638	-0.008222155
41	0x3d460992	0.04834897
42	0x3d6f4a15	0.05842026
43	0xbda1f717	-0.07908457
44	0x3d2d4186	0.042298816
45	0x3e2c9383	0.16853146
46	0x3ce885ba	0.028384078
47	0xbdcbc3aa	-0.09949429
48	0xb983f357	-0.0002516757
49	0xbe25c445	-0.16188152
50	0xbd5dfc97	-0.054195967
51	0x3d6e331e	0.058154218
52	0xbdb3961b	-0.08768865
53	0x3d73b34a	0.059497155
54	0xbd2aa612	-0.041662283
55	0x3d7c75ed	0.0616359
56	0xbdc692e0	-0.09695983
57	0xbdbab861	-0.09117199
58	0xbd0fb114	-0.035080984
59	0x3cb09ed8	0.021560118
60	0x3d554776	0.052070104
61	0x3dcb74c3	0.0993438
62	0xbd492cc4	-0.049114957
63	0xbd8b94a6	-0.06815462
64	0xbc9b5b48	-0.018964425
65	0xbdd5c5fa	-0.10438152
66	0xbd6a20a5	-0.05716004
67	0x3e0bc67a	0.13649932
68	0x3d3858e7	0.04500666
69	0xbdcf5223	-0.10123088
70	0x3d68bc2f	0.05682009
71	0x3e2f73dc	0.1713404
72	0x3c6e4d5f	0.014544814
73	0xbdf0b1d6	-0.117526695
74	0xbce2c6b1	-0.027682634
75	0xbdb1d962	-0.086840406
76	0xbd89a62f	-0.0672115
77	0xbe8e7099	-0.2782028
78	0xbd0b5fe9	-0.034027014
79	0x3d1f7053	0.03892548
80	0xbd65210b	-0.055939715
81	0xbdc8099c	-0.09767458
82	0xbdd9e5ad	-0.1063951
83	0x3d9741a5	0.073855676
84	0xbd2d4208	-0.0422993
85	0xbe3e4073	-0.18579273
86	0xbe05c096	-0.13061747
87	0x3cbacf58	0.022803947
88	0x3d272753	0.040808987
89	0xbdd09f82	-0.10186674
90	0xbd204911	-0.03913218
91	0x3d67ea60	0.05662
92	0xbcabd45d	-0.020975286
93	0xbd8e91a8	-0.069613755
94	0xbddec2b7	-0.10876983
95	0xbc604406	-0.013688093
96	0x3cec9264	0.028878398
97	0x3eb7cd7e	0.35898966
98	0xbc8a8b31	-0.016912075
99	0x3c324bfc	0.010882374
100	0xbd5670ee	-0.052353792
101	0xbc5f805c	-0.013641443
102	0x3d83746c	0.0641869
103	0x3dda0d6e	0.10647093
104	0x3d9577d9	0.0729825
105	0x3ed829da	0.4221943
106	0x3cada51c	0.021196894
107	0x3de468b1	0.11152781
108	0xbdcf5aa7	-0.101247124
109	0xbe09ae4a	-0.13445392
110	0xbd3a11e7	-0.04542723
111	0x3dab872e	0.08375393
112	0xbd82a0a9	-0.063783
113	0x3e804ed1	0.25060132
114	0xbdc47649	-0.095928736
115	0xbd8a4a76	-0.067524835
116	0xbdf9eb80	-0.12203121
117	0x3c5bc707	0.013414151
118	0xbd336407	-0.043796565
119	0x3ceb1a30	0.02869901
120	0xbc54046a	-0.0129405055
121	0xbb52a20b	-0.0032140042
122	0x3cf3361c	0.029688887
123	0xbdaf59c1	-0.08562041
124	0x3d5cf378	0.053943127
125	0xbe40faec	-0.18845719
126	0x3b078681	0.0020679536
127	0xbe35498c	-0.17703837
128	0x3da38d6b	0.07985958
129	0x3da74969	0.08168299
130	0x3d433c12	0.04766471
131	0xbe1634fb	-0.14668648
132	0x3d111073	0.035416078
133	0xbd1eac51	-0.038738552
134	0x3d06f63f	0.032949682
135	0xbcf4f468	-0.029901698
136	0x3c808118	0.015686557
137	0x3b7658c6	0.0037589534
138	0x3db6f321	0.08933092
139	0xbdcde4ba	-0.10053392
140	0xbda88fd0	-0.08230555
141	0x3e08da60	0.13364553
142	0xbc375ca7	-0.011191524
143	0xbdde2c0c	-0.10848245
144	0x3d99ee26	0.07516126
145	0xbcd09899	-0.02546339
146	0x3d3bd2d6	0.045855366
147	0x3d223a6f	0.039606508
148	0xbd83c113	-0.0643331
149	0xbc4b5538	-0.012410454
150	0xbd89490f	-0.06703388
151	0x3d832353	0.06403222
152	0x3d5d93d3	0.054096054
153	0xbdc0815e	-0.09399675
154	0x3c680585	0.014161472
155	0x3c82cb90	0.015966207
156	0x3e1e34d4	0.1544984
157	0x3e60ead0	0.21964574
158	0xbd826cb6	-0.06368391
159	0x3d500297	0.05078372
160	0x3c9db60a	0.019251842
161	0x3d0af88f	0.03392845
162	0xbd411329	-0.047137413
163	0x3d5f7f63	0.054564845
164	0x3e94ec2e	0.2908644
165	0x3e976537	0.29569408
166	0x3c5bca0a	0.013414869
167	0xbc45359f	-0.01203671
168	0x3cec42ab	0.028840384
169	0xbe57bbcf	-0.21067737
170	0x3cce5c55	0.025190512
171	0xbcda540a	-0.026651401
172	0x3d8f2300	0.069890976
173	0xbe155fb2	-0.14587286
174	0xbda87897	-0.08226126
175	0x3cba8587	0.022768749
176	0xbd8bf911	-0.06834615
177	0xbdf04ac1	-0.11733008
178	0x3d9e5141	0.07730342
179	0xbbff07ce	-0.007782913
180	0xbcfabb36	-0.030606847
181	0xbd564f06	-0.052321456
182	0x3de6a865	0.112625875
183	0x3db7ae75	0.08968822
184	0xbd09df6c	-0.033660337
185	0xbd96a0ff	-0.07354926
186	0x3dde26d5	0.1084725
187	0x3da4f2cf	0.080541246
188	0xbe0d71ee	-0.13812992
189	0x3d8f5173	0.06997957
190	0xbc892469	-0.016740995
191	0xbccb1f68	-0.02479525
192	0x3c52f72a	0.012876311
193	0xbe5372ee	-0.20649311
194	0x3c059099	0.008152151
195	0x3d490d37	0.04908487
196	0x3b00c79a	0.0019650222
197	0x3d9ac131	0.075563796
198	0x3c8a0a77	0.016850693
199	0xbd3e03db	-0.046390396
200	0xbd80bbb9	-0.06285805
201	0xbe26a577	-0.16274057
202	0xbcb06b22	-0.02153546
203	0xbcb5272c	-0.022113405
204	0xbd247b9d	-0.04015695
205	0xbdea0e69	-0.1142853
206	0x3ceb1f19	0.028701352
207	0x3d022406	0.031772636
208	0xbd8d4dcc	-0.06899604
209	0xbe155ee8	-0.14586985
210	0xbd29eab1	-0.041483585
211	0x3d27a666	0.040930174
212	0xbd251b95	-0.040309507
213	0xbe9664cc	-0.29373777
214	0x3c8aee15	0.01695923
215	0xbd0f6f1c	-0.03501807
216	0xbe27287f	-0.16324042
217	0xbd84cfe3	-0.06484964
218	0xbb23813a	-0.0024948851
219	0x3d735cdb	0.059414726
220	0x3d2d1d4f	0.04226428
221	0x3cf9726b	0.030450067
222	0x3d203c1c	0.039119825
223	0x3d2150eb	0.03938381
224	0xbc81b08b	-0.015831253
225	0x3d85a694	0.06525913
226	0x3da47263	0.0802963
227	0xbde5f4b8	-0.11228317
228	0x3b99b2d3	0.004690507
229	0x3d64e717	0.055884447
230	0xbd10ebf6	-0.03538128
231	0xbde34aa4	-0.11098221
232	0xbcea1b40	-0.028577447
233	0xbccf51d3	-0.025307572
234	0xbd11065d	-0.03540646
235	0x3c430849	0.011903831
236	0x3d80088a	0.06251629
237	0x3dc2ea04	0.09517291
238	0xbdcc732b	-0.09982904
239	0xbd355110	-0.04426676
240	0x3c2e5dd8	0.010642491
241	0xbe52e63c	-0.2059564
242	0xbde751ce	-0.112949
243	0x3d8417ff	0.064498894
244	0xbbe2793a	-0.006911424
245	0x3d8ed579	0.069743104
246	0xbdde4471	-0.10852898
247	0x3dc0048b	0.093758665
248	0xbd556cad	-0.052105594
249	0xbe620387	-0.22071658
250	0x3ca0a2b3	0.019608831
251	0x3df31c4f	0.11870634
252	0x3d104d17	0.03522977
253	0xbcbd31af	-0.02309498
254	0xbdce4eba	-0.1007361
255	0x3cce3555	0.025171915

fc1.bias f4 [200]
0	0x3db7a5d2	0.089671746
1	0xbc463833	-0.01209836
2	0x3dbf855f	0.093516104
3	0xbdc3f118	-0.09567469
4	0xbe1e06fc	-0.15432352
5	0xbd90d879	-0.07072539
6	0xbdf2cdb3	-0.1185564
7	0xbdabd88b	-0.08390912
8	0x3e85c7df	0.26129052
9	0xbd5ef3e8	-0.054431826
10	0xbd959cb6	-0.07305281
11	0xbe3632be	-0.17792794
12	0x3df5d6a9	0.12003834
13	0xbdeeeabe	-0.11665867
14	0x3ea58020	0.32324314
15	0x3e1782cf	0.14795993
16	0x3c6767d6	0.0141238775
17	0x3d83bc21	0.06432367
18	0x3d44e8bb	0.04807351
19	0xbcf74318	-0.03018336
20	0xbb5f2386	-0.0034048273
21	0x3e75ee6b	0.2401673
22	0x3dfacbc5	0.12245897
23	0xbdc02361	-0.09381748
24	0xbd7c8503	-0.061650287
25	0x3d432429	0.047641907
26	0x3c74491d	0.01491001
27	0xbcfa2a21	-0.030537667
28	0xbdf4e23d	-0.11957214
29	0xbe41ef4f	-0.18938945
30	0x3d6e3632	0.058157153
31	0x3d8876c2	0.06663276
32	0xbde42b47	-0.11141067
33	0xbe2441a5	-0.16040666
34	0xbd0d9a81	-0.034571175
35	0x3e7e2f4c	0.2482273
36	0xbdc296c4	-0.095014125
37	0xbdd355b1	-0.10319079
38	0x3d7d228f	0.061800536
39	0x3e0e5d88	0.13902867
40	0xbe4eb3b0	-0.20185733
41	0xbe3cbf1b	-0.18432276
42	0xbdb6ab98	-0.08919448
43	0x3e64f7f7	0.22360216
44	0xbe0bb078	-0.13641536
45	0x3d595766	0.053061865
46	0x3dcc1319	0.0996458
47	0xbdc84486	-0.09778695
48	0xbad218c6	-0.0016029112
49	0x3c152af6	0.009104481
50	0xbdd8df37	-0.1058945
51	0x3d9f9a26	0.07793073
52	0xbc394ca7	-0.011309779
53	0x3de1f487	0.11032968
54	0xbdd5874a	-0.10426195
55	0x3cdbe491	0.026842387
56	0x3cd37cf5	0.02581642
57	0x3e15c62b	0.14626376
58	0xbd2b504e	-0.04182463
59	0xbe5056ee	-0.20345661
60	0x3b0ce6a1	0.002149977
61	0x3d0c4bb4	0.034251884
62	0x3e91eeb7	0.28502437
63	0xbd28759a	-0.04112778
64	0xbd77e860	-0.060524344
65	0xbe05e5bc	-0.13075918
66	0xbd8ce188	-0.06878954
67	0x3d9a3602	0.075298324
68	0x3e49ddbd	0.19713493
69	0x3d905550	0.07047522
70	0x3e3136ce	0.17306063
71	0x3e5aa39d	0.21351476
72	0x3d6f6d50	0.058453858
73	0x3e2020c1	0.15637495
74	0x3d56dc43	0.05245615
75	0x3e0e9de9	0.13927425
76	0x3e89af1e	0.26891416
77	0xbe48de5b	-0.19616072
78	0xbdeaddaf	-0.11468064
79	0x3e29dc14	0.1658786
80	0x3d8174b3	0.06321087
81	0xbe3bf392	-0.18354633
82	0xbe2db860	-0.16964865
83	0xbe16accc	-0.14714354
84	0x3d9670df	0.07345747
85	0x3e1b3957	0.15158592
86	0xbdecb878	-0.11558622
87	0x3daa5778	0.083174646
88	0x3dad8040	0.08471727
89	0x3ea26620	0.3171854
90	0xbe6ee519	-0.23329581
91	0xbe7d8d37	-0.247609
92	0xbe8afb1f	-0.27144715
93	0x3c104e19	0.008807682
94	0xbdc1eb64	-0.09468725
95	0x3d8070dd	0.06271527
96	0x3e2a6406	0.16639718
97	0xbe7de825	-0.24795587
98	0x3d1fe8f9	0.03904054
99	0xbe0fcc30	-0.14042735
100	0x3d96f6fc	0.07371327
101	0xbd48dede	-0.049040668
102	0x3d894d13	0.06704154
103	0xbd369d3f	-0.044583555
104	0xbe45b733	-0.19308166
105	0xbd9b4338	-0.0758118
106	0xbe42cbef	-0.19023107
107	0x3da9524b	0.08267649
108	0x3e0981d3	0.1342843
109	0x3d3ddc6a	0.04635278
110	0xbe1b1579	-0.1514491
111	0xbe95448b	-0.29153857
112	0x3db7dc89	0.089776106
113	0xbd996592	-0.07490076
114	0xbe030afd	-0.1279716
115	0xbe65fa52	-0.22458771
116	0xbd837c91	-0.064202435
117	0xbe27a46b	-0.16371314
118	0x3d88540c	0.06656656
119	0x3cd8ae58	0.026450321
120	0x3e105971	0.14096619
121	0xbd8b3cd3	-0.06798711
122	0x3d39362e	0.045217685
123	0xbd2db635	-0.042410094
124	0x3e1b7536	0.15181431
125	0xbd1442bf	-0.036196467
126	0x3e7da549	0.24770083
127	0xbe756e89	-0.23967947
128	0x3ccdb2f6	0.02510975
129	0x3e012888	0.12613118
130	0x3d6c8b2a	0.057749905
131	0xbe0520c0	-0.13000774
132	0xbd68bc8a	-0.05682043
133	0x3d3cbfe6	0.046081446
134	0x3d8ca099	0.06866569
135	0xbdcc6918	-0.099809825
136	0xbd8eca19	-0.06972141
137	0xbe01ac1f	-0.12663315
138	0xbbea8caf	-0.007157884
139	0xbd0de13d	-0.034638632
140	0xbe078bd1	-0.1323693
141	0xba84d07f	-0.0010132937
142	0x3e6b6b06	0.22990045
143	0x3e2f4f7b	0.17120163
144	0x3df032a7	0.11728411
145	0x3e80e564	0.2517501
146	0x3dedf73e	0.11619423
147	0xbd5b93bb	-0.053607684
148	0xbd083f09	-0.03326324
149	0xbddd9b17	-0.10820597
150	0x3d7a7156	0.06114324
151	0x3d5c3e73	0.053770494
152	0xbd755384	-0.0598941
153	0x3e372068	0.17883456
154	0xbc7a72c7	-0.015286154
155	0x3c367125	0.011135374
156	0xbe02b576	-0.12764534
157	0xbd332922	-0.0437404
158	0x3e4d04d1	0.20021369
159	0xbe28af5d	-0.16473146
160	0xbde4b772	-0.11167802
161	0x3e988aa7	0.29793283
162	0xbe84cd3a	-0.25937825
163	0xbe101adb	-0.14072745
164	0x3e476a01	0.19474031
165	0xbe1d05b5	-0.15334208
166	0xbd838827	-0.064224534
167	0xbdaf71cd	-0.08566628
168	0x3ddbe3d8	0.10736817
169	0x3d889fff	0.06671142
170	0x3c5aeb6c	0.013361793
171	0xbdb1f530	-0.08689344
172	0x3da5206e	0.08062826
173	0xbe93f641	-0.28898814
174	0x3c822371	0.01588604
175	0xbd86cfc8	-0.065826
176	0xbd319f34	-0.04336472
177	0x3e115d57	0.14195763
178	0xbe534283	-0.20630841
179	0x3ded717b	0.1159391
180	0x3d8bca1b	0.06825658
181	0x3e62d1fe	0.22150418
182	0xbe8de311	-0.277123
183	0x3db5305b	0.08847114
184	0x3e6565b8	0.22402084
185	0xbd904d94	-0.07046047
186	0x3d9dd80a	0.07707222
187	0xbe33fcd1	-0.1757691
188	0x3d1a91cf	0.03773671
189	0xbe05c39e	-0.13062903
190	0x3e475d0a	0.19469085
191	0xbd710a3b	-0.058847647
192	0x3e0263ea	0.12733427
193	0x3ba7b839	0.0051183966
194	0x3d73a44d	0.05948286
195	0xbdee8930	-0.1164726
196	0xbe80a290	-0.25124025
197	0xbe0d02b3	-0.13770561
198	0x3d49390e	0.049126677
199	0x3c609527	0.013707436

fc2.weight f4 [150, 200]
0	0x3dab65ec	0.083690494
1	0x3d75d8fb	0.06002138
2	0x3dcba7ab	0.099440895
3	0xbdf6cf79	-0.12051291
4	0xbd178861	-0.036995295
5	0xbd13b9f9	-0.03606603
6	0xbd923c91	-0.071404584
7	0xbe1d4a99	-0.15360488
8	0x3d8f441f	0.06995415
9	0x3d87b74b	0.06626757
10	0x3d8db184	0.06918624
11	0xbb2d0e26	-0.0026406138
12	0xbe660088	-0.2246114
13	0x3e0c291f	0.13687561
14	0x3e63801c	0.22216839
15	0xbdcba18a	-0.099429205
16	0xbd2ac652	-0.04169304
17	0xbd0314f7	-0.032002416
18	0x3dd67438	0.10471386
19	0x3e2b8182	0.16748622
20	0x3e180900	0.14847183
21	0xbd73d3fa	-0.05952833
22	0xbcbea32c	-0.023271166
23	0x3e0030cb	0.12518613
24	0xbee13dbf	-0.4399242
25	0x3d74ea88	0.05979398
26	0x3e0f51d5	0.1399606
27	0x3cd8a665	0.02644653
28	0xbd85fdbb	-0.06542536
29	0xbd9ede1e	-0.07757209
30	0xbe633fed	-0.22192355
31	0xbe46c177	-0.19409738
32	0x3cd07360	0.02544564
33	0xbe00f312	-0.12592724
34	0xbddcbc88	-0.10778147
35	0x3ca2226f	0.01979181
36	0x3dc43cd5	0.09581915
37	0xbdce954a	-0.100870684
38	0x3c410619	0.011781239
39	0xbdfa86b4	-0.12232724
40	0x3c69523d	0.014240799
41	0xbdad6ab6	-0.08467619
42	0x3dbb7e17	0.09154909
43	0xbe007ab9	-0.12546815
44	0x3cfabc8a	0.03060748
45	0xbe58c6b5	-0.2116955
46	0xbcafbec4	-0.021453269
47	0x3c951f17	0.018203301
48	0xbd9213e2	-0.071326986
49	0x3cc3ae9a	0.023886967
50	0xbd29465a	-0.041326858
51	0xbb57ecf1	-0.0032947625
52	0xbe874d4e	-0.26426166
53	0x3dbda0be	0.09259175
54	0x3dc71059	0.09719915
55	0xbdb16576	-0.0866193
56	0xbe2ac503	-0.16676717
57	0xbd480db7	-0.048841204
58	0xbea8edb5	-0.32993856
59	0x3c709469	0.014683821
60	0xbd9e27d1	-0.07722438
61	0xbcf843eb	-0.030305823
62	0xbd17b297	-0.03703555
63	0xbe42a39f	-0.19007729
64	0x3c4c3b06	0.012465244
65	0x3cdf92f0	0.027291745
66	0xbc570d46	-0.013125723
67	0x3cd4247a	0.0258963
68	0xbdba5e0f	-0.090999715
69	0xbd37b929	-0.044854317
70	0xbd1fa74c	-0.038977906
71	0xbc500063	-0.012695405
72	0xbd9a6078	-0.07537931
73	0x3d1e26c2	0.03861118
74	0x3d6b6b28	0.05747524
75	0xbda40875	-0.080094256
76	0xbd238766	-0.039924048
77	0xbe60b631	-0.219445
78	0x3d7d1642	0.061788805
79	0x3e29b7fa	0.16574088
80	0x3d0bf89f	0.03417265
81	0xbdd4a6f3	-0.103834055
82	0x3d0a17c7	0.033714082
83	0x3d85be16	0.06530397
84	0x3d7c79a8	0.061639458
85	0xbc3785d2	-0.011201339
86	0x3e1dc56c	0.15407342
87	0xbd5bfd13	-0.053708147
88	0xbd591a4d	-0.053003598
89	0xbd825c3f	-0.06365251
90	0xbe6c9cd9	-0.23106708
91	0xbbfc23c8	-0.007694695
92	0xbddc1c1b	-0.10747548
93	0x3d917f94	0.07104412
94	0xbd410c9e	-0.047131173
95	0x3cec03cb	0.028810402
96	0xbe2b2d37	-0.16716467
97	0xbb7dc3a5	-0.003872135
98	0x3d928423	0.07154109
99	0xbdb25808	-0.08708197
100	0x3dc80850	0.097672105
101	0xbdb6e4af	-0.08930337
102	0x3d277f20	0.04089272
103	0x3dda52b5	0.10660306
104	0x3e0b3e79	0.1359805
105	0xbd284a43	-0.041086446
106	0x3dd5dd3f	0.1044259
107	0xbe905fdd	-0.28198138
108	0xbc47a590	-0.012185469
109	0x3e14c76e	0.14529201
110	0xbd592a0a	-0.053018607
111	0xbaacea24	-0.0013192338
112	0xbd3cbf98	-0.046081156
113	0x3d2f7be6	0.042842768
114	0xbdf3a741	-0.118971355
115	0xbe5fc72c	-0.21853322
116	0x3cce2eb5	0.025168756
117	0x3e13c528	0.14430678
118	0x3d8edf4a	0.06976183
119	0x3bddc3c7	0.0067677232
120	0xbd6f122b	-0.058366936
121	0x3b13003c	0.002243056
122	0x3c8ada06	0.016949665
123	0xbcec53b7	-0.028848512
124	0x3d8069b3	0.062701605
125	0x3bc2ccf7	0.005944844
126	0xbd3a60e5	-0.045502562
127	0xbdd9e07c	-0.1063852
128	0x3decf8e5	0.1157091
129	0x3ceb3fcc	0.028716944
130	0xbd89ba6c	-0.0672501
131	0xbe0115b7	-0.1260594
132	0x3c8dc057	0.017303629
133	0xbd0cbf0b	-0.03436188
134	0xbd80ddfd	-0.06292341
135	0x3d2f92c1	0.042864565
136	0xbd7560b7	-0.059906688
137	0xbe7cc47e	-0.24684331
138	0x3db154e6	0.08658771
139	0x3cf5aa32	0.029988382
140	0x3df53dd7	0.11974686
141	0x3d808b68	0.0627659
142	0x3ded48be	0.1158614
143	0xbd950a68	-0.072773755
144	0x3d1b914d	0.037980366
145	0x3dc42cdf	0.09578871
146	0xbd8c2bcd	-0.06844292
147	0x3e362df6	0.1779097
148	0x3cd7d70e	0.026347663
149	0xbdd51e96	-0.104062244
150	0xbc2b325b	-0.010449017
151	0x3d3d20e1	0.046173934
152	0xbdf7908d	-0.12088118
153	0xbdd37cce	-0.10326539
154	0xbce0e67c	-0.027453654
155	0xbd83efcb	-0.06442221
156	0xbe62a534	-0.22133332
157	0x3e17a206	0.14807901
158	0xbd317cc7	-0.043331888
159	0xbd165053	-0.036697697
160	0x3c8e3df2	0.017363522
161	0xbc1ee806	-0.009698873
162	0x3bf9de04	0.0076253433
163	0xbd4ff253	-0.050768208
164	0xbd4b3c89	-0.049618278
165	0x3db949ef	0.09047305
166	0x3d358c9f	0.04432356
167	0x3ce05172	0.027382586
168	0xbc8f139c	-0.017465405
169	0x3dc0df98	0.09417647
170	0x3d552561	0.0520376
171	0x3d8ccf2b	0.06875452
172	0xbd559132	-0.052140422
173	0x3c0f314d	0.008739782
174	0x3d1220cf	0.03567582
175	0x3e2f1f8c	0.17101878
176	0x3dc64d7b	0.09682747
177	0xbdba1d71	-0.09087647
178	0xbd391332	-0.04518432
179	0xbb48f139	-0.0030661358
180	0xbc842708	-0.016131893
181	0xbd94ee31	-0.07271994
182	0xbdd5c6fa	-0.104383424
183	0xbb7765af	-0.0037749817
184	0xbdb2e7df	-0.08735632
185	0x3e29402e	0.16528389
186	0x3d30d951	0.043176
187	0x3bb9fadc	0.0056756567
188	0x3cda317c	0.026634924
189	0x3d8ca029	0.068664856
190	0xbcaf754e	-0.02141824
191	0x3c6b169f	0.014348655
192	0xbd37c5db	-0.044866424
193	0x3e135faa	0.14391962
194	0xbe04da9d	-0.1297402
195	0x3d211d23	0.039334428
196	0xbe466100	-0.1937294
197	0x3d024137	0.031800475
198	0x3c462783	0.012094381
199	0xbd257376	-0.040393315
200	0xbd5cc73d	-0.053900946
201	0x3d4abf6b	0.049498957
202	0xbd0410c7	-0.032242563
203	0xbe916052	-0.283938
204	0x3e26829d	0.16260763
205	0x3cd37bbf	0.025815843
206	0xbdd53485	-0.10410408
207	0xbcdf7377	-0.027276738
208	0x3cde0d74	0.027106024
209	0x3dd1d270	0.10245216
210	0x3da652d8	0.0812127
211	0xbc9b892e	-0.01898631
212	0xbccf2b50	-0.025289208
213	0x3db2ab48	0.087240756
214	0x3da9f4c9	0.08298642
215	0x3d212518	0.039342016
216	0x3df7a3f9	0.12091822
217	0xbe81bc04	-0.25338757
218	0x3dfe43ac	0.12415251
219	0xbdadfe86	-0.08495812
220	0xbcf84f4a	-0.030311245
221	0x3cb1fde4	0.02172751
222	0xbdb230df	-0.08700728
223	0x3d94040f	0.072273366
224	0xbed833d0	-0.4222703
225	0xbd0a5bda	-0.033779003
226	0xbd272aed	-0.04081242
227	0xbcd754f0	-0.026285619
228	0x3d8f748b	0.07004651
229	0x3d33d660	0.043905616
230	0x3d2a1fa6	0.04153409
231	0x3c3b843e	0.011445103
232	0xbd1af2bd	-0.03782915
233	0xbe97e759	-0.29668692
234	0xbd4f3518	-0.050587744
235	0x3e08dc6f	0.13365339
236	0x3cffc77a	0.031223048
237	0x3c4cd41f	0.0125017455
238	0x3d3d7caf	0.046261486
239	0x3d1d327a	0.038378216
240	0x3d82c702	0.06385614
241	0xbe38a79c	-0.18032688
242	0x3d4c9b0a	0.049952544
243	0x3bf11313	0.00735701
244	0xbe72042c	-0.23634404
245	0xbdad8a70	-0.084736705
246	0xbd92613d	-0.07147453
247	0xbdaef323	-0.085424684
248	0x3dba44cf	0.090951554
249	0xbd0b1001	-0.03395081
250	0xbca770db	-0.020439556
251	0xbd8fbe9c	-0.07018778
252	0xbdcb2edd	-0.09921048
253	0xbbb815dc	-0.00561784
254	0xbd721e40	-0.05911088
255	0x3d63ba72	0.05559773

fc2.bias f4 [150]
0	0xbdf5f21b	-0.120090686
1	0x3db32203	0.087467216
2	0x3d700ecb	0.058607858
3	0xbd691281	-0.056902412
4	0x3d59ffd4	0.053222492
5	0xbc8c9e69	-0.01716538
6	0x3d8b4392	0.067999974
7	0x3cdd7a95	0.02703599
8	0x3d5f0e04	0.054456726
9	0x3cbf0333	0.023316955
10	0x3e0c4455	0.13697942
11	0xbcc3895f	-0.023869215
12	0x3c1df84b	0.009641717
13	0x3d94e5a7	0.07270365
14	0x3c4ef7e0	0.01263234
15	0xbdcece3a	-0.10097928
16	0x3dac2b4b	0.08406695
17	0x3d7b65e1	0.061376456
18	0xbd486d90	-0.048932612
19	0x3dac5224	0.084141046
20	0x3d9d4e71	0.07680977
21	0x3cd2d05c	0.02573412
22	0x3d52d2fb	0.051470738
23	0x3d109941	0.035302404
24	0x3ddaff5c	0.10693237
25	0x3dc2faee	0.09520517
26	0x3cfb3c63	0.030668443
27	0x3d56fee5	0.05248918
28	0x3dede93b	0.11616751
29	0x3d644821	0.05573285
30	0x3d5feb0a	0.05466751
31	0x3daddedf	0.08489775
32	0xbcaa4c76	-0.020788413
33	0x3b9181ec	0.0044405367
34	0x3d766f38	0.06016466
35	0x3d42be13	0.04754455
36	0x3d12ba6a	0.03582231
37	0x3d1c8ac3	0.03821827
38	0x3cc23041	0.02370465
39	0xbd5df4ef	-0.054188665
40	0x3dee152c	0.11625132
41	0xbd0a51f7	-0.033769574
42	0x3d4746f8	0.048651665
43	0xbd903b8d	-0.070426084
44	0xbcc111ab	-0.023567995
45	0x3ca462d8	0.020066664
46	0x3e1d3612	0.15352657
47	0x3da5135a	0.08060332
48	0x3decb619	0.1155817
49	0xbd968a7e	-0.07350634
50	0x3ba90bec	0.005158892
51	0x3d06e595	0.03293379
52	0xbb31372e	-0.0027040946
53	0x3d73df6b	0.05953924
54	0x3d90f82f	0.07078587
55	0x3cd75211	0.02628425
56	0x3dd9f187	0.10641771
57	0x3da9a160	0.08282733
58	0x3c96e0af	0.018417684
59	0x3cd524fc	0.026018612
60	0xbc9d2f97	-0.019187732
61	0xbd7f0a9c	-0.062265977
62	0x3d9744b5	0.07386152
63	0x3cbecb5c	0.023290329
64	0x3d65cb47	0.056102064
65	0x3d0c997b	0.034326058
66	0x3d7e4fd9	0.062087867
67	0xbc8450d7	-0.016151829
68	0xbda23d8a	-0.07921894
69	0x3d78ba33	0.06072445
70	0x3d8dba6d	0.069203235
71	0x3d9a20c0	0.07525778
72	0xbd2a0220	-0.041505933
73	0x3c3e81c2	0.011627616
74	0xbdcae03b	-0.0990605
75	0x3dba7f3d	0.091063
76	0x3dbd3488	0.09238535
77	0x3d9e7c5d	0.07738564
78	0xbddf98bc	-0.10917804
79	0x3d067f24	0.032836094
80	0x3da09c09	0.07842261
81	0xbe28251e	-0.16420409
82	0xbbe565b5	-0.00700065
83	0xbdaf03d2	-0.085456505
84	0xbd82fcbc	-0.063958615
85	0x3da1966a	0.07890017
86	0xbc158375	-0.00912558
87	0x3d7a75f3	0.06114764
88	0xbcbd282b	-0.023090443
89	0x3ce36135	0.027756313
90	0x3ddf18b0	0.10893381
91	0x3cb277df	0.021785675
92	0xbd9bee92	-0.07613863
93	0x3df21c68	0.11821824
94	0xbce24b7b	-0.027623883
95	0x3d6776c9	0.056509767
96	0x3ac6e01c	0.0015172991
97	0xbd875668	-0.066082776
98	0xbd517f2d	-0.051146675
99	0xbb8014aa	-0.0039087133
100	0x3e2f9561	0.17146827
101	0xbcc94242	-0.024567727
102	0x3d200f2d	0.039076973
103	0x3e1e4abc	0.15458196
104	0x3d57b478	0.052662343
105	0x3d664caa	0.056225456
106	0xbcec1c34	-0.028822042
107	0x3dcbf64b	0.09959086
108	0xbd53386c	-0.05156748
109	0x3c470f24	0.012149606
110	0x3da4747e	0.080300316
111	0x3d6c7c5d	0.05773579
112	0x3df8f89e	0.12156795
113	0x3d992557	0.07477825
114	0xbbe8c870	-0.007103972
115	0xbc715efa	-0.014732117
116	0x3c14258f	0.009042158
117	0x3d01a10a	0.03164772
118	0x3d0c9d7c	0.034329876
119	0x3bbc7593	0.0057513206
120	0xbd549fe1	-0.051910285
121	0x3ddcbd9a	0.10778351
122	0xbd0e5649	-0.034750257
123	0x3b4cb2a8	0.0031234417
124	0x3d30fa3d	0.043207396
125	0x3e2ea1aa	0.17053857
126	0xbc850d40	-0.01624167
127	0xbd815f61	-0.0631702
128	0x3dfc3415	0.12314621
129	0x3ce1bfdf	0.027557312
130	0x3d46a2e2	0.04849518
131	0x3c626bc9	0.013819643
132	0x3d7a1a15	0.06106003
133	0x3c8fa688	0.017535463
134	0x3bc38e4c	0.005967891
135	0x3c9b4f2e	0.018958654
136	0x3d55e417	0.052219477
137	0x3e08fd5a	0.13377896
138	0x3d354661	0.04425657
139	0xbd647d4f	-0.055783566
140	0x3d0c0818	0.034187406
141	0xbd226a6e	-0.03965228
142	0x3d9f2ae3	0.07771852
143	0x3ce2d48a	0.027689237
144	0xbd296bad	-0.041362453
145	0x3d492aef	0.04911321
146	0x3dd3fd8f	0.10351097
147	0x3dc48022	0.09594752
148	0x3de6b538	0.112650335
149	0x3d5c2d91	0.053754393

fc3.weight f4 [2, 150]
0	0x3d5483a6	0.051883362
1	0x3d56ada1	0.05241168
2	0x3e9e426a	0.30910045
3	0xbd2b1268	-0.0417656
4	0x3e4c9d21	0.19981815
5	0x3ccee592	0.025255952
6	0x3d98ff98	0.07470626
7	0x3de5dd92	0.11223902
8	0xbc85b34d	-0.016320849
9	0x3e15b3de	0.14619395
10	0x3ed2d8f4	0.41181147
11	0x3e635b56	0.2220281
12	0xbd1e46af	-0.038641628
13	0x3e11b637	0.14229666
14	0xbcf91198	-0.030403897
15	0x3f03c591	0.5147334
16	0x3db52ac1	0.08846045
17	0x3d9ab6c2	0.075543895
18	0xbd104de3	-0.03523053
19	0x3e4d7b91	0.20066668
20	0x3e04b758	0.12960565
21	0x3e4e3347	0.20136748
22	0xbc014b5f	-0.007891505
23	0xbe6a8e0c	-0.22905749
24	0x3e17a41b	0.14808695
25	0x3da7c2a0	0.08191419
26	0x3f06c35c	0.52641845
27	0x3e3ecc15	0.18632539
28	0x3e1e5ee9	0.15465893
29	0xbd206a2a	-0.039163746
30	0x3c3eb1e2	0.01163909
31	0x3e214b7a	0.15751448
32	0x3e84d724	0.2594539
33	0x3de7f73b	0.11326452
34	0x3e337b9b	0.1752762
35	0x3e8d340d	0.27578774
36	0xbd5a27ba	-0.053260542
37	0x3e1003c1	0.14063932
38	0x3d1c7f80	0.03820753
39	0xbd1b05fe	-0.03784751
40	0x3e3fe8de	0.18741176
41	0xbde63443	-0.11240437
42	0x3d9ae023	0.07562282
43	0xbd100f06	-0.035170577
44	0xbd12be9b	-0.035826307
45	0xbcf6f9ec	-0.030148469
46	0x3d0c8079	0.03430221
47	0x3e426338	0.18983161
48	0x3e3a3f41	0.18188192
49	0x3ed642a8	0.4184773
50	0x3dfad125	0.122469224
51	0x3d99e69f	0.075146906
52	0x3d1561ad	0.036470104
53	0x3e44d27b	0.19220917
54	0x3d0c7fa3	0.03430141
55	0x3d7a9fd8	0.061187595
56	0x3e917f11	0.28417256
57	0x3d97a0ac	0.074036926
58	0x3e9b9984	0.3039056
59	0x3da12be7	0.07869702
60	0xbc91088e	-0.017704275
61	0xbda5ada3	-0.08089759
62	0x3e208466	0.15675506
63	0x3e82b394	0.25527632
64	0x3ca3fc3e	0.02001774
65	0xbceefc47	-0.02917303
66	0x3e9438c0	0.28949547
67	0xbd133b64	-0.03594531
68	0xbd0bd832	-0.034141727
69	0x3ce188d0	0.027531058
70	0xbce15b25	-0.027509281
71	0x3e67fb3c	0.22654432
72	0xbcc7eb45	-0.024404177
73	0x3e2431e7	0.16034661
74	0xbd24bd87	-0.04021981
75	0x3e3b6d88	0.18303502
76	0x3b421b95	0.002961849
77	0x3e2f2a64	0.17106014
78	0xbd0757b7	-0.033042636
79	0x3db77763	0.08958318
80	0x3e4864ef	0.19569753
81	0xbc0bcb5f	-0.008532374
82	0x3e512086	0.20422563
83	0xbd58256c	-0.052770063
84	0xbd0b0a54	-0.033945397
85	0xb9f3c012	-0.00046491675
86	0xbd06c924	-0.032906666
87	0x3ea8e473	0.32986793
88	0x3e4082ea	0.1879994
89	0x3d7d7c19	0.061885927
90	0x3e321595	0.17391045
91	0x3e122a8d	0.14274044
92	0xbc24977e	-0.010045884
93	0x3da92012	0.0825807
94	0xbd2a77ed	-0.041618276
95	0x3da62aca	0.0811363
96	0x3ec4c63e	0.38432497
97	0xbd3430fb	-0.043992024
98	0xbd1e1927	-0.038598206
99	0x3e4fa8be	0.20279214
100	0x3e297ce4	0.16551548
101	0xbd39bd45	-0.045346517
102	0xbd1b85ea	-0.037969507
103	0x3e424717	0.18972431
104	0x3e446ded	0.19182558
105	0xbd2f74de	-0.042836063
106	0x3d7484f3	0.059697103
107	0x3e10ec8f	0.1415274
108	0x3e534aab	0.20633952
109	0x3e0299f6	0.12754044
110	0x3eabe4cb	0.33572993
111	0x3deb5007	0.114898734
112	0x3ca2cef0	0.019874066
113	0x3e7d213d	0.2471971
114	0xbbe9c68f	-0.0071342657
115	0x3e6ce383	0.23133664
116	0xbcf6f1cf	-0.0301446
117	0x3e41b9b3	0.18918495
118	0x3e0fb4cc	0.14033812
119	0x3e85b372	0.26113468
120	0xbcea874a	-0.028628964
121	0x3e8af47c	0.27139652
122	0xbe053c47	-0.13011275
123	0xbcdd47aa	-0.027011711
124	0x3dcf77c1	0.10130263
125	0x3d0a509b	0.033768278
126	0xbcc0634b	-0.023484847
127	0xbd169bdb	-0.03676973
128	0x3b8fc872	0.0043879086
129	0x3d96f880	0.07371616
130	0x3e2edfff	0.17077635
131	0x3e904d05	0.2818376
132	0xbdc9967f	-0.09843158
133	0x3b5aeca3	0.0033405207
134	0x3e1c9a66	0.15293273
135	0xbd1b54d5	-0.0379227
136	0xbd19f780	-0.03758955
137	0xbcb9a908	-0.022663608
138	0x3e0ee97e	0.13956258
139	0xbcfa1718	-0.03052859
140	0x3e460aa2	0.19339994
141	0xbd014dd3	-0.03156836
142	0x3e30a781	0.17251398
143	0x3d942f3a	0.0723557
144	0x3e54acc0	0.20769024
145	0x3a12bb81	0.0005597398
146	0x3de8eeb4	0.11373654
147	0x3e6af72e	0.22945854
148	0x3e47e7b3	0.1952198
149	0x3e567dd9	0.20946445
150	0x3e529d3e	0.20567796
151	0xbe95e365	-0.2927505
152	0xbe5d88ef	-0.21634267
153	0x3d03b239	0.03215239
154	0x3dccfc32	0.1000904
155	0x3e227f6e	0.15868923
156	0xbecf6aec	-0.40511262
157	0x3e1e5c75	0.15464957
158	0xbebc6de1	-0.3680258
159	0xbe0a6a8e	-0.1351721
160	0x3e1bcc7f	0.15214728
161	0x3e68f693	0.2275031
162	0x3d0bcca8	0.034130722
163	0x3be1183b	0.0068693436
164	0xbb7f7fc2	-0.0038986062
165	0x3dd243bd	0.10266826
166	0xbec59d5b	-0.38596615
167	0xbe93f5da	-0.28898507
168	0x3cf9709e	0.030449208
169	0xbd9a50e2	-0.075349584
170	0xbd93293a	-0.07185598
171	0x3cc6878a	0.024234552
172	0xbea54cbe	-0.32285112
173	0xbe1bf1d3	-0.15228967
174	0x3e647232	0.22309187
175	0xbe2bae8c	-0.16765803
176	0xbef5caf6	-0.4800641
177	0xbea3d65d	-0.31999484
178	0x3e74a687	0.2389165
179	0x39dba675	0.00041894955
180	0xbe838cf2	-0.2569347
181	0xbe39a3a1	-0.18128826
182	0xbda90b9b	-0.08254167
183	0x3e87d92d	0.2653288
184	0xbd1ad722	-0.037802823
185	0xbcad64c2	-0.02116621
186	0x3c5d858d	0.0135206105
187	0xbe4ef726	-0.20211467
188	0xbe8ba2cc	-0.27272642
189	0x3bf6da86	0.0075333742
190	0xbec400d6	-0.38281888
191	0xbb6a8fa5	-0.0035791185
192	0x3c3a82a8	0.01138369
193	0x3cb786c9	0.022403138
194	0xbb61c51f	-0.0034449769
195	0x3c8019bc	0.015637271
196	0xbea3ce4e	-0.31993335
197	0x3d1c6664	0.038183585
198	0x3c9a0838	0.018802747
199	0xbd9fa4ba	-0.07795091
200	0xbcd394bb	-0.025827756
201	0xbec63877	-0.38714954
202	0xbdb8275a	-0.08991881
203	0x3c90baed	0.017667258
204	0xbec786b6	-0.38969964
205	0xbe082ecc	-0.13299102
206	0x3d5bdf98	0.053680032
207	0x3d603e86	0.054747127
208	0xbdec1510	-0.11527455
209	0xbd891ea8	-0.066953
210	0x3c5c463a	0.013444478
211	0x3e970ae0	0.29500484
212	0xbe43000a	-0.19042984
213	0xbceb76c5	-0.028743157
214	0xbe648f3f	-0.22320269
215	0x3cbe493a	0.023228277
216	0x3dc801fc	0.097660035
217	0x3c85514d	0.016274119
218	0x3cbf3e08	0.023345008
219	0xbec2dce0	-0.3805914
220	0xbc2df856	-0.01061829
221	0xbe8557ed	-0.26043645
222	0x3da82bcd	0.08211479
223	0xbdeefb0b	-0.116689764
224	0x3cbc397d	0.022976631
225	0xbda46ad6	-0.0802819
226	0xbea04a5e	-0.31306738
227	0x3e4be6b5	0.19912226
228	0x3cb7ee73	0.022452569
229	0x3dd241a8	0.10266429
230	0xbd863544	-0.06553128
231	0x3cef1784	0.029186018
232	0xbe29a0cc	-0.16565245
233	0x3d321586	0.043477558
234	0x3d150847	0.036384847
235	0x3e6c3115	0.23065598
236	0x3cd689f6	0.026188832
237	0xbcb46c36	-0.022024255
238	0x3e57474e	0.21023294
239	0xbe945151	-0.2896829
240	0xbe81668e	-0.25273556
241	0x3e8d7222	0.2762614
242	0x3dd3dd3b	0.10344931
243	0xbeab1c80	-0.3342018
244	0x3cdce872	0.026966307
245	0xbe5fc579	-0.21852674
246	0x3d8d7c79	0.06908507
247	0x3c0c7eb5	0.008575131
248	0x3c98046e	0.0185568
249	0x3deba4fa	0.11506076
250	0xbe3a0b25	-0.18168314
251	0x3c014956	0.00789102
252	0x3c83e4ae	0.016100254
253	0xbd79e08e	-0.061005168
254	0x3e7b03e6	0.24513206
255	0xbdb0deb2	-0.08636226

fc3.bias f4 [2]
0	0xbd6702f2	-0.056399293
1	0xbd7aced2	-0.061232395
