udacity/Artificial Intelligence/Deep Reinforcement Learning/Continuous Control/checkpoint_actor.pth (torch, 91708 bytes, 10 tensors)

fc1.weight f4 [128, 33]
00000000: 267b 5b3d 72ee 6f3e 66fb 1a3d da4c 55be
00000010: 9e98 873e 23b3 b3bd 0ad8 423d 670f cc3c
00000020: d37b 8f3e a581 623e aa47 f0bd 7670 54bc
00000030: 4263 0e3d a53d f2be 3346 7dbe af2f 8bbd
00000040: 53cd 8d3e 81b6 cdbd 2c9a a53d 0e64 fabc
00000050: 4497 48bc 680d 973d 26ab 99bc 0283 763c
00000060: 727d 31bb 6de5 f83d cfcb 863e 0e50 3c3d
00000070: 3cad b83c 2e83 34bd 74f5 8cbe 4e03 1a3e
00000080: 2539 10bd d1c5 0bbf 2955 c7bd 1bf0 56be
00000090: b581 013f cfd1 23bf 2321 043f d26d 01be
000000a0: a61b 5fbe 304d e9bc 1b20 613d 7f16 68be
000000b0: 6546 603d 959b cbbd 3753 7c3e c0ac 043e
000000c0: 8161 09bd 2d4c b6be f093 b03c d257 323e
000000d0: 72ad 073e 4d1d 1f3c f80a c0bc 60c3 1e3d
000000e0: 8972 8d3d 5477 1c3c de47 873d 6b3c 8d3c
000000f0: 98ce f5bd ad12 c03d 222e d3bd e2b4 803e
00000100: efb6 c33d dd27 c13e daaf 5e3e 1e32 32bb
00000110: 713e c4be 52b3 d4bc de1f cbbe 23fa e33e
00000120: 3804 883d a5f6 f23c f8c5 6f3d b30d 423d
00000130: 9510 163e a131 9dbd 771d 5fbc 1c10 aabd
00000140: cd1b 223d 5441 893e 4164 2e3f 907d 8f3e
00000150: f06a a83e 4461 2fbc 004f 033e 2500 8a3d
00000160: 42e8 c63d 4afb 463d 336a 173c fd39 7e3e
00000170: f48a 8abc d9a4 f23d e112 b0be 8244 e7bd
00000180: 7c58 093d 8b3c 153d c7b7 533e 0c2f 113e
00000190: 6a59 c03e c0d6 4abe 6b71 1ebf ab81 663c
000001a0: 970c e3bd fe3a 8fbe 2c89 82bc fd31 79bd
000001b0: 88d4 da3d 5c7b 0abe 5fd6 b43e fe63 ed3d
000001c0: 5a85 203e 5185 35bd e1f0 233d 9e52 8e3e
000001d0: fbae 123f 926d 713e 631f 34bf aa63 04bd
000001e0: 37ff 0c3e f82b 753e 6365 17bd f779 963c
000001f0: 7685 84bd 903b 91bd 22ab 63bd ece3 8dbd
00000200: 5d70 79bd b5cf 05be adab 17bd 8c81 3f3e
00000210: e6c9 fabc d5d3 a43d 1cb0 f53d 63d0 33bf
00000220: 6f15 f2bd c11a 533e 59f0 d5be 16ff 5abd
00000230: c0a4 653e ae51 7f3e 6550 21bb 804e f43c
00000240: 20d6 733d 923d d33d fc68 073e 12ac bb3d
00000250: 0b8f c53e 1d49 04be 7c8f f4be ba44 b6be
00000260: fdf4 643d 78e1 1fbd f341 c8bd b415 14be
00000270: 5db8 113e fcc5 133e 169b 123e 0f6f 003e
00000280: 1867 afbe 27ff 0bbd ac55 b4be 9ee9 19be
00000290: 9114 80be 5dee 8b3c d345 da3e 0615 e53d
000002a0: 78a8 e4bd 765c 823c 41ee e03c f6e8 cbbb
000002b0: 47cc 233c fc17 d7be 9634 1abd 5f8b 773e
000002c0: e2f3 a33d b4f0 683d e8e3 713e fdd6 35be
000002d0: 49df b439 03eb 40be 46b3 e83e fc08 96be
000002e0: 169f da3c 2f9d a33b 881c 97be 7405 bc3d
000002f0: 5b99 113e 359b d83b 0553 2b3e f97c c93d
00000300: 11b7 853e d4d3 35be 1a51 fbbd e0a5 f5be
00000310: afbd cfbd cbdd c9bb b6eb 153d 0826 e7bc
00000320: 2373 0fbe 9ea8 e93d eafa 4e3e 5178 433e
00000330: ebda 7a3d 5f9c c2bd d8b5 60be 0f7c 20bc
00000340: 69dd 14bd 5107 0ebb 0033 5b3c 547f 0dbd
00000350: 01b3 47bd 0612 2b3e 59a5 29be f90d 9d3d
00000360: f7f7 c1bd c38d a2bc 9eb1 253c 2449 7fbc
00000370: e356 91bd 605f 20bd 41e1 b63c 0dfc fb3c
00000380: 37f0 81bd 4658 343e 0a5e 60be c866 4abd
00000390: 3cd9 17be dd2d d3bc 35ff c6bf ae4c 2c3a
000003a0: 9a43 e53e df94 7bbd 4859 0b3d 0070 183d
000003b0: 55c2 a73e c67f 87be 47ce c6bc 0c8b d13b
000003c0: c235 83be dc1e c73d 1e64 1f3e a486 833d
000003d0: ed34 553e 0a02 c6be c63c 0a3e 5d2f eabd
000003e0: eeff 0cbf 040c 9f3e 6f6b ae3e bf63 bfbd
000003f0: 69d7 d9bc c730 20bd 6cb8 883d f9da 05be
0.05358424 0.23430803 0.03783741 -0.20830098 0.26483625 -0.08774402 0.047569312 0.024909688
0.28024158 0.22119768 -0.11732419 -0.012966266 0.03476263 -0.47312656 -0.2473381 -0.06796204
0.27695712 -0.100445755 0.080860466 -0.030565288 -0.012243096 0.07375604 -0.018758368 0.015045883
-0.0027082828 0.121531345 0.2632737 0.045974784 0.022543542 -0.044070415 -0.27531016 0.15040323
-0.035210747 -0.5459872 -0.0973304 -0.2099003 0.5058854 -0.6399202 0.5161306 -0.1263955
-0.21787891 -0.028479189 0.05496226 -0.22664832 0.054754633 -0.09941784 0.24641119 0.12956524
-0.033540253 -0.35604993 0.021554917 0.17416313 0.13249758 0.009711576 -0.02344273 0.038760543
0.069066115 0.009549934 0.066055045 0.017240724 -0.12002295 0.09378562 -0.103115335 0.25138003
0.09556376 0.37725726 0.2174677 -0.0027190517 -0.3832889 -0.025964413 -0.3967275 0.44526777
0.0664143 0.029658625 0.058538407 0.047376346 0.14654763 -0.076754816 -0.013617865 -0.08303854
0.039577294 0.26807654 0.68121725 0.28025484 0.32894087 -0.010704342 0.12823105 0.06738309
0.097122684 0.04857949 0.009241628 0.24826808 -0.016911961 0.118478484 -0.34389403 -0.11292364
0.03353165 0.03643469 0.20675574 0.14178103 0.37568218 -0.19808483 -0.6189181 0.014069001
-0.11086386 -0.27974695 -0.01593455 -0.06083869 0.10685068 -0.1352362 0.35319802 0.115913376
0.1567587 -0.044316594 0.040024642 0.27797407 0.5729825 0.23576954 -0.7036039 -0.03232161
0.13769232 0.23942554 -0.036961924 0.018368704 -0.06470768 -0.07091439 -0.055583127 -0.06928238
-0.060898174 -0.13067515 -0.037028957 0.18701762 -0.03061385 0.08048216 0.11996481 -0.7023985
-0.118204944 0.20615675 -0.41784933 -0.053465925 0.22426128 0.24933502 -0.002461457 0.029822588
0.059530377 0.10314478 0.13223642 0.09163679 0.38585696 -0.12918516 -0.4776572 -0.3559931
0.0558977 -0.039033383 -0.09778204 -0.14461404 0.14230485 0.14430994 0.14316973 0.12542365
-0.34258342 -0.03417888 -0.35221612 -0.15030524 -0.2501569 0.017081434 0.42631397 0.111856505
-0.11164945 0.01591323 0.027457358 -0.0062228395 0.009997434 -0.42010486 -0.037647806 0.2417426
0.08005501 0.056870177 0.23622096 -0.17757793 0.00034498636 -0.1883965 0.45449275 -0.2930373
0.026687186 0.004993103 -0.29513955 0.091807276 0.14218657 0.006610299 0.16730888 0.0983829
0.2611623 -0.17756587 -0.12271328 -0.47978115 -0.10143601 -0.006160473 0.036601745 -0.028216377
-0.14008765 0.11409114 0.20212904 0.19088866 0.061243933 -0.09502482 -0.21944368 -0.009795203
-0.036343966 -0.0021671841 0.013378859 -0.034545258 -0.048754696 0.16706094 -0.16566981 0.07668681
-0.09471124 -0.019842988 0.010113148 -0.015581403 -0.070966505 -0.039153457 0.022324206 0.030759836
-0.063446455 0.17611799 -0.21910873 -0.049414426 -0.14828962 -0.025778705 -1.5546633 0.00065727055
0.44778138 -0.06142127 0.034020692 0.037216187 0.3276545 -0.2646467 -0.024268283 0.0063947495
-0.2562695 0.09722683 0.15565535 0.06422165 0.20820971 -0.3867343 0.13499746 -0.11434815
-0.5507802 0.31063855 0.3406634 -0.09345197 -0.026591973 -0.039109018 0.06675801 -0.13071813

fc1.bias f4 [128]
00000000: 57d0 05be 65af ac3e cadf e63d 44c2 253e
00000010: 8d6e 95be 8030 b0be daf8 4bbe 6631 67be
00000020: d6b8 943e 371b 0cbe 7631 cbbe 421b 89bd
00000030: 3905 d3be ec23 913e a0ee 7fbc 15de 8ebe
00000040: b8e7 debd f707 71bd d407 023e 9212 a1be
00000050: 074f 5f3e adf8 4cbd 070c 40bd 99b9 ae3b
00000060: d038 f2bc 38f2 6b3e 5fc7 58be 481a 56bd
00000070: 0916 c6be e977 5dbd d472 8fbe 15b5 65be
00000080: c6bf 073e 3235 babe 90e3 48be 2e87 d23d
00000090: 3b61 17be ade6 e5bc 2293 99be 6c23 b13d
000000a0: 30c1 a4be 2ce2 20be 8f11 33be d4e8 863d
000000b0: 371d f3be 7bd9 a13c ad38 92bd 13f7 63be
000000c0: c84a 3cbd bfeb c93d f0fe b6be b6d8 87bd
000000d0: 1093 7ebe e5e7 c1be 9bb8 0d3e b3a9 e3bd
000000e0: c5fa 1abd a1e5 4ebd ad86 a23d 5c4f ff3d
000000f0: e647 0e3e 78a1 c33d 6234 87be 1e5f 0fbe
00000100: e3fe 453e e1ec d2bd f192 ebbd 64c0 1e3e
00000110: eb29 debc 9787 863e fb4d ad3d 7aa1 0cbe
00000120: d500 97be 8fea 03bc c099 08bd eb8c 70bd
00000130: 09b2 d9bb c7d8 6bbe e0eb a0be 4bbc 263e
00000140: 6542 a53c 6a9d 263c 8c8e 82bd 1a8d 48bd
00000150: f983 403f 3b4b 03be 3fce 8abe d9b4 07be
00000160: 7e6d d0be 0456 c5be e887 01bd 8da2 883e
00000170: 3a26 aebd fbff 5ebd 58ad 68be 7b88 dc3b
00000180: 252a 62be 43de 403e 582e a2bd f9f2 c8be
00000190: a613 d2bd 960c 413d 0517 1c3f 0800 2abe
000001a0: ef11 3d3d 5b96 b23d ef36 a3bc 38a8 bfbd
000001b0: 8cf8 3c3e 71b9 fabd aa58 a7bd b6d0 a6be
000001c0: cb69 4dbe 13bd 933d c7d3 73be 5632 56bd
000001d0: 0a5f 77be 1f83 50bd dd99 8d3d 112c b4be
000001e0: 0346 e1be 03fd 73be 98fd 15be 4cf3 42bd
000001f0: 6f9d 43bd acd8 6d3d f293 7ebe 91d7 a9be
-0.13067757 0.33727565 0.11273153 0.16187388 -0.29185906 -0.34412003 -0.19919148 -0.22577438
0.2904727 -0.13682257 -0.39686173 -0.06694652 -0.41214922 0.2834772 -0.0156208575 -0.2790381
-0.108840406 -0.058845486 0.12698299 -0.3145948 0.2180749 -0.050041843 -0.04688647 0.0053321836
-0.029568106 0.23041618 -0.21169804 -0.052271158 -0.38688686 -0.054069433 -0.28017294 -0.22432359
0.1325675 -0.3636871 -0.19618058 0.1027969 -0.14783184 -0.028064096 -0.29995066 0.08649334
-0.3217864 -0.15711278 -0.17487167 0.06587377 -0.47483227 0.019757023 -0.07139716 -0.2226222
-0.045969754 0.09859418 -0.35741377 -0.06633131 -0.24860787 -0.37872234 0.13839953 -0.11116352
-0.03783681 -0.05051196 0.079358436 0.124663085 0.13894615 0.09552282 -0.26407152 -0.14001128
0.19335513 -0.10299087 -0.11502636 0.15503079 -0.027119597 0.26275322 0.08462139 -0.13733473
-0.29492822 -0.008051529 -0.033349752 -0.05872814 -0.006643538 -0.23031913 -0.31429958 0.16282766
0.020173261 0.010169366 -0.06374845 -0.04896269 0.75201374 -0.12821667 -0.27110478 -0.13252582
-0.40708536 -0.38542187 -0.03162375 0.26686516 -0.08503385 -0.05444334 -0.22722375 0.006730137
-0.2208639 0.18834786 -0.079189956 -0.39247873 -0.10257654 0.047131144 0.60972625 -0.16601574
0.04615968 0.08720084 -0.019923655 -0.09358257 0.18454188 -0.122424014 -0.08171208 -0.3258111
-0.20059888 0.072137974 -0.23811255 -0.052294098 -0.24157348 -0.050906297 0.06914113 -0.3518987
-0.43998727 -0.23826985 -0.1464752 -0.047595307 -0.047757562 0.058067963 -0.24861124 -0.33172277

fc2.weight f4 [128, 128]
00000000: 29dd 233e 42ad ccbe 3049 73bd bfc5 ccbd
00000010: c889 073e 2298 1d3e 0634 f33d 20c6 06be
00000020: 5e38 04be 500c 15bb 31fd c33d ad3e 9e3e
00000030: f6ab 0c3e df08 823e 810c d83d fa7f 05be
00000040: b65d 3f3c c4f9 263d 7597 34be 581e 8fbd
00000050: a329 8abe aa8d d73d 0312 7cba 7a54 00be
00000060: f2d0 89bd 6c5d 183e 5fd0 03be 597e 35be
00000070: ea4d 4a3e 7caa 2fbe 91c3 883e e46f fb3c
00000080: e33e a73d d07c afbd e8cb a9bd 9b5c 493d
00000090: 1f04 cd3d 8e21 193e 357a 39bc a719 843e
000000a0: 2d2a c83e 19f9 623e 5644 763e 2a90 41bd
000000b0: da09 efbe d886 a63c 0824 82be 993f 09be
000000c0: 786e fa3e 6bc5 eb3d a6ef 0ebe 41ca cd3d
000000d0: 0475 07be 1179 003e 34f2 f23c f7be 823e
000000e0: 641a 6abe ddc1 58bd 5f86 9dbe 3092 3dbd
000000f0: de50 033e 7dd8 81be 855b e4bc ad77 823d
00000100: 2fdf 17bd 026a 94be 2479 743e 20b0 373e
00000110: d866 9dbc 1223 fe3d 2184 a63d 0f59 32be
00000120: a365 cc3e d311 703e 5b58 7e3e 18a1 b63d
00000130: a75c 89be a5c4 08be 1b69 4abe 0f75 f73d
00000140: ca6b d13d e194 503e b65d 02bc c8da 90be
00000150: d134 493d 893c 29be 7f6b 6ebd 71ed 8fbc
00000160: d966 273e 6b6c 1a3e afc2 1c3e e53c 723e
00000170: 6f6c d73d ea00 833e af0c 333e 7226 6d3c
00000180: 5ddc a3be 66bf 0cbb a14a 183e 6326 8abd
00000190: f758 283e db30 71be 97e2 173c f659 63bd
000001a0: 89a6 b7bd c736 f1bd 2068 923e 8ea2 c1bc
000001b0: a194 85be 3af3 9dbd 470f b93c 5cf7 c13b
000001c0: d053 f23c daa8 8f3e 58af 11bf eade 783e
000001d0: 0133 823e 2f24 313e cd83 24bd 367d b4bc
000001e0: d091 833e 6e08 32bc 5b29 5e3e 8599 08be
000001f0: e5c5 fd3c dba7 de3e 9e33 333e 9a35 bcbd
00000200: 8e75 fbbd f0b9 8abd 7b3a 2abd 6228 09be
00000210: 6092 8bbe ac49 09bd 32f3 96bd 989c 2abe
00000220: 040d 8f3e c7c7 e5bd dab0 813c d4e5 e63d
00000230: bf6e 2dbe 8fb8 793e 1f3b e4bb 3f0f 80be
00000240: 432f 03be 9188 cf3c 646e 2d3e 4db5 12be
00000250: 8f44 2c3e 935c 1a3e 5521 e83d 807b 7b3d
00000260: 3078 1d3c 6198 b2bd b9de b5bd 874f a2bc
00000270: 3f08 4b3e c370 ecbc 923f 0b3e 4190 0fbd
00000280: 2721 d53d fb75 913d 92e5 a6bd 60d6 7abe
00000290: 374f 2d3e e1f9 eabc 9909 993e fb92 5dbe
000002a0: 09f4 59bc 7061 ec3b 9eea 62bd 14e8 26bc
000002b0: efde e43d e4e3 4b3e 2bd5 aa3d 5894 393e
000002c0: dd4b 72be bada 03be 380e 56be 6f8e ddbc
000002d0: 0ad8 9f3d 4c97 40be c7d7 77bc 7b75 a6bd
000002e0: ca58 523e 86ff a0be a485 0e3e 7231 cbbd
000002f0: 85e9 fdbd 475e 20be 1581 4abe 9e8b c03d
00000300: 7292 8bbe 6778 11bc 803a 2cbe 4730 30be
00000310: 6cf4 a7bd 50d5 e53d 0e87 9e3d 6eaf 193d
00000320: 4617 a03d 3f33 173e c5ac 6d3e 6bcb 073d
00000330: 5f21 2bbe ab2f 68bd 3187 743d 81e2 8abe
00000340: b54d 8b3d a2e4 8f3e 8349 f43d 7192 1cbd
00000350: 6fa6 af3d a379 65be 5455 be3d 6a33 0dbe
00000360: 8347 c5bc e9c5 1c3e 19a5 9e3d 988d 9bbc
00000370: 0227 6b3d f2e5 203b 698d 0abe effe ff3d
00000380: d3ec a0bb 0a0b b2bb 2bff cc3d 43a8 683c
00000390: c260 abbd 846b a2be 126c d8bd a94b 49be
000003a0: 612d e53d 994f 59bd bbb8 31bd 5107 09be
000003b0: 0fcb d13d 5c5e e33d 3413 c13c 9d56 8238
000003c0: 75df 26be cba9 2b3e f80b d23d 2664 683e
000003d0: cebd dbbc ce23 433b 01fb 86bc e823 53bd
000003e0: 8991 003d 9272 45be 834c fbbd d941 053e
000003f0: c8ee 853e 9f74 b03c f007 b5bd 4bb2 acbd
0.16002335 -0.39975935 -0.05939597 -0.099986546 0.13236153 0.15390065 0.11875157 -0.13161516
-0.12912127 -0.0022742935 0.09569777 0.30907193 0.13737473 0.25397393 0.1054926 -0.130371
0.011680057 0.04076554 -0.17635901 -0.069882095 -0.2698489 0.10525067 -0.0009615721 -0.12532225
-0.06729306 0.14879388 -0.12872456 -0.17723979 0.19756284 -0.17154878 0.26711705 0.030693002
0.081662916 -0.08568728 -0.08290845 0.04916058 0.10010552 0.14954206 -0.01132064 0.2580082
0.39094678 0.22165336 0.24049506 -0.047256626 -0.46687204 0.02032797 -0.25418115 -0.13403167
0.48912406 0.11512264 -0.13958606 0.100483425 -0.13228232 0.12546183 0.029656507 0.2553632
-0.2286163 -0.052919257 -0.3076658 -0.046281993 0.12823817 -0.2536048 -0.027875671 0.063704826
-0.03707808 -0.28987128 0.23874336 0.1793828 -0.019214079 0.12409033 0.0813067 -0.17416786
0.39921293 0.234443 0.24838392 0.08917445 -0.268285 -0.13356264 -0.19766657 0.12082874
0.10225637 0.20369293 -0.007956913 -0.28291917 0.049122635 -0.16526999 -0.058207985 -0.017569276
0.16347827 0.1508042 0.15308641 0.23656042 0.10518729 0.25586635 0.17485307 0.014474498
-0.3200406 -0.0021476387 0.14872219 -0.06745603 0.16440187 -0.23553793 0.009270332 -0.055505715
-0.08967311 -0.11778026 0.28595066 -0.023637082 -0.26089957 -0.077124074 0.022590293 0.00591938
0.02958098 0.2805851 -0.5690818 0.24303785 0.25429538 0.17298959 -0.040164758 -0.022032361
0.25697184 -0.010866268 0.21695463 -0.13339813 0.030978153 0.4348744 0.17500159 -0.09189911
-0.12278281 -0.06773746 -0.041559678 -0.13394311 -0.27260113 -0.033517525 -0.073706046 -0.16661298
0.27939618 -0.11219745 0.0158314 0.11274305 -0.16936778 0.2438681 -0.0069650556 -0.25011632
-0.12810998 0.025333675 0.16936642 -0.14326973 0.16823028 0.15074377 0.113344826 0.061397076
0.009611174 -0.0872047 -0.088803716 -0.019813312 0.19827364 -0.028862363 0.13598469 -0.03504968
0.10406714 0.07102581 -0.08149256 -0.2449584 0.1692475 -0.028683605 0.29890135 -0.216381
-0.013302811 0.007213764 -0.05539953 -0.010187168 0.11175334 0.19911152 0.0834144 0.18122995
-0.23661752 -0.12876406 -0.20903862 -0.027045457 0.07804878 -0.18807715 -0.015127129 -0.08127876
0.20541683 -0.3144495 0.13918167 -0.0992154 -0.12398056 -0.15660964 -0.19775803 0.0940163
-0.27260166 -0.008878804 -0.16819191 -0.17205916 -0.08200917 0.11222327 0.077406034 0.03752082
0.07816939 0.14765643 0.23210438 0.03315298 -0.16711949 -0.056686085 0.05969924 -0.27125934
0.06801931 0.2810412 0.11928084 -0.038225595 0.085766666 -0.22409682 0.09293619 -0.13789144
-0.024081951 0.15309872 0.07746334 -0.018988416 0.057410248 0.002455112 -0.13530506 0.124997966
-0.004911044 -0.005433445 0.10009607 0.014200273 -0.083680645 -0.31722653 -0.10567488 -0.19657768
0.11190296 -0.053054426 -0.043389063 -0.13381697 0.102438085 0.11101982 0.023568727 6.215016e-05
-0.1629618 0.1676399 0.10256189 0.22694454 -0.026823904 0.002977598 -0.01647711 -0.051547915
0.031388793 -0.19281986 -0.12270453 0.130134 0.26158738 0.021539984 -0.088394046 -0.08432444

fc2.bias f4 [128]
00000000: 883e f6be 2e6c 5fbe d312 a9bd a779 0ebe
00000010: 75d4 0cbe b615 d8be 853a 9bbe ef6a 64be
00000020: eef5 20bd 7ce9 6fbe 6cd7 29bf 2dc9 9cbe
00000030: d5c3 28bf 3667 6abe f4a0 ffbd 0960 5abe
00000040: e8d3 6abe 9cc4 78be e39b 4cbe 93fb ccbe
00000050: 7143 9cbe af4b 483c a496 1abe b7d0 e5be
00000060: 6b5d 30bf 619b 0fbd e7f7 e7bd 9ec5 11be
00000070: 1fd2 96be 3d61 8bbd b4f8 5dbe 6a70 f0be
00000080: 806f d93c 03ed 68be cf77 68be 673a 90be
00000090: e196 99be 558b 713e fdfc 2dbe 6add 563e
000000a0: 5341 4cbe 90ac a8bd 4b5b cbbd d029 58be
000000b0: 373f f6be 3013 07bf d51b 55be 0172 26bf
000000c0: 2d69 59be 7671 10bf dad2 a2be 793c d0be
000000d0: c744 16be 96bc 13be 0e45 dcbe 5c2d 9fbe
000000e0: c5e2 5d3d 067e 54be cb5f 10be 6a07 2cbe
000000f0: b0a9 5fbe 9c34 58be a4dc d6be 8c6e 12be
00000100: 4b38 8bbe 596d d0bd 9c3d f1be f848 35be
00000110: 71c6 24bd f439 7cbd 3747 73bc e2ca 84be
00000120: f1af 9ebe 5a88 b3bd aa96 ebbe a5cf 67be
00000130: 36a2 393c 7326 a0b9 8f83 73be 624d b1bd
00000140: 0030 dbbe 11c0 41bd 127c 69bd 1b49 9abc
00000150: b7a4 d8be c66a 22be 0e43 1cbd d103 e3be
00000160: df87 cebe 515f 9dbc e7c7 0fbe 3073 dfbd
00000170: 2d09 c6be d39a 62be 3dbc e4be 311f 8dbe
00000180: 96aa 0ebe 268a c4be 0c84 ddbe d78c f5bc
00000190: 36d8 a0bd dae8 a53c 34f1 26be 36bf 72be
000001a0: e167 a9be c304 d8bd 6e65 26bd fac1 96be
000001b0: 79d8 74be b383 0abf 348c 58be 37aa 3fbe
000001c0: af4b 0ebf 2d5e 10bd 2adb e9be bcfa 1fbd
000001d0: 317f f2be 3c8b 76be 7eaf babd 769e bfbe
000001e0: 50b8 75be 18d4 d4be ff25 7e3c cdcd ddbe
000001f0: 0236 26bd 0cb6 b5bd bfc3 ffbd b8a0 f63d
-0.48094583 -0.21818611 -0.082555436 -0.13913594 -0.13752921 -0.42204064 -0.30318084 -0.22306417
-0.039297037 -0.23428911 -0.6634433 -0.30622235 -0.65923816 -0.22890934 -0.12481871 -0.21325697
-0.22932398 -0.2429375 -0.19981341 -0.40035686 -0.30520204 0.012225076 -0.15096527 -0.448858
-0.68892545 -0.03506029 -0.113265805 -0.14235541 -0.29457185 -0.06805656 -0.21676904 -0.46960765
0.026542425 -0.22746663 -0.22701953 -0.28169557 -0.29997924 0.23588307 -0.16991039 0.209829
-0.19946794 -0.08236039 -0.09929522 -0.211097 -0.48095104 -0.5276365 -0.20811398 -0.65017706
-0.21231528 -0.5642313 -0.31801492 -0.40671137 -0.14674674 -0.14427409 -0.43021435 -0.31089294
0.054171342 -0.20751199 -0.14099042 -0.16799703 -0.21842074 -0.21113819 -0.4196521 -0.14299983
-0.27191386 -0.101771064 -0.47117317 -0.17703617 -0.04022831 -0.061578706 -0.014848522 -0.25936037
-0.30993608 -0.08766241 -0.46013385 -0.22637804 0.011330178 -0.00030546225 -0.23780654 -0.08657338
-0.4281006 -0.04730231 -0.05700309 -0.018833688 -0.42313167 -0.15861043 -0.038149886 -0.4433885
-0.40338036 -0.01921049 -0.140411 -0.10910642 -0.38678876 -0.22129373 -0.44674864 -0.2756286
-0.13932261 -0.3838665 -0.43264806 -0.029974384 -0.07853739 0.020252634 -0.16302949 -0.23705754
-0.33087066 -0.10547783 -0.040624075 -0.29444867 -0.23910703 -0.5410721 -0.21147233 -0.18717276
-0.55584234 -0.035246063 -0.4567502 -0.03905748 -0.47362664 -0.24076551 -0.09115504 -0.37425584
-0.23996091 -0.41568065 0.015511989 -0.43321076 -0.04057885 -0.08872613 -0.124885075 0.120423734

fc3.weight f4 [4, 128]
00000000: 29fd a2be 3b5b 13bd 7fc6 78be 0a9f d7be
00000010: 1f46 b4be 0d32 d3be 9b18 973e 1346 403e
00000020: 6cbf 74be 31f0 b6be 9c4f ee3e 5396 733f
00000030: 4a14 c13e 133c 433e e8c4 b3bd b527 7a3e
00000040: c2a8 77bc 5d23 c83c ea68 153f 5610 8dbc
00000050: c343 413e d538 023f 8290 a6be a63b 283f
00000060: bd63 12bd 4d6a 073f 2f09 3abf fa8f c8bd
00000070: ac9d c2bd 22d4 fd3d 006b edbd 8d52 9ebe
00000080: 9af5 b2bd 2a77 173f 7eeb efbe 4ebe 393f
00000090: d6ff 83be ac0c 1a3e f3c0 023f c622 59bf
000000a0: 7c4d 2ebc f602 823e 9e7f ae3e e7ce ac3e
000000b0: 97d4 5ebe 66b5 c23e 1880 993e 7fdd 4b3e
000000c0: b099 95be 13a6 d33e 1a07 9fbe 031c 93be
000000d0: 7b6c 56be 8fb8 89be d451 28bf 850b 8d3e
000000e0: 4ae1 10bf 6173 8dbe 595d fb3c 61ff b83e
000000f0: 7a9a c9bc ee17 533e c61f 74be 2951 d0bc
00000100: 2b31 00bf f660 353f bc79 47be 0f71 43bf
00000110: 02d4 1c3e 8053 bb3e 08fc c4be e0ff 5fbd
00000120: 1e17 1b3e aef2 92be f25e babe 6a85 f03e
00000130: 7ed0 393e ef0e 76be fec5 be3e b11f 2d3e
00000140: 16bc c13c cffe 033f f833 1bbf a756 523f
00000150: e5c6 d93d 43df 013e b8bd cdbe 81d8 ea3e
00000160: 39e2 0c39 1139 8cbe 03b6 3cbe 4127 92be
00000170: 7c25 c43e b0d0 3bbf b069 1d3e 3e2f 8dbc
00000180: 5eb2 c8be 1d81 af3e 499e 49be af13 cd3e
00000190: 18c2 f03e 8be8 28be 5691 8dbe 4758 b13e
000001a0: 541e e33e 82b1 a03d b157 703d 68c1 2d3f
000001b0: 5c27 16bf 8766 403e 765f dfbe 5712 cabe
000001c0: 8da1 bdbe 3228 853d 7a79 26bf 3bba 43bd
000001d0: 7198 e83d ba4a 15bf 7b40 7fbe a0a4 d63e
000001e0: c4ac 18be 361a d8be 9c98 2fbe 1c06 a3bd
000001f0: b772 a3be 87fe 933e 0a04 6c3e d11c d53e
00000200: 9c79 15be 9182 2fbe 1bb6 bebe 31b4 c6bc
00000210: df9f 4e3c c318 da3e dba8 6c3e 642e debd
00000220: f63b 0bbf 4149 b93e 3d4b 03be c51e eabd
00000230: 1063 e5b9 4553 7dbe ebe9 583c 31d2 ce3e
00000240: fa0d 3fbf 30bf b83e e05b b83e 38a1 e8bd
00000250: 4d3e b4bd 09eb 99be a2a3 a23d bc16 58bd
00000260: 317b e8bd d37a 953d c08e 5f3e a2b8 1bbf
00000270: b1b3 d83e abe2 2ebe 7697 3a3e 0693 79be
00000280: 2f17 023e 827e 04bd ede2 113d 91b6 ca3d
00000290: d182 7d3e 3074 243f f380 a2be ea8e 4f3e
000002a0: ff30 b53c 5304 4b3e c0b5 e4be 6511 5abe
000002b0: 3b2d d03b b1a7 863e 1b23 173f 6855 84be
000002c0: 8f43 af3e c4fc b13e 4509 2a3c aa34 9dbe
000002d0: 2474 3bbe 1a43 9abe 2da7 283e 6d27 1ebe
000002e0: a6d2 c0be 740b 903e 2ff5 103e 714f 283f
000002f0: c39e 00be c10d ee3e f4e9 c93d d296 1f3d
00000300: 4e18 11bf de98 16be 4d52 0cbf 94c4 8a3e
00000310: 3293 3dbe 5d37 c3bc a17e fd3c 66dc c13a
00000320: ce59 75be 3149 a5be 3585 133f c3da b6be
00000330: af99 2b3d b76c e73d 722c 3abe bbd3 a83b
00000340: dde5 673e f68e 413d c7f5 37be 93d4 74be
00000350: 4ccc 5c3e 71f1 17bf 5466 0bbe c5bb 4f3e
00000360: 8fb9 1ebf 9070 583f 2dd0 d3bc cd61 c43e
00000370: 16b3 953d 913d c23e d365 95be c206 823e
00000380: c911 10be 0acf 823c 1000 823e a667 6fbd
00000390: 7ee2 aa3e ed89 953e b933 de3c 8350 593e
000003a0: 90c1 b4be 55d1 c7bc 963c d13e f9ac b23d
000003b0: 866c cd3e e4a1 bebe 6a5f 943d acac a83e
000003c0: 8c78 dabe 47f5 633d 4127 30be 2081 b3be
000003d0: 9fc9 16bf 4af7 613f 1e19 01be dc68 06bf
000003e0: 67f4 7fbd 3963 a9be 087a 48bd 8483 c1be
000003f0: 690d 37be b628 ddbe 4f3b b13e 7ab1 bd3e
-0.3183377 -0.035975676 -0.2429447 -0.42113525 -0.35209748 -0.41249123 0.2951096 0.18776731
-0.23901147 -0.35730127 0.46545112 0.9515125 0.37710792 0.19065885 -0.08777791 0.2442921
-0.015115919 0.024430925 0.5836321 -0.017219704 0.18873505 0.5086797 -0.32532126 0.65716016
-0.03573965 0.5289658 -0.72670263 -0.09793086 -0.0950273 0.12393977 -0.11592674 -0.30922356
-0.08738251 0.59166205 -0.46859354 0.72556007 -0.25781125 0.15043896 0.5107567 -0.84818685
-0.010638591 0.25392884 0.3408174 0.33751604 -0.21760784 0.3802902 0.2998054 0.19908713
-0.29218817 0.41337642 -0.31060106 -0.2873231 -0.2093982 -0.2689862 -0.6574986 0.2754785
-0.56593764 -0.2762709 0.03068416 0.3613234 -0.024609793 0.20614597 -0.23840246 -0.025429325
-0.50075024 0.70851076 -0.19480032 -0.7634439 0.1531525 0.36587143 -0.38473535 -0.05468738
0.15145537 -0.28700775 -0.36400563 0.46976787 0.1814594 -0.24029134 0.3726043 0.1690662
0.023649257 0.5156068 -0.60626173 0.8216347 0.10633639 0.12682824 -0.40183806 0.45868304
0.00013435715 -0.27387288 -0.18428807 -0.28545573 0.38309848 -0.73365307 0.15372348 -0.01723444
-0.39198583 0.34278193 -0.19689287 0.4005408 0.47023082 -0.16494958 -0.27649945 0.34637663
0.44359076 0.07846357 0.05867738 0.6787324 -0.5865381 0.18789111 -0.43627518 -0.39467117
-0.37037316 0.06501807 -0.6502911 -0.047785025 0.11357201 -0.5831715 -0.24926941 0.41922474
-0.14909655 -0.42207497 -0.1714806 -0.0796015 -0.31923458 0.28905126 0.23048416 0.41623548
-0.14597172 -0.17139651 -0.3724831 -0.024255844 0.012611358 0.42597017 0.23111288 -0.10848692
-0.5438837 0.361887 -0.1282167 -0.1143165 -0.0004375209 -0.24738796 0.013239364 0.40394738
-0.746307 0.36083364 0.36007595 -0.11358875 -0.088009454 -0.3006213 0.07941367 -0.052756056
-0.11351622 0.072988175 0.21831799 -0.608286 0.42324594 -0.17078654 0.1822184 -0.24372491
0.12704156 -0.03234721 0.035616804 0.09898103 0.24756934 0.6423979 -0.31739005 0.20269361
0.02211809 0.19825868 -0.44669914 -0.21295698 0.006353048 0.26299813 0.5903794 -0.2584641
0.3423123 0.34763157 0.010378187 -0.30704242 -0.18306023 -0.3012932 0.16470022 -0.15444727
-0.37660712 0.28133738 0.1415603 0.6574622 -0.12560563 0.46494868 0.09859076 0.038962193
-0.5667771 -0.14706752 -0.5481308 0.27103102 -0.18513182 -0.02383011 0.03094417 0.0014790415
-0.23960039 -0.32282403 0.5762513 -0.35713777 0.04189461 0.113000326 -0.18181017 0.0051521934
0.2264628 0.04725548 -0.1796485 -0.23909216 0.21562308 -0.59352785 -0.13613254 0.20286472
-0.6200189 0.84546757 -0.025856102 0.38355866 0.073095486 0.37937596 -0.29179248 0.2539578
-0.14069284 0.015967865 0.25390673 -0.058448456 0.33375925 0.29206792 0.027124273 0.21222119
-0.35303926 -0.02439181 0.40866536 0.08724398 0.4012186 -0.37232888 0.07244761 0.32944238
-0.42670095 0.055653837 -0.17202474 -0.35059452 -0.589014 0.8826796 -0.12607238 -0.5250375
-0.06248894 -0.33083513 -0.048944503 -0.3779565 -0.1787621 -0.43195122 0.3461556 0.37049466

fc3.bias f4 [4]
00000000: bca7 263e 3b7c 893d 6804 98bc 6b96 903d
0.16274923 0.06713148 -0.018556789 0.0705994

bn1.weight f4 [128]
00000000: efe6 943f e4a0 a43f 7300 b83f 20b5 5a3f
00000010: 0ea6 8e3f e626 783f a5cd 913f 422e 833f
00000020: 8cbd 9c3f 3ac3 933f 8f3c 8b3f 53a1 653f
00000030: de87 8b3f 0cbe a63f 128d 993f 9141 9e3f
00000040: cb6a 893f 1cae 873f 9ac5 783f ff14 8f3f
00000050: ce4a 8c3f 8afd 923f 81ed 6e3f 1dd1 823f
00000060: a1cb 973f 9fdd a33f c721 933f 2112 833f
00000070: 9a63 953f 075d 963f 1072 953f 166a 843f
00000080: 056d 7b3f 1d5c 813f a1ac 903f fe2e 8d3f
00000090: 61c2 7a3f ea97 bb3f 104d 8b3f 9633 803f
000000a0: 8226 5c3f 38f5 8f3f c069 8a3f 8a89 a33f
000000b0: f5e7 9c3f 7405 713f 6a1b a63f f448 703f
000000c0: ac8d 9e3f f0f6 803f 6507 823f f79d 623f
000000d0: 6865 9c3f b0fb 793f 8a76 9c3f e157 663f
000000e0: b7f5 b33f 9521 923f 8fb0 903f a9ab 7e3f
000000f0: d6e4 a93f dd7a 8b3f 8eb6 8c3f ce16 903f
00000100: a5a8 8b3f 6090 a23f 0e9a 943f f786 9c3f
00000110: 19c1 973f 106c 9c3f 1dda 883f 56a9 8b3f
00000120: 6b0e b23f 807c 8c3f a29f af3f c43e 983f
00000130: 9ea9 a03f e7b3 783f 6d8d 6e3f d9a5 913f
00000140: 527d 953f e71e bf3f 258c 683f cdf9 573f
00000150: 3f21 a33f 89e6 973f 89a6 9e3f 2a25 853f
00000160: e854 583f 2c84 963f 57de 933f d005 913f
00000170: 272e ba3f 29e8 823f 7931 b63f 1eaf 903f
00000180: 73b9 9d3f 9605 8c3f cc02 b63f f39e 6d3f
00000190: f217 5a3f 1b07 693f fee0 843f c6b2 8b3f
000001a0: b4c5 b23f 8fcd 673f 399b 9b3f 7cbc 8f3f
000001b0: da33 a03f a65e 9c3f 8b7e 543f 4115 8c3f
000001c0: d17c 873f 415f 7b3f ce2f 973f 26c2 913f
000001d0: 6816 9b3f c982 8e3f 637b a63f 50d2 7e3f
000001e0: cc57 8d3f 9f79 8f3f 49da 9a3f ef35 ce3f
000001f0: 0360 913f abc1 9a3f 9880 a23f db5e a93f
1.1632975 1.28616 1.4375137 0.85432625 1.1144426 0.96934354 1.1390883 1.0248492
1.2245345 1.1543953 1.0877856 0.89699286 1.0900838 1.3026748 1.1996176 1.2363759
1.0735716 1.0600009 0.97176516 1.1178282 1.0960329 1.1483624 0.9333115 1.0220066
1.1859018 1.2802008 1.1494683 1.0239908 1.1671021 1.174714 1.1675434 1.0344875
0.98213226 1.0106236 1.1302682 1.1029966 0.9795285 1.4655735 1.0882893 1.0015743
0.8599626 1.124671 1.0813522 1.2776349 1.2258288 0.94148946 1.2977116 0.9386132
1.2386985 1.0075359 1.0158507 0.88522285 1.2218447 0.9764967 1.2223675 0.8997784
1.4059361 1.1416498 1.1303881 0.9948068 1.327296 1.089687 1.0993211 1.125696
1.0910841 1.270031 1.1609514 1.2228688 1.1855804 1.2220478 1.0691563 1.0911052
1.391065 1.0975494 1.3720591 1.1894155 1.2551763 0.9714951 0.9318455 1.1378738
1.167887 1.4931306 0.90838844 0.8436554 1.2744521 1.1867229 1.2394572 1.0401967
0.84504557 1.1759086 1.1552228 1.1329899 1.4545335 1.02271 1.4233848 1.1303442
1.232222 1.0939205 1.4219604 0.9282066 0.8519279 0.9102647 1.0381162 1.0913932
1.3966584 0.9054803 1.2156745 1.1229396 1.2515824 1.2216384 0.8300559 1.0943986
1.0584966 0.9819222 1.1811464 1.1387374 1.2116213 1.1133662 1.3006405 0.9953966
1.1042418 1.1208991 1.2097865 1.6110209 1.1357425 1.2090353 1.2695494 1.3232073

bn1.bias f4 [128]
00000000: cb9d 00bf 9aaf df3e 6e90 373d 1257 853e
00000010: 4588 003e e95f 9abe 243c 9f3e ab62 253e
00000020: 8ce4 013e d7b2 333e 1564 833e 3eb2 f1bd
00000030: 8a7a bf3e 2461 24bd eefb e23e 2c7b a53e
00000040: 8e20 953e 39d0 75bd cbbb 7e3e 0558 f33e
00000050: f58d eb3e e699 b1bd 211e 153c 896c 143e
00000060: ed5e e13d 50ae 42be 5bc2 4f3e ccbd 4b3e
00000070: a35f 623b 891d a63d 3e2a 9abe 2892 d33d
00000080: 9384 44be 09a4 483d e928 a53d ba8f 6bbe
00000090: b14e 5dbe b54f d5be 0e1c 713d 56eb a8bc
000000a0: 8841 febe 3cef 30be 57b7 0cbe ba93 cbbd
000000b0: 0524 f83e cb5f 45be 7e75 643e 1543 2abe
000000c0: 3399 babe 1d5e 26bf 95bc 23bd 8a2a fd3d
000000d0: 4f1b 41bd 92b2 2e3e 68e7 0dbf 99e2 90be
000000e0: 7e33 153d 714d e23e 4ad1 a63e fab9 1e3e
000000f0: 82ea a3bd fe9d ed3d 5667 fd3e ce6f c83d
00000100: 76a4 513e cf4e 713e 2618 043e 9544 e4bd
00000110: e26c 5d3e 5938 833c 8398 9c3d 5898 efbc
00000120: 341c a1be 7aef 3cbe 21dc 793d 6393 6ebc
00000130: 5210 6a3e 29a8 383e c251 633e c09c 22be
00000140: 7a46 673e 51cd fdbe e053 bb3d 24fe 93bc
00000150: a5dc 04be 1b1d c33b bee5 333e 5a7e 3f3e
00000160: 7b56 59be 20c6 543e 364f c73e 5be3 7fbe
00000170: d62a 6cbd 4d35 00be 3342 bdbe ab55 90be
00000180: 24ea 84bc 6747 823d e2a8 1e3e e0e3 343f
00000190: 899a 86be 9bc6 58be cede a23d 0186 a53e
000001a0: 66cd 34be fd89 973e 8c7d 9bbd 6e08 093f
000001b0: cf3c 413e 94c1 afbe 7e68 9a3e 35fd 023e
000001c0: d934 863e 45b9 913c 116e b13e 156e 90be
000001d0: 43a8 96be 3c4b b0bb 0bad 843f 1e8f 853d
000001e0: c5b2 77be 2da2 3abe 1540 e7bc 5ad0 83be
000001f0: d20d d0bd 3ab0 d2be 2bb9 f23d b75a 63be
-0.5024077 0.4368866 0.044815473 0.26042992 0.12551983 -0.301513 0.3110057 0.1615092
0.1268484 0.1754869 0.25662294 -0.11801575 0.37398177 -0.040131703 0.44332832 0.32320535
0.291264 -0.06001303 0.24876325 0.4752809 0.46006742 -0.08671932 0.009101422 0.14494528
0.11004434 -0.19011807 0.20288984 0.1989662 0.0034541867 0.08111102 -0.30110353 0.103306115
-0.19191198 0.04898456 0.080644436 -0.23004046 -0.2161205 -0.41662374 0.058864646 -0.02062003
-0.4965937 -0.1727876 -0.13741814 -0.09940286 0.4846498 -0.19274823 0.22310445 -0.16627152
-0.36445007 -0.64987355 -0.039974768 0.12361629 -0.047145184 0.17060307 -0.5543122 -0.2829788
0.03642606 0.44199708 0.3258155 0.15500632 -0.08003713 0.116024 0.49492902 0.0978695
0.20472893 0.2356522 0.12899837 -0.111458935 0.21623567 0.01601808 0.07646277 -0.029247448
-0.3146683 -0.18450728 0.061000947 -0.014561507 0.22857788 0.18032898 0.22199157 -0.15880108
0.22585478 -0.49570706 0.09146857 -0.01806552 -0.12974794 0.0059543974 0.17568108 0.18700543
-0.21224396 0.20778704 0.3892762 -0.24989073 -0.05765804 -0.12520333 -0.36964568 -0.2819036
-0.016224928 0.06361275 0.15494111 0.7066021 -0.26289776 -0.21169512 0.07952653 0.323288
-0.17656478 0.29597464 -0.075923055 0.5352849 0.18870853 -0.34327376 0.30157846 0.12791903
0.26212195 0.017788539 0.34654287 -0.28208986 -0.29425249 -0.0053800624 1.0365309 0.06521438
-0.24189289 -0.18225928 -0.028228799 -0.25744897 -0.10158886 -0.41150075 0.11851724 -0.22202574

bn1.running_mean f4 [128]
00000000: 8aed d03e 6260 7b3f a249 493f ee94 653e
00000010: 5ecc 803e 0969 8f3e d671 d73e f770 223f
00000020: 81f2 5e3f 1f3f 903e 4ad6 cb3d e354 8b3e
00000030: 6dff cd3e 1524 843f 5ce9 033f 5332 a13e
00000040: d953 883f 4462 613e 96b5 763f 7fbf 723e
00000050: 4ec0 a73f fad2 8e3e 696c a73e 8b25 643f
00000060: 9ec9 993e 1703 d53e 5e40 8e3f 2e58 1d3f
00000070: 1d04 5d3f 96ea da3e ce8f 153e 846a 903e
00000080: 47c1 a13f 3883 223f 474c 693f 708b 263f
00000090: 4dbb 9a3e 6737 193f 39d1 b13e e681 c23e
000000a0: 099a 2d3e ac96 883f 9f80 d03e 0f46 503f
000000b0: 5df6 de3d 8045 dc3e 49e5 193f 67fa 6e3e
000000c0: 1f9a 033f 716c f53e 0086 d03e a64b 9a3e
000000d0: d7ad b93e ef50 dc3e 171b 1b3e 4ae4 513e
000000e0: a9dc 1a3f b57d 983f 4511 713f aac9 063f
000000f0: 1019 b73f c6d0 5f3f 8ef3 ef3e b78d 093f
00000100: 9b50 f03e 6158 e23e 5701 513f 5b39 9a3f
00000110: e8b7 de3e 6aac 513f 1254 0f3f d457 873f
00000120: f55f 9d3e 79e8 ca3e d1bb 933e 223b fa3e
00000130: 3d14 cd3e 2c38 713e c196 2f3f bdf7 a93f
00000140: d175 9e3e 566e 103f e431 a33f 4c1f 1d3f
00000150: fe63 fe3f acb0 8a3e bc4b 523e 9e6e 463f
00000160: 13f9 dc3e f6a2 603e 031b 403e dc59 ae3e
00000170: a97c 873e 8b1d 5d3f 4152 8e3e 4439 913e
00000180: 2695 813e dd7e 5b3f ab4b 173f cc3d a73e
00000190: 7229 c23e 5132 c83e 7eed d63f 739d 0f3f
000001a0: dfc7 323f 5da9 4e3f 362f 0d3f 0443 0b3f
000001b0: 6913 bd3f ff45 e33e 2f22 1f3e eb13 ab3e
000001c0: 3134 123f 270d 913e 7e76 0e3f e3cf 9a3e
000001d0: 7ade 153e 67be 133f 369c 9c3f 016d 203f
000001e0: 4150 2a3f 3af0 6e3e 05c2 4e3f 21b5 a73e
000001f0: 4d97 da3e bbcb 133f 148e 9f3e fb75 ed3d
0.40806228 0.98193944 0.7862798 0.22420093 0.2515592 0.28009823 0.42079037 0.6345362
0.8708878 0.28173158 0.09952982 0.272132 0.40233937 1.0323511 0.51527953 0.31483707
1.0650588 0.22010142 0.9637083 0.23705862 1.3105562 0.27895337 0.32699898 0.89119786
0.30036634 0.4160392 1.1113393 0.61462677 0.863344 0.427571 0.14605638 0.28206265
1.2637109 0.63481474 0.91132015 0.65056515 0.30221024 0.5985016 0.34729937 0.3798973
0.16953291 1.0670981 0.4072313 0.813569 0.10886834 0.43021774 0.60115486 0.23337708
0.51407045 0.47934297 0.40727234 0.3013584 0.36265442 0.43030497 0.15147053 0.20497242
0.6049295 1.1913363 0.94166976 0.52651465 1.4304523 0.8742794 0.46865505 0.53731865
0.46936497 0.44208053 0.8164267 1.2048753 0.43499684 0.8190371 0.55987656 1.0573678
0.30737272 0.39630488 0.2885423 0.4887324 0.40054503 0.23556584 0.6858941 1.3278729
0.30949262 0.5641836 1.27496 0.6137588 1.9874265 0.27087915 0.20536703 0.7751254
0.4315878 0.21937165 0.18760304 0.34052932 0.26462296 0.86373204 0.2779713 0.28364003
0.25309104 0.85740453 0.59099835 0.32664335 0.37922245 0.39100888 1.6791227 0.56099623
0.6983623 0.8072718 0.55150163 0.5439913 1.4771549 0.4438934 0.15540384 0.33413634
0.5711089 0.28330347 0.55649555 0.3023673 0.1463565 0.57712406 1.2235172 0.62666327
0.6652871 0.23333827 0.807648 0.32755378 0.42693558 0.57732743 0.31163085 0.115947686

bn1.running_var f4 [128]
00000000: 3760 2d3f 4c32 293f e45e a33f 1bc8 c43e
00000010: 8a28 d33e 5319 043f 334f e83e f875 5e3f
00000020: 6be9 553f 779e c23e 4c87 293e 544f 4c3f
00000030: 42de 1c3f daa6 4e3f a9f1 553f 8230 c73e
00000040: adb9 fc3f e728 b03e c2b9 fc3f d19e e43e
00000050: eda3 f13f 5bbd e03e ea2a 263f 1da5 573f
00000060: 50ab 1a3f a19f 173f c0c6 f93f b983 a23f
00000070: 62fd c53f 8d01 0f3f 9535 183e 74d2 ad3e
00000080: ac90 d83f 72ce 873f 5ce6 e93f 409c 8e3f
00000090: e8dd cc3e f126 373f 30e2 253f 20b2 d23e
000000a0: cc0d aa3e 949a b43f f279 eb3e e7d1 7c3f
000000b0: 0c38 133e 17cf 383f 6a76 543f f967 d03e
000000c0: e5ea 3a3f 753f 0d3f fb17 013f afc3 df3e
000000d0: 7dff f03e 9bc0 303f 253a 4d3e 3461 a63e
000000e0: 9850 193f 160a 0140 054a 223f 9299 563f
000000f0: 815a ed3f 9654 153f 5e95 223f 4998 4e3f
00000100: f5e6 4b3f a38f 223f 47ed 9c3f 9a43 0540
00000110: ac00 0e3f c7ca 4c3f c902 673f 22bc f13f
00000120: 1644 b83e 003f 003f 1bd4 a43e c584 0c3f
00000130: edd9 033f e9f7 0d3f 6d46 903f 4892 2440
00000140: dfb1 e03e f313 1c3f 15e5 0540 6aa1 883f
00000150: 372f 293f 684e 893e 04ae 813e a047 b83f
00000160: f1a5 2c3f 109d 933e c0e6 903e 9e04 e93e
00000170: adb9 af3e bf00 d03f e5c7 9e3e 9355 143f
00000180: e82b 983e 4eda fb3f 785f 353f 2943 fa3e
00000190: 5e1a 143f 921a f63e 185b 803f 19f4 333f
000001a0: 5a73 2f3f 5af5 863f a9ff 123f 1289 893f
000001b0: b151 c53f 2788 533f 8003 923e 47fa 113f
000001c0: a468 2a3f 7fff fe3e 3815 4e3f 4000 ef3e
000001d0: 6c6b 5b3e fef8 653f e57e 403f 8f94 6c3f
000001e0: 0e6e 843f 8657 ba3e ef5c 953f 5e93 093f
000001f0: 9a97 c03e f2cd 613f d47d be3e 0d7d 253e
0.6772494 0.6609237 1.2763333 0.38433918 0.41241866 0.5160114 0.45372924 0.86898756
0.8355929 0.38011524 0.16555518 0.79808545 0.6127664 0.80723345 0.8357187 0.38904196
1.9744164 0.34406206 1.9744189 0.44652417 1.8878151 0.43894467 0.6490923 0.8423632
0.6041765 0.5922795 1.9513779 1.2696449 1.5467951 0.5586174 0.1486419 0.33949625
1.691915 1.0609877 1.8273425 1.1141434 0.4001305 0.71543795 0.6479826 0.41151524
0.3321365 1.4109674 0.45991474 0.98757786 0.14376849 0.72190994 0.82993186 0.40704325
0.7301467 0.5517495 0.50427216 0.43703982 0.47069922 0.6904389 0.20041712 0.32496035
0.598886 2.0162406 0.63394195 0.8382808 1.8543245 0.5833219 0.63509166 0.8070112
0.7964929 0.6350042 1.2259911 2.082251 0.55469775 0.79996914 0.90238625 1.8885539
0.35989445 0.5009613 0.32193074 0.5489009 0.51504403 0.55456406 1.1271492 2.5714283
0.43885705 0.6096794 2.092107 1.067426 0.6608767 0.26817632 0.25328076 1.4396858
0.67440706 0.28830767 0.28301048 0.45511335 0.34321347 1.6250228 0.31011882 0.57943076
0.29720998 1.9675996 0.708488 0.48879364 0.57852733 0.48067147 1.00278 0.7029434
0.6853539 1.0543625 0.57421356 1.0744956 1.5415555 0.82629627 0.28518295 0.5702252
0.6656592 0.49804303 0.8050113 0.46679878 0.21427697 0.89833057 0.75193626 0.9241418
1.0346086 0.363949 1.1668986 0.5374049 0.37615663 0.8820487 0.37205374 0.16160984
