udacity/Artificial Intelligence/Deep Reinforcement Learning/Continuous Control/checkpoint_critic.pth (torch, 92235 bytes, 9 tensors)

fc1.weight f4 [128, 33]
0	0x3d92d811	0.07170118
1	0x3cc3b893	0.023891723
2	0xbc3eb56c	-0.011639934
3	0xbe525ef9	-0.20544042
4	0xbf0549aa	-0.5206553
5	0xbe0e034c	-0.13868445
6	0x3dd67876	0.10472195
7	0x3c90eb4e	0.017690327
8	0x3b8bea25	0.0042698556
9	0x3b1d3743	0.0023989237
10	0x3c3196cc	0.010839175
11	0xbb911c2f	-0.0044284086
12	0xbbdc8b69	-0.006730486
13	0x3cb49484	0.022043474
14	0xbc5f4c71	-0.013629065
15	0x3cc2304a	0.023704667
16	0x3d9b1df0	0.075740695
17	0x3dd9b51e	0.106302485
18	0x3d05035a	0.0324739
19	0x3c856f76	0.0162885
20	0xba926cee	-0.001117138
21	0x3c16d2c8	0.009205528
22	0xbc076985	-0.008264904
23	0xbb1bce57	-0.0023774111
24	0xbcb0a81e	-0.02156454
25	0xbc2d76b0	-0.010587379
26	0xbdba5bd4	-0.09099546
27	0x3e8db6df	0.27678582
28	0xbdddae62	-0.108242765
29	0xbd34832e	-0.044070415
30	0xbf01918e	-0.50612724
31	0x3e1a034e	0.15040323
32	0xbfe2782f	-1.7692927
33	0xbda80fb1	-0.08206118
34	0xbd899bc3	-0.06719162
35	0xbe4f0136	-0.20215306
36	0xbef78c94	-0.4834944
37	0xbc820447	-0.01587118
38	0x3e23fcc3	0.1601439
39	0x3ddebb20	0.10875535
40	0x3b74053a	0.003723456
41	0x3e2ccebf	0.16875742
42	0x3eaf3953	0.34223422
43	0xbce8bf7c	-0.02841162
44	0xbd37f975	-0.044915635
45	0xbd4f57a7	-0.0506207
46	0x3e1dec7d	0.15422244
47	0x3e0081e9	0.12549557
48	0x3d8cc608	0.06873709
49	0xbe67512c	-0.22589558
50	0x3c4a910b	0.0123636825
51	0xbe598e29	-0.21245636
52	0xbe53edba	-0.20696154
53	0xbca1dc02	-0.019758228
54	0x3caba17f	0.02095103
55	0xbcd782ba	-0.026307452
56	0x3e20a585	0.1568814
57	0x3db99e7c	0.090634316
58	0xbdaddc68	-0.08489305
59	0xbe5af5ac	-0.21382779
60	0x3e98ef15	0.29869905
61	0xbdc49e41	-0.09600497
62	0xbdd32e22	-0.103115335
63	0xbe2b59f7	-0.16733538
64	0x3dc3b6ef	0.09556376
65	0x3f9bbd37	1.2167119
66	0xbe0d63cc	-0.138076
67	0x3edb2ba3	0.4280673
68	0xbdae0c97	-0.08498495
69	0x3ec346a7	0.3813984
70	0xbedd2455	-0.43191782
71	0xbebcba35	-0.36860815
72	0x3e26111f	0.16217469
73	0xbd54f7dd	-0.051994193
74	0x3ea3b4cc	0.31973875
75	0xbc1e0175	-0.009643902
76	0xbd323ef5	-0.04351707
77	0x3df06432	0.11737861
78	0xbe1865a1	-0.14882518
79	0x3e769091	0.24078585
80	0xbea30399	-0.31838682
81	0xbd7a9bf5	-0.06118389
82	0xbdbf9990	-0.093554616
83	0xbcdc7292	-0.0269101
84	0xbe8f54dc	-0.2799443
85	0xbd0ad37a	-0.033893086
86	0x3c5ed612	0.013600843
87	0xbd7f30a4	-0.062302247
88	0x3db76b16	0.08955972
89	0xbc9a7726	-0.018855643
90	0xbdd0756b	-0.10178646
91	0x3c212402	0.009835245
92	0xbb559484	-0.0032589743
93	0x3e98a656	0.29814404
94	0xbccaa5ae	-0.024737205
95	0xbde74482	-0.11292364
96	0xbe15a4ac	-0.14613599
97	0x3d153c8b	0.03643469
98	0xbf7ef84f	-0.9959764
99	0xbdfd5aa8	-0.12370807
100	0x3de3920d	0.11111841
101	0xbe4741c7	-0.19458686
102	0xbefc6bde	-0.49301046
103	0x3e89cc05	0.26913467
104	0x3e59bd0f	0.21263526
105	0x3dc1eccb	0.09468993
106	0xbd9dcfa6	-0.077056214
107	0x3df28f56	0.118437454
108	0xbb778cc2	-0.0037773107
109	0xbd692dfc	-0.05692862
110	0x3d0354d5	0.032063324
111	0xbd6762b6	-0.056490622
112	0xbb6b95a3	-0.0035947345
113	0xbda1ee51	-0.07906783
114	0x3d0a2112	0.033722945
115	0x3dea2f37	0.11434787
116	0x3dfb5a7f	0.1227312
117	0xbc958255	-0.018250624
118	0xbe891bf6	-0.26779145
119	0x3c238e05	0.009982591
120	0x3c339332	0.010960387
121	0xbc4e8226	-0.012604272
122	0xbc382611	-0.0112395445
123	0xbd0a2e03	-0.033735286
124	0x3d143902	0.03618718
125	0x3e36fc9d	0.17869802
126	0x3e310028	0.17285216
127	0x3d23d828	0.040001065
128	0xbd79705d	-0.060898174
129	0xbeb7dc39	-0.35910204
130	0xbd17abad	-0.037028957
131	0x3fd3d726	1.6550033
132	0xbe19c4c4	-0.15016466
133	0xbe38aa36	-0.1803368
134	0x3e1f224e	0.1554043
135	0xbe4e231e	-0.20130584
136	0xbf0c67d5	-0.54845935
137	0xbed118b8	-0.4083917
138	0x3c2c69d7	0.010523281
139	0x3d9cee01	0.07662583
140	0x3ef0ba5d	0.47017184
141	0xbc89f1d1	-0.01683894
142	0xbc89621b	-0.016770413
143	0x3eed5c8b	0.46359667
144	0x3e3af69d	0.18258138
145	0x3e1dfa62	0.15427545
146	0x3d8ae32f	0.06781613
147	0xbd0b8e15	-0.034071047
148	0xbea1e3c5	-0.31619087
149	0xbca98f15	-0.02069811
150	0x3ecb1157	0.39661667
151	0xbef95592	-0.48698097
152	0x3ebf8d55	0.37412515
153	0xbe52b324	-0.20576149
154	0xbe27de97	-0.16393505
155	0x3d88834d	0.06665669
156	0xbda2fb1d	-0.07958052
157	0x3b796cc7	0.003805922
158	0x3e0a9401	0.13533022
159	0xbe0c4582	-0.1369839
160	0x3ce4636f	0.027879445
161	0xbd0bff27	-0.03417888
162	0xbdb7eaef	-0.08980357
163	0xbe19e99e	-0.15030524
164	0x3e2af0a6	0.16693363
165	0xbefed179	-0.4976919
166	0xbe55d728	-0.20882857
167	0xbe05c416	-0.13063082
168	0xbed793c6	-0.4210493
169	0xbe9a8eef	-0.30187175
170	0xbe81dcbc	-0.2536372
171	0x3d8bc222	0.06824137
172	0xbe35d0fc	-0.17755502
173	0x3e410a30	0.18851542
174	0xbe897f8e	-0.2685513
175	0xb8db04b2	-0.00010443608
176	0xbd289398	-0.04115638
177	0x3de83883	0.11338904
178	0x3d988b17	0.07448404
179	0x3da68956	0.081316635
180	0x3e3b660b	0.18300645
181	0xbc4e62de	-0.012596814
182	0x3d78fbbc	0.060786948
183	0x3e66b3c9	0.2252952
184	0xbb815333	-0.0039466857
185	0xbd4d62c3	-0.050143015
186	0x3d590882	0.05298663
187	0xbd816551	-0.06318153
188	0x3c81dd3f	0.015852569
189	0xbe3651ec	-0.17804688
190	0x3d68ff11	0.056883875
191	0x3ea94bb5	0.33065572
192	0xbe5ceca6	-0.21574649
193	0x3cd002a6	0.025391888
194	0xbdfb511a	-0.12271328
195	0xbb3bf44c	-0.0028679548
196	0xbdcfbdaf	-0.10143601
197	0x3e9a587d	0.30145636
198	0x3e478b20	0.19486666
199	0xbe455a57	-0.19272743
200	0x3e3b3608	0.1828233
201	0x3e8f953a	0.28043538
202	0xbe965a69	-0.29365852
203	0xbc812a78	-0.015767321
204	0x3ec9642a	0.39334232
205	0x3daa3687	0.083111815
206	0xbe1df592	-0.15425709
207	0xbe83f593	-0.25773296
208	0xbd85a8c2	-0.065263286
209	0x3da426e0	0.08015227
210	0xbc89fb62	-0.016843501
211	0xbde05fc6	-0.10955767
212	0x3ce12f15	0.02748827
213	0xbc460330	-0.012085721
214	0x3f3a7da7	0.7284798
215	0xbe3db59a	-0.18526307
216	0xbf853758	-1.0407515
217	0x3da76517	0.08173578
218	0x3d385505	0.045002956
219	0x3e096ab1	0.13419606
220	0xbda779ef	-0.08177554
221	0xbbbc6995	-0.005749891
222	0xbdc99e9e	-0.09844707
223	0x3bace020	0.005275741
224	0xbdaec675	-0.085339464
225	0x3e50efbb	0.2040395
226	0xbe26c0ff	-0.1628456
227	0xbd4a66c8	-0.049414426
228	0xbe347063	-0.17620997
229	0xbcd32ddd	-0.025778705
230	0x3f2b1278	0.66825056
231	0x3b778d5f	0.0037773473
232	0xbe88138c	-0.26577413
233	0x3df82b35	0.12117616
234	0x3eba3dc7	0.36375257
235	0xbdf15269	-0.117832966
236	0xbe803d5d	-0.25046816
237	0xbd698f8f	-0.057021674
238	0x3caff6f0	0.021480054
239	0xbd2e53cc	-0.042560384
240	0xbdf51265	-0.11966399
241	0xbd254cf3	-0.040356588
242	0x3d489224	0.048967496
243	0xbe1e658b	-0.15468423
244	0xbe91a296	-0.28444356
245	0x3ea8ba72	0.32954746
246	0xbdec3a50	-0.1153456
247	0xbd8f8e05	-0.0700951
248	0x3e96eb5d	0.29476443
249	0x3e6a6c1b	0.22892801
250	0xbdb3ebbd	-0.08785198
251	0xbd19b422	-0.037525304
252	0x3d8acc49	0.067772456
253	0xbb59740f	-0.0033180749
254	0x3d1752e2	0.036944278
255	0x3d4e393b	0.050347548

fc1.bias f4 [128]
0	0xbeb914da	-0.3614872
1	0xbda6ca80	-0.081440926
2	0xbd8914cf	-0.06693422
3	0xbd8850d9	-0.066560455
4	0xbcf14763	-0.029452985
5	0x3e07fac8	0.13279259
6	0xbe688f53	-0.22710924
7	0x3bf4a146	0.0074655144
8	0xbc09ebbe	-0.008418022
9	0x3e62c7ef	0.22146581
10	0x3dd22cd0	0.102624536
11	0xbea00e77	-0.31261036
12	0xbe04562a	-0.12923494
13	0x3e3f5abb	0.18686955
14	0x3e0b6152	0.13611344
15	0x3c6f8641	0.014619411
16	0xbde2ac98	-0.11068076
17	0xbdc52ad9	-0.09627313
18	0xbce896a5	-0.028392145
19	0x3e26f528	0.16304457
20	0xbc8f3bbf	-0.017484544
21	0xbcc61900	-0.024181843
22	0xbd357db7	-0.044309344
23	0xbe72f144	-0.23724848
24	0xbe729ca2	-0.23692563
25	0xbd93e210	-0.072208524
26	0x3e8322f2	0.256126
27	0x3e7acb1b	0.24491541
28	0xbe97154b	-0.29508433
29	0xbe10f5e0	-0.14156294
30	0xbe9d22e3	-0.3069068
31	0xbdb85727	-0.09000998
32	0xbd5f5823	-0.054527413
33	0x3d25c68e	0.04047256
34	0xbd96a70d	-0.07356081
35	0x3d74d01d	0.059768785
36	0xbf20c465	-0.62799674
37	0xbe17a09a	-0.14807358
38	0xbe0e4cd6	-0.13896498
39	0xbe06d79f	-0.1316819
40	0xbd615b04	-0.05501844
41	0x3cc3051a	0.023806144
42	0xbe86e13d	-0.26343718
43	0xbc55f5ad	-0.013059062
44	0xbe671d76	-0.22569832
45	0xbe93d5a4	-0.28873932
46	0xbebb929d	-0.36635295
47	0xbe3e41d6	-0.18579802
48	0xbe0a3bc9	-0.13499369
49	0x3db93572	0.09043397
50	0xbea77fe5	-0.32714763
51	0xbd9b7062	-0.07589795
52	0xbe9fcc9c	-0.31210792
53	0xbc1b2930	-0.009470269
54	0xbe891aa0	-0.26778126
55	0x3dffbf97	0.12487715
56	0xbd8fa766	-0.070143506
57	0x3eca4d12	0.39511925
58	0xbec72034	-0.38891757
59	0xbeaab193	-0.33338603
60	0x3e142c50	0.14470029
61	0xbd0aaf65	-0.033858676
62	0xbddbbecc	-0.10729751
63	0x3e349835	0.17636187
64	0x3dfe6763	0.12422063
65	0x3e0d1c26	0.13780269
66	0x3d00a79b	0.03140984
67	0xbea08538	-0.31351638
68	0xbe97ef3d	-0.29674712
69	0xbe98263b	-0.29716668
70	0x3e373723	0.17892127
71	0xbc60c969	-0.013719895
72	0xbdccae64	-0.099942
73	0x3e82b4af	0.25528476
74	0x3d93f733	0.07224884
75	0xbe7b2f3e	-0.2452974
76	0xbdf19c30	-0.117973685
77	0xbd4987db	-0.049201827
78	0xbe676b62	-0.22599557
79	0x3d0f1627	0.034933235
80	0xbd97b80e	-0.074081525
81	0xbe94ac47	-0.29037687
82	0x3d534612	0.051580496
83	0xbe08cd0e	-0.13359472
84	0xbc4210b3	-0.011844802
85	0xbdccacd9	-0.099939056
86	0xbd6eefe7	-0.058334257
87	0x3c82d9fc	0.015973084
88	0xbd90aee1	-0.070646055
89	0xbe985154	-0.29749548
90	0x3e03785e	0.12838885
91	0xbe4c9e1f	-0.19982193
92	0xbd303c9e	-0.04302656
93	0xbd28b9a0	-0.04119265
94	0xbe8e39a3	-0.27778348
95	0x3d08a4be	0.033360235
96	0x3e4df304	0.20112234
97	0x3dc26776	0.0949239
98	0x3e566449	0.20936693
99	0x3def1b90	0.11675179
100	0xbcc2bbf7	-0.02377127
101	0x3ed214ee	0.41031593
102	0xbde50dfb	-0.11184307
103	0xbe1b19a8	-0.15146506
104	0xbe399158	-0.1812185
105	0xbe6671e6	-0.22504386
106	0x3ec61139	0.38685015
107	0xbdfeab2a	-0.12434991
108	0xbea9bdd5	-0.33152643
109	0xbe7aa080	-0.24475288
110	0xbe9bf63a	-0.30461293
111	0xbd314ffd	-0.043289173
112	0x3d62a06e	0.05532878
113	0xbd83d833	-0.06437721
114	0xbe2d2c64	-0.16911465
115	0xbee46d59	-0.44614676
116	0x3c0c85a7	0.008576787
117	0x3dd2c3a2	0.1029122
118	0xbe3710f1	-0.17877556
119	0xbe52032d	-0.20509024
120	0xbeb2d512	-0.34928185
121	0xbe3d805b	-0.18505995
122	0x3e5856fe	0.21126935
123	0xbe0fc653	-0.14040498
124	0xbf075f9f	-0.5288028
125	0x3c6e53a7	0.014546311
126	0xbe5ac6b5	-0.21364863
127	0x3e03dbec	0.12876862

fc2.weight f4 [128, 132]
0	0xbcf200c0	-0.029541373
1	0xbd5249e4	-0.05134
2	0x3cb6bc75	0.02230666
3	0xbe97032a	-0.294946
4	0x3c538b00	0.012911558
5	0xbdbc853e	-0.092051014
6	0x3bff1003	0.007783891
7	0x3ce880c1	0.028381707
8	0x3de8f17c	0.113741845
9	0x3daae37f	0.08344173
10	0xbc726005	-0.014793401
11	0x3de0d351	0.109778054
12	0xbd8bf9a6	-0.06834726
13	0xbd118adc	-0.035532817
14	0x3dd69b5b	0.104788505
15	0xbe5bc91a	-0.21463433
16	0xbeb5076e	-0.3535723
17	0x3cb5761e	0.02215105
18	0xbc9e6b42	-0.019338254
19	0xbafa9364	-0.0019117412
20	0x3e022a12	0.12711361
21	0x3bdb1c8a	0.0066867517
22	0x3d06c646	0.032903932
23	0xbd3f3e5b	-0.046690326
24	0x3b829041	0.0039844816
25	0xbcaf0d21	-0.021368565
26	0xbd0aa591	-0.033849303
27	0x3cf7b1b4	0.030236103
28	0x3dd76d13	0.10518851
29	0xbe803088	-0.25037026
30	0x3da1fd5f	0.07909655
31	0xbde431fe	-0.11142348
32	0xbda5207d	-0.08062837
33	0xbdffb331	-0.1248535
34	0xbdd5d619	-0.104412265
35	0xbe550c41	-0.20805456
36	0xbd439135	-0.047745902
37	0xbef18860	-0.47174358
38	0x3d13c5df	0.036077376
39	0x3e525a02	0.20542148
40	0x3e38338f	0.17988418
41	0xbdc2a399	-0.0950386
42	0xbda640dd	-0.081178404
43	0xbe28f7a6	-0.1650072
44	0xbe2b1cf7	-0.16710268
45	0x3bfa0b8a	0.00763077
46	0x3d063b06	0.032771133
47	0x3b18a114	0.002328937
48	0xbe5ceaad	-0.21573897
49	0x3d4b4359	0.049624775
50	0xbe795b65	-0.2435127
51	0x3d8ef69d	0.069806315
52	0x3e280d78	0.16411388
53	0x3c638f40	0.013889134
54	0x3d66e668	0.056372076
55	0xbe0c71f1	-0.1371534
56	0xbdc61f72	-0.096739665
57	0xbe091779	-0.1338786
58	0x3dd56ada	0.10420771
59	0x3d4176e4	0.047232524
60	0xbd9386bd	-0.07203434
61	0xbb5467b2	-0.003241044
62	0x3dd1c84e	0.10243283
63	0x3c05fee4	0.008178446
64	0xbdc1133a	-0.09427495
65	0xbdd1b029	-0.10238678
66	0x3d69ada7	0.057050373
67	0x3e0b3752	0.13595322
68	0xbdd14d6b	-0.102198444
69	0xbe27d2e3	-0.1638904
70	0xbd056920	-0.03257096
71	0xbde62611	-0.11237729
72	0xbe33f283	-0.1757298
73	0xbe41e926	-0.18936595
74	0xbd1da1d7	-0.03848442
75	0xbe6a38a4	-0.22873169
76	0xbda8265c	-0.082104415
77	0x3e0d0e47	0.13774978
78	0xbdbbf543	-0.09177639
79	0x3db04966	0.0860775
80	0x3dbd895e	0.09254716
81	0xbe1fd7e1	-0.15609695
82	0x3df282c2	0.11841346
83	0xbd5ddc36	-0.054165088
84	0x3e10db1b	0.14146082
85	0x3e4f7561	0.2025962
86	0xbe2527e3	-0.16128497
87	0x3e2f122e	0.17096779
88	0xbe25305e	-0.16131732
89	0xbbce0769	-0.0062875045
90	0xbe00c84f	-0.12576412
91	0xbdda7d35	-0.106684126
92	0x3e49d3e2	0.19709733
93	0xbdd9e188	-0.1063872
94	0xbf135128	-0.5754571
95	0xbd616ec5	-0.05503728
96	0x3e766c92	0.24064854
97	0xbd92718a	-0.07150562
98	0x3c206f6b	0.009792189
99	0xbe836a39	-0.2566698
100	0x3d6c09de	0.057626598
101	0xbe554eca	-0.20830837
102	0x3e3a9b4a	0.182233
103	0xbc74cb1d	-0.014941004
104	0x3e157392	0.14594868
105	0xbe3a69a6	-0.18204364
106	0xbd58dcfa	-0.052945115
107	0xbe3b09d3	-0.18265466
108	0xbe3bab73	-0.18327121
109	0xbd89c962	-0.06727864
110	0x3d82b508	0.06382185
111	0x3db2ef8a	0.08737095
112	0xbdf7a6ea	-0.12092383
113	0x3ddf4ffc	0.10903928
114	0xbe43a32a	-0.19105211
115	0xbe44a4a0	-0.19203424
116	0x3e56b0ac	0.20965832
117	0x3d940573	0.07227602
118	0x3d69b392	0.057056017
119	0xbd886eee	-0.06661783
120	0x3e42298f	0.18961166
121	0xbddf4feb	-0.10903915
122	0x3c3df7f4	0.011594761
123	0x3d8edb2b	0.06975397
124	0x3e21fe58	0.1581968
125	0xbe62baed	-0.22141619
126	0x3e198ac7	0.14994346
127	0xbd86196d	-0.06547818
128	0x3c0b258e	0.00849284
129	0x3c11dcfd	0.008902785
130	0xbd35465b	-0.04425655
131	0x3c075204	0.0082593
132	0x3d9a671e	0.07539199
133	0x3db75988	0.089526236
134	0xbc0d1e9c	-0.008613255
135	0x3e18fb6a	0.14939657
136	0xbc701a3a	-0.01465469
137	0xbcc43f44	-0.023955949
138	0x3ea05a6c	0.31318986
139	0x3e8293ad	0.25503293
140	0xbe3873b8	-0.18012893
141	0xbcbb608e	-0.02287319
142	0xbe87a4df	-0.26492974
143	0xbdea2bed	-0.114341594
144	0x3e307da0	0.17235422
145	0xbd7589a2	-0.05994571
146	0x3d67f89a	0.05663357
147	0x3e173fc1	0.14770414
148	0xbdc9a637	-0.09846156
149	0xbd060be7	-0.032726195
150	0xbd0f4ecc	-0.034987256
151	0x3cc7cbee	0.024389233
152	0x3e904f0e	0.28185314
153	0xbd13c571	-0.036076967
154	0x3ed629ae	0.41828674
155	0xbe9b4663	-0.30327138
156	0x3dedafb5	0.11605779
157	0xbe5fceff	-0.21856306
158	0xbc8beecc	-0.01708164
159	0x3e062f13	0.13103895
160	0xbe15e53e	-0.1463823
161	0x3e1bffe6	0.15234336
162	0x3d9652c9	0.07340009
163	0xbe6249ce	-0.22098467
164	0xbe0c89f2	-0.13724497
165	0xbcb6138b	-0.022226116
166	0x3e22fcb6	0.15916714
167	0x3e010b89	0.12602057
168	0xbd5fc819	-0.054634187
169	0xbdc519b6	-0.096240446
170	0xbdfc008e	-0.12304793
171	0x3d649e6e	0.055815153
172	0xbd5cef29	-0.05393902
173	0xbe0d6516	-0.13808092
174	0xbd3f0757	-0.04663786
175	0xbdaca186	-0.08429246
176	0x3c93846d	0.018007481
177	0x3d19c380	0.03753996
178	0x3dad51b9	0.08462853
179	0x3be8fa50	0.0071099177
180	0x3cf10aba	0.02942406
181	0x3c7bcfd1	0.0153693715
182	0xbe22c39e	-0.15894935
183	0x3bb484be	0.005508988
184	0x3cd75efa	0.026290406
185	0xbd725bb4	-0.059169486
186	0xbd4e06fd	-0.050299633
187	0x3e27167b	0.1631717
188	0xbd264a61	-0.040598277
189	0x3dcf9791	0.10136331
190	0xbe0c9221	-0.13727619
191	0x3bd66a3f	0.0065434272
192	0x3cb70d33	0.022345161
193	0xbdacc932	-0.084368125
194	0x3d3b0b65	0.045665164
195	0xbe99fb3f	-0.30074498
196	0x3e6d878a	0.23196235
197	0xbdaf2b3f	-0.085531704
198	0xbdff02c7	-0.124517016
199	0x3e02c15b	0.12769072
200	0xbcde8a85	-0.02716566
201	0xbde80796	-0.11329572
202	0xbde585b4	-0.112071425
203	0xbe86c407	-0.26321432
204	0xbda2f175	-0.079562105
205	0xbe3fad31	-0.18718411
206	0x3de2c3df	0.11072516
207	0x3df30ec6	0.11868052
208	0xbcd4546b	-0.02591916
209	0xbd206562	-0.039159186
210	0x3e15845a	0.1460127
211	0xbd9f18e5	-0.0776842
212	0x3e067a85	0.13132675
213	0xbe2de743	-0.1698275
214	0xbeac5f12	-0.33666283
215	0x3dc07974	0.09398165
216	0xbdaf021c	-0.08545324
217	0x3e1e0816	0.15432772
218	0xbb2d0527	-0.0026400776
219	0x3e1dc990	0.15408921
220	0xbd97b3f6	-0.07407372
221	0x3d823832	0.06358375
222	0xbbb9f568	-0.0056750067
223	0xbedc2715	-0.42998567
224	0xbc9c871c	-0.019107394
225	0xbc51b144	-0.012798611
226	0x3d297a1a	0.04137621
227	0xbd269d8e	-0.0406776
228	0x3bcd6828	0.00626852
229	0xbd9efbb7	-0.077628545
230	0x3da4f4da	0.08054514
231	0x3d8102db	0.06299373
232	0x3d26579e	0.040610902
233	0xbdf8fb7e	-0.12157343
234	0xbde4dcb2	-0.11174907
235	0x3df4b258	0.11948079
236	0x3d4d730b	0.05015854
237	0x3bd425ec	0.006474247
238	0x3e22bdc0	0.15892696
239	0x3d1c7797	0.038199987
240	0x3d2b98e5	0.04189386
241	0xbe8c8f76	-0.27453202
242	0xbd7b0b27	-0.061289933
243	0xbed3a516	-0.41336888
244	0xbdafd0f3	-0.08584776
245	0xbea38df9	-0.31944254
246	0xbd2796f8	-0.04091546
247	0xbdf3c02b	-0.119018875
248	0x3d7f5e5b	0.062345844
249	0x3d4b9b9f	0.04970896
250	0xbdde1ac4	-0.10844949
251	0xbe2dc134	-0.16968232
252	0x3e870ba7	0.26376078
253	0x3e096eaa	0.13421121
254	0xbc4e0214	-0.012573738
255	0xbe11da7d	-0.14243503

fc2.bias f4 [128]
0	0x3d95a35f	0.07306551
1	0xbee4fd98	-0.44724727
2	0xbc4d3104	-0.012523893
3	0x3e2b001b	0.16699259
4	0x3ddd947b	0.10819336
5	0x3e7aeeb8	0.24505126
6	0xbeacd03c	-0.3375262
7	0xbf08cad0	-0.5343447
8	0x3e355420	0.17707872
9	0x3e9ba979	0.30402735
10	0xbed8cc7a	-0.42343503
11	0xbe77604e	-0.24157831
12	0xbeed1d6b	-0.46311507
13	0xbeca4743	-0.39507493
14	0xbeaf2f6f	-0.34215876
15	0xbf07920a	-0.5295721
16	0xbf02d5d6	-0.5110754
17	0x3deda7e9	0.11604292
18	0xbed3d180	-0.41370773
19	0xbf003460	-0.5007992
20	0xbf0231e9	-0.50857407
21	0x3ca23eea	0.01980539
22	0xbf015d69	-0.5053316
23	0xbee31b31	-0.44356683
24	0x3de28722	0.11060931
25	0xbeb4f60f	-0.35343978
26	0xbef8d2cb	-0.48598322
27	0xbecd4961	-0.40095046
28	0x3e8b5334	0.27211916
29	0x3deab1de	0.11459707
30	0xbed9f312	-0.4256826
31	0xbe960cb5	-0.2930657
32	0x3d8e92e3	0.0696161
33	0xbdd596bb	-0.1042914
34	0xbeedc6dd	-0.46440783
35	0x3cc72807	0.024311079
36	0x3ebaa0c8	0.3645079
37	0xbf007869	-0.5018373
38	0xbea35377	-0.31899616
39	0x3e8a6329	0.27028778
40	0x3d2fbf60	0.04290712
41	0x3e5a0877	0.21292292
42	0xbecf440c	-0.40481603
43	0x3ecd3f39	0.40087298
44	0xbf149cbe	-0.5805167
45	0x3e79b6e4	0.24386173
46	0xbf051725	-0.5198844
47	0x3ed30c14	0.41220152
48	0x3e38dbf1	0.18052651
49	0xbedcdb02	-0.4313584
50	0x3eae4b56	0.34041852
51	0xbf06799b	-0.52529305
52	0xbf095502	-0.53645337
53	0xbf061446	-0.52374685
54	0x3e425497	0.18977581
55	0x3efb8705	0.4912645
56	0x3e07b24e	0.13251612
57	0x3e070f66	0.13189468
58	0xbe9d1958	-0.30683398
59	0xbeb67f27	-0.35643885
60	0xbf02e349	-0.5112806
61	0x3ef0e90f	0.4705281
62	0xbefb4c79	-0.49081782
63	0xbeeeb35d	-0.46621218
64	0x3f070896	0.52747476
65	0xbeb1d594	-0.3473326
66	0xbf02b978	-0.5106425
67	0x3dd9b19a	0.10629578
68	0x3df5054a	0.119638994
69	0xbea8e515	-0.32987276
70	0x3ebf57f2	0.37371784
71	0xbeff91b0	-0.49915838
72	0xbf0a197d	-0.5394514
73	0x3ea37e04	0.3193208
74	0xbefc2840	-0.49249458
75	0x3ba9ce0f	0.005182035
76	0xbea222c6	-0.31667155
77	0x3d0ab57d	0.033864487
78	0xbef1b0a3	-0.47205076
79	0xbf010e07	-0.5041203
80	0x3da29b40	0.07939768
81	0xbee651d4	-0.44984305
82	0x3edee2de	0.4353246
83	0xbf151085	-0.5822833
84	0x3eab9ae4	0.3351661
85	0xbf0b71f5	-0.5447076
86	0x3d80c511	0.062875874
87	0x3db1145b	0.086464606
88	0x3e18581e	0.14877364
89	0xbec4ce64	-0.38438714
90	0x3db96e4d	0.09054241
91	0xbeea5e50	-0.4577508
92	0xbe4829c5	-0.19547184
93	0x3ea87566	0.32902068
94	0xbf03ec8f	-0.51532835
95	0xbf01e89d	-0.50745565
96	0x3e1c6c09	0.15275587
97	0xbee83ab0	-0.45357275
98	0x3e0c7b19	0.13718833
99	0xbebf58e8	-0.37372518
100	0x3dfd6c7b	0.12374207
101	0xbf020cd4	-0.50800824
102	0xbf01b266	-0.5066284
103	0xbef408e2	-0.47663027
104	0x3db08bdc	0.08620426
105	0x3e99e3ff	0.3005676
106	0x3e4ea312	0.20179394
107	0xbc9fb28a	-0.019494314
108	0x3dbdf3c0	0.09275007
109	0xbf16113c	-0.5862005
110	0xbef0b28a	-0.47011214
111	0xbee1ca50	-0.44099665
112	0x3e10bd13	0.14134626
113	0xbec81c38	-0.3908403
114	0x3e420adb	0.18949454
115	0xbf0fcd11	-0.5617228
116	0xbea7ddf6	-0.3278653
117	0x3dc4989b	0.0959942
118	0xbebec863	-0.37262258
119	0xbee65080	-0.44983292
120	0xbede241f	-0.43386933
121	0x3dd93cf9	0.10607333
122	0x3e00052e	0.12501976
123	0x3e7f8960	0.24954748
124	0x3ea6e55e	0.32596868
125	0xbed8cbf7	-0.42343113
126	0xbeb84f01	-0.35997775
127	0xbeb7541f	-0.35806367

fc3.weight f4 [1, 128]
0	0x3d87c91f	0.06630158
1	0xbd924ac6	-0.07143168
2	0x3d1825a6	0.03714528
3	0x3d3c4dd7	0.04597267
4	0x3d4de6d1	0.05026895
5	0x3d680a3b	0.05665038
6	0xbd1358c9	-0.035973344
7	0xbdd8508f	-0.1056224
8	0x3dacbac8	0.08434063
9	0x3d6276de	0.05528914
10	0xbd2aa0fc	-0.041657433
11	0xbdb73116	-0.08944909
12	0xbd499b25	-0.049220223
13	0xbd96bb92	-0.07359995
14	0xbd81154c	-0.0630289
15	0xbdc1bcfc	-0.09459874
16	0xbd779481	-0.06044436
17	0x3d8b952a	0.0681556
18	0xbd4b631a	-0.049655057
19	0xbd8696da	-0.065717414
20	0xbdac3a53	-0.08409562
21	0x3d5150b3	0.05110235
22	0xbd748a83	-0.059702408
23	0xbd88a905	-0.06672863
24	0x3d4b1eb1	0.049589816
25	0xbd927be6	-0.07152538
26	0xbdc4b7be	-0.096053585
27	0xbd0d940d	-0.03456502
28	0x3d2b6802	0.041847236
29	0x3d374b0d	0.04474931
30	0xbd7295a9	-0.05922476
31	0xbd86541f	-0.065590136
32	0x3cf53418	0.029932067
33	0x3d6562ee	0.05600255
34	0xbe2417f1	-0.16024758
35	0x3d446b37	0.04795381
36	0x3d727ddd	0.059202064
37	0xbd90e860	-0.07075572
38	0xbde026ff	-0.10944938
39	0x3d1a3413	0.037647318
40	0x3d843cdb	0.0645692
41	0x3d29446d	0.04132502
42	0xbd30e93f	-0.04319119
43	0x3d8f24e2	0.06989457
44	0xbd8cb54e	-0.068705186
45	0x3d8c22e6	0.06842594
46	0xbd7b0a00	-0.061288834
47	0x3d83c6b4	0.06434384
48	0x3d453be1	0.048152808
49	0xbe008db4	-0.12554055
50	0x3d0af10b	0.033921283
51	0xbda64c90	-0.08120072
52	0xbd84f651	-0.064922936
53	0xbd97dce7	-0.07415181
54	0x3d82cc74	0.063866526
55	0x3d955915	0.07292382
56	0x3d19061a	0.037359335
57	0x3d2a5eae	0.0415942
58	0xbd61fbd2	-0.055171795
59	0xbdb1d752	-0.08683647
60	0xbd284297	-0.04107913
61	0x3da1f518	0.07908076
62	0xbdd841f6	-0.10559456
63	0xbd80e84c	-0.06294307
64	0x3da2c58d	0.07947836
65	0xbd41eed7	-0.047346916
66	0xbdc4fc03	-0.0961838
67	0x3cfda273	0.03096125
68	0x3d9a2607	0.075267844
69	0xbd2eb814	-0.04265602
70	0x3d83446a	0.06409533
71	0xbd9fdb8f	-0.07805549
72	0xbd88726f	-0.066624515
73	0x3d4c14bc	0.04982446
74	0xbd42922b	-0.047502678
75	0x3d987833	0.07444801
76	0xbd22aa53	-0.039713215
77	0x3d641c87	0.05569127
78	0xbd40a588	-0.047032863
79	0xbdcc7044	-0.099823505
80	0x3d127170	0.035752714
81	0xbd94c96d	-0.072649814
82	0x3dbdbe6c	0.09264836
83	0xbdce561e	-0.10075019
84	0x3dc36e26	0.095424935
85	0xbdb11d85	-0.086482085
86	0x3d8c15bc	0.06840083
87	0x3d3df15d	0.04637276
88	0x3d4c94e1	0.04994667
89	0xbda80bbf	-0.082053654
90	0x3d5cedd6	0.053937756
91	0xbd23c55f	-0.03998315
92	0x3d8b6dc8	0.068080485
93	0x3d84a582	0.064768806
94	0xbdc5a57f	-0.096507065
95	0xbd94f654	-0.07273546
96	0x3d7bdfdc	0.061492786
97	0xbd778f3b	-0.06043933
98	0x3d015396	0.031573854
99	0xbd8b725b	-0.06808921
100	0x3da745f4	0.081676394
101	0xbd17db6b	-0.037074488
102	0xbd804ee9	-0.06265051
103	0xbd65b4e7	-0.056080725
104	0x3d73a3c7	0.059482362
105	0x3d1b6c1b	0.037944894
106	0x3d3d777a	0.04625652
107	0x3d867ee3	0.065671705
108	0x3d98918d	0.074496366
109	0xbd694882	-0.056953914
110	0xbd4172d3	-0.047228646
111	0xbd733a4f	-0.05938178
112	0x3d0c67a8	0.03427854
113	0xbdcff1d7	-0.10153549
114	0x3d5da2f7	0.054110494
115	0xbd718baf	-0.058971103
116	0xbd839a10	-0.064258695
117	0x3d4454b6	0.04793235
118	0xbd3b0c07	-0.045665767
119	0xbd390b9e	-0.045177095
120	0xbd0e5af8	-0.034754723
121	0x3d468e62	0.04847563
122	0x3d184db9	0.037183497
123	0x3d8a89ec	0.06764588
124	0x3d6aa7d1	0.05728895
125	0xbd1a3b91	-0.037654463
126	0xbd964822	-0.07337977
127	0xbd4f4607	-0.050603893

bn1.weight f4 [128]
0	0x3f6486d7	0.8926825
1	0x3f3b030a	0.7305151
2	0x3f2ed3fc	0.6829221
3	0x3f4bca0e	0.79605186
4	0x3ef9991a	0.4874962
5	0x3f194c79	0.59882313
6	0x3f1dd1f7	0.61648506
7	0x3f2fede8	0.6872239
8	0x3f9fe772	1.2492507
9	0x3f5c69f4	0.8609917
10	0x3f05edf3	0.52316207
11	0x3eb35d65	0.35032192
12	0x3f194849	0.59875923
13	0x3f02fd0b	0.5116736
14	0x3f15819e	0.58400905
15	0x3f6fdceb	0.9369647
16	0x3ef71f9c	0.48266304
17	0x3f1c475f	0.61046404
18	0x3f01baf3	0.50675887
19	0x3f173306	0.5906223
20	0x3f0eea2e	0.5582608
21	0x3f2f5724	0.6849234
22	0x3f1580b5	0.58399516
23	0x3f0f921a	0.5608231
24	0x3ef43594	0.47697127
25	0x3f30eca2	0.69111073
26	0x3f4ba742	0.7955209
27	0x3f105446	0.5637859
28	0x3ef651f2	0.48109394
29	0x3f413e5c	0.7548578
30	0x3f85af80	1.0444183
31	0x3f7711f7	0.9651179
32	0x3f233e8a	0.637673
33	0x3f5e252d	0.86775476
34	0x3f21eff1	0.63256747
35	0x3f7c9ce2	0.98676884
36	0x3f4b9502	0.7952424
37	0x3f87861d	1.0587803
38	0x3f237826	0.63855207
39	0x3f579861	0.84216887
40	0x3f308ac0	0.68961716
41	0x3f3ba358	0.7329612
42	0x3f6ed4de	0.9329356
43	0x3f0d2da6	0.5514778
44	0x3ed13ab8	0.4086511
45	0x3f1b26bf	0.60605997
46	0x3f31e7ce	0.6949433
47	0x3fa73b1c	1.3064914
48	0x3f177b82	0.5917283
49	0x3f2d6a29	0.6774011
50	0x3f6645e3	0.8995039
51	0x3f145751	0.57945734
52	0x3f0fc332	0.5615722
53	0x3f28e969	0.65981156
54	0x3f11c96f	0.5694799
55	0x3f1983bc	0.59966636
56	0x3f048e31	0.51779467
57	0x3f3def5e	0.7419337
58	0x3edae490	0.42752504
59	0x3f3c365a	0.73520434
60	0x3f1a53f5	0.6028436
61	0x3f5d5448	0.8645673
62	0x3f4f90f2	0.81080544
63	0x3f190130	0.59767437
64	0x3f3ce506	0.7378696
65	0x3f3445e0	0.7041912
66	0x3f2e19c0	0.6800804
67	0x3ed7b5dd	0.42130938
68	0x3f2bf401	0.67169195
69	0x3f3c62a8	0.7358804
70	0x3f1b7804	0.60730004
71	0x3ee7ac61	0.45248702
72	0x3f0e9431	0.5569487
73	0x3eecd8eb	0.46259245
74	0x3f2af261	0.6677609
75	0x3f395f74	0.72411275
76	0x3f43d704	0.7649996
77	0x3f177178	0.59157515
78	0x3f25e600	0.6480408
79	0x3f2ab70c	0.6668556
80	0x3f213de4	0.6298506
81	0x3f1a6a88	0.60318804
82	0x3f1381a9	0.5761972
83	0x3f4fa425	0.8110984
84	0x3f4a2634	0.78964543
85	0x3f7fca51	0.99918085
86	0x3ef567da	0.47930795
87	0x3f326331	0.69682604
88	0x3f2d9f1b	0.678209
89	0x3eda6b88	0.42660165
90	0x3f3f390d	0.7469643
91	0x3f252201	0.6450501
92	0x3f5c243a	0.8599278
93	0x3ef6f80c	0.4823612
94	0x3f8f20d1	1.118189
95	0x3f0e8133	0.5566589
96	0x3f21b943	0.6317331
97	0x3f14745c	0.5799005
98	0x3f14bb5f	0.58098406
99	0x3f370879	0.71497303
100	0x3f37312d	0.7155941
101	0x3f2803a5	0.6563056
102	0x3f0361f6	0.5132135
103	0x3f10b32d	0.565234
104	0x3f170fe6	0.59008634
105	0x3f2557ec	0.64587283
106	0x3f573b5e	0.8407496
107	0x3f342016	0.7036146
108	0x3f33fdce	0.7030915
109	0x3f2240a6	0.63379896
110	0x3f299c46	0.6625408
111	0x3f223b6a	0.6337191
112	0x3f0cc7b3	0.54992217
113	0x3f04d206	0.5188297
114	0x3ee5c648	0.4487784
115	0x3f1706fa	0.5899502
116	0x3f6d16dd	0.9261301
117	0x3ed01fbf	0.4064922
118	0x3f0a2039	0.5395542
119	0x3f4a370d	0.7899025
120	0x3f34828a	0.70511687
121	0x3f261ad9	0.64884716
122	0x3f630dff	0.8869323
123	0x3ef6c673	0.4819828
124	0x3f0482d4	0.5176213
125	0x3f2fb94c	0.68642116
126	0x3f04cbb2	0.51873314
127	0x3f0523da	0.5200783

bn1.bias f4 [128]
0	0x3e84fffb	0.25976548
1	0x3e5e7361	0.21723701
2	0x3e27d7ea	0.16390958
3	0x3d1dbcd3	0.038510155
4	0xbd8e747e	-0.06955813
5	0x3dc3234e	0.09528218
6	0xbdb527bd	-0.0884547
7	0xbd68c535	-0.056828696
8	0xbe1d935c	-0.15388244
9	0xbe8e0bba	-0.27743322
10	0x3d8e0ded	0.0693625
11	0xbe23b2b6	-0.15986142
12	0xbe49e713	-0.19717054
13	0x3e3a58e3	0.1819797
14	0x3d4a4ed0	0.049391568
15	0xbe3c229c	-0.18372577
16	0x3ec054ee	0.37564796
17	0x3dff3d65	0.12462882
18	0x3e305c44	0.17222697
19	0xbe8c87f2	-0.27447468
20	0xbe70cbb5	-0.23515208
21	0x3b17d4ff	0.0023167727
22	0xbe274e2a	-0.16338411
23	0x3da6256c	0.081126064
24	0xbe685f5d	-0.22692628
25	0xbe0de679	-0.1385745
26	0x3daac292	0.083378926
27	0xbd99af42	-0.07504131
28	0xbeb16341	-0.34646037
29	0x3e4a3c76	0.19749627
30	0x3d926395	0.071479
31	0xbdd574ac	-0.10422644
32	0x3d926af2	0.071493044
33	0x3e0b3e3f	0.13597964
34	0xbda037f6	-0.07823174
35	0xbe74739f	-0.23872231
36	0x3dfc7529	0.12327034
37	0xbdf27de5	-0.11840419
38	0x3c5241ad	0.012833041
39	0x3d2ab61a	0.04167757
40	0xbde49c61	-0.111626394
41	0x3e4ad661	0.19808342
42	0xbee157b8	-0.44012237
43	0xbe563f07	-0.2092248
44	0x3c8877c7	0.016658677
45	0x3e0879cd	0.13327713
46	0x3d1989d3	0.037484955
47	0x3d34aad1	0.044108216
48	0x3d6b0f6f	0.057387765
49	0xbe2832c5	-0.16425617
50	0xbe03217b	-0.1280574
51	0x3dbf514e	0.093416795
52	0xbeb3420c	-0.35011327
53	0x3e7afd74	0.24510747
54	0x3c2d39dc	0.010572877
55	0xbd52f77d	-0.051505554
56	0x3de9645b	0.113960944
57	0x3efc76f8	0.49309516
58	0x3f09556d	0.53645974
59	0xbd746b1e	-0.059672467
60	0x3e402cda	0.1876711
61	0x3da531d6	0.08066146
62	0x3ea64bbb	0.32479653
63	0x3eaee744	0.34160817
64	0xbc60e91d	-0.013727454
65	0xbcc41af0	-0.023938626
66	0x3e6c0e2f	0.23052286
67	0xbe936e60	-0.28795147
68	0x3e30e7e5	0.1727596
69	0x3e6c6e81	0.23089029
70	0xbd5212be	-0.051287405
71	0xbda486d7	-0.08033531
72	0x3dddfd81	0.10839368
73	0x3e6082d2	0.21924904
74	0x3e85312b	0.26014075
75	0xbe2db6a1	-0.16964199
76	0x3f1184a1	0.56843
77	0xbde292c9	-0.11063153
78	0xbe5e2b93	-0.2169631
79	0x3e79ef77	0.24407755
80	0xbc6c25c2	-0.014413299
81	0x3eb08fa8	0.344846
82	0xbd1e869e	-0.0387026
83	0x3e309f04	0.1724816
84	0x3e7cb2b8	0.24677551
85	0x3df106b7	0.11768859
86	0x3ec84cf8	0.39121222
87	0xbdc411a3	-0.095736764
88	0x3ebbb946	0.3666479
89	0x3d9d5f07	0.07684141
90	0x3dba0b2c	0.09084162
91	0x3e349c96	0.17637858
92	0x3dc121c4	0.094302684
93	0x3e3732e4	0.17890507
94	0xbce74175	-0.028229455
95	0xbd9f5f90	-0.07781899
96	0x3e06ecfd	0.13176341
97	0x3e8bf15e	0.27332586
98	0x3d63dc39	0.055629943
99	0x3e5f1179	0.21784009
100	0x3e2355e7	0.15950738
101	0x3d7ea3c5	0.0621679
102	0xbe1b9d1b	-0.1519665
103	0xbe45ece0	-0.19328642
104	0xbf14064a	-0.57822096
105	0x3e34870c	0.17629641
106	0x3eb20c15	0.34774843
107	0xbe8a40d5	-0.27002588
108	0x3e635927	0.22201978
109	0xbe5f263e	-0.21791932
110	0xbd62be37	-0.055357184
111	0x3e2cc07c	0.16870302
112	0x3d04ed4c	0.032452866
113	0x3e36e123	0.1785932
114	0xbe50d120	-0.20392275
115	0xbd175394	-0.03694494
116	0x3e6e9f10	0.23302865
117	0x3ee59faa	0.44848377
118	0xbe416332	-0.18885496
119	0x3e73dc36	0.23814473
120	0x3d68e679	0.05686042
121	0xbba4aea5	-0.005025702
122	0x3df351d4	0.11880842
123	0x3d87087e	0.06593417
124	0xbe484b74	-0.19560033
125	0x3d0f3417	0.034961786
126	0xbe95f57c	-0.29288852
127	0xbe188060	-0.14892721

bn1.running_mean f4 [128]
0	0x3dc4a5e0	0.09601951
1	0x3e4e490b	0.20145051
2	0x3eb9a3e1	0.36257842
3	0x3e6cb311	0.23115183
4	0x3f663c67	0.89935917
5	0x3f854f01	1.0414735
6	0x3ef0535d	0.469386
7	0x3f1b1fdd	0.60595495
8	0x3ea7eceb	0.32797942
9	0x3e94df3e	0.2907657
10	0x3f3309aa	0.6993662
11	0x3eb4fa54	0.35347235
12	0x3ec59d58	0.38596606
13	0x3f6e167a	0.93003047
14	0x3ef48273	0.47755775
15	0x3f914e80	1.1352081
16	0x3fc4c0d4	1.5371346
17	0x3e515627	0.20443021
18	0x3e833992	0.2562986
19	0x3f97530e	1.1822221
20	0x3ee50dbe	0.44737047
21	0x3e55cc16	0.20878634
22	0x3f2a9ec7	0.66648525
23	0x3eb04199	0.34425047
24	0x3e8fbb93	0.28072795
25	0x3ea543f5	0.3227841
26	0x3f4213aa	0.75811255
27	0x3f1725d0	0.5904207
28	0x3f1fcd97	0.6242308
29	0x3e997734	0.29973757
30	0x3e3a2c2a	0.1818091
31	0x3ed0e8c0	0.40802574
32	0x3e69a255	0.22815831
33	0x3f21d0c6	0.6320919
34	0x3f5e3161	0.86794096
35	0x3ef96b5e	0.48714727
36	0x3e75fa66	0.240213
37	0x3ed8ffaa	0.42382556
38	0x3f4a4f3c	0.7902715
39	0x3f4bd3cc	0.7962005
40	0x3ee49e2f	0.44651935
41	0x3ebfea00	0.37483215
42	0x3eb897d4	0.36053336
43	0x3f703d8e	0.93843925
44	0x3e92cb8c	0.2867092
45	0x3e27c07b	0.16382019
46	0x3df44e5c	0.11929008
47	0x3eb294d7	0.3487918
48	0x3e984a0f	0.29744002
49	0x3ec9808a	0.3935588
50	0x3ed309cf	0.4121842
51	0x3e964293	0.29347667
52	0x3f0e7fc6	0.55663717
53	0x3f551b95	0.8324521
54	0x3f0e6e4e	0.5563706
55	0x3e809b9e	0.25118726
56	0x3f87d1b1	1.0610868
57	0x3f6da4a1	0.9282933
58	0x3ef54db0	0.47910833
59	0x3ea50842	0.32232863
60	0x3f481d08	0.781693
61	0x3ebf691b	0.37384877
62	0x3e9e826e	0.30958885
63	0x3ec2934d	0.38003007
64	0x3f77ed74	0.968467
65	0x3ebac118	0.36475444
66	0x3e48a96c	0.1959588
67	0x3e66e9f7	0.22550188
68	0x3e9535f0	0.29142714
69	0x3f5d4100	0.8642731
70	0x3ed4a638	0.41533065
71	0x3f08a420	0.53375435
72	0x3f308120	0.6894703
73	0x3ec4cca3	0.38437375
74	0x3f45ab64	0.77214646
75	0x3eb904d2	0.3613649
76	0x3f1e9ce2	0.61958134
77	0x3e94de89	0.2907603
78	0x3e9ff86f	0.31244227
79	0x3f83df2e	1.0302484
80	0x3e0cdcd1	0.1375611
81	0x3e46b19d	0.19403692
82	0x3f3d3c3b	0.7392003
83	0x3e9be2e4	0.3044654
84	0x3f3e2921	0.7428151
85	0x3efbf0d9	0.4920719
86	0x3f4b3330	0.7937498
87	0x3f282c92	0.6569301
88	0x3ed3bb58	0.4135387
89	0x3e26f5ab	0.16304652
90	0x3f2fd92d	0.6869076
91	0x3e807fdf	0.25097558
92	0x3f0e75c8	0.5564847
93	0x3f25bc3a	0.64740336
94	0x3e4e5dc7	0.2015296
95	0x3f80bc2a	1.0057423
96	0x3eda8350	0.42678308
97	0x3ecd80ae	0.40137237
98	0x3f74d26a	0.95633566
99	0x3f110cd9	0.5666023
100	0x3f488af5	0.7833703
101	0x3ee98099	0.45605925
102	0x3ec30b06	0.38094348
103	0x3f388d8c	0.72090983
104	0x3ecac1a0	0.3960085
105	0x3f1142ad	0.56742364
106	0x3f3416ef	0.70347494
107	0x3f216a1a	0.63052523
108	0x3e8b8955	0.27253214
109	0x3e9f7cad	0.31149808
110	0x3eaffdd4	0.34373343
111	0x3f0320cd	0.51221925
112	0x3fbac417	1.4591092
113	0x3fca5caf	1.5809535
114	0x3ed9c3b7	0.4253213
115	0x3f242191	0.6411372
116	0x3ef94426	0.48684806
117	0x3f720685	0.945412
118	0x3f039dc6	0.5141262
119	0x3ee47090	0.44617128
120	0x3f022cf1	0.50849825
121	0x3ef61d23	0.48069105
122	0x3ee3dca8	0.44504285
123	0x3f0c0975	0.5470193
124	0x3e950aec	0.29109895
125	0x3f1604f3	0.586013
126	0x3ecb3a37	0.39692852
127	0x3f67bdba	0.90523875

bn1.running_var f4 [128]
0	0x3d923ed1	0.071408875
1	0x3e86a21f	0.26295564
2	0x3ec0ac06	0.37631243
3	0x3e707b87	0.23484622
4	0x3fb72fd2	1.4311469
5	0x3fb68f21	1.426243
6	0x3eedc9b8	0.46442962
7	0x3f484aa4	0.7823889
8	0x3ea29c5f	0.31759927
9	0x3e861b63	0.2619277
10	0x3f3f8746	0.74815786
11	0x3f2d7b11	0.6776591
12	0x3ef0e9f9	0.47053507
13	0x3faa87c5	1.3322684
14	0x3f5b7fd1	0.8574191
15	0x3f88e381	1.0694429
16	0x402f577f	2.7397153
17	0x3e9e8b95	0.30965868
18	0x3eefde84	0.46849453
19	0x401b63d5	2.4279683
20	0x3f051579	0.5198589
21	0x3e9c6036	0.30542153
22	0x3f544627	0.82919544
23	0x3f2c1c5b	0.67230767
24	0x3f02774d	0.5096329
25	0x3ee627b0	0.44952154
26	0x3f734761	0.9503079
27	0x3f6eb812	0.9324962
28	0x3f9b12ff	1.2115172
29	0x3f074d53	0.5285236
30	0x3e10550b	0.14094941
31	0x3f211c40	0.6293373
32	0x3e9b23f2	0.30300862
33	0x3f5bdf81	0.85887915
34	0x3fc363f3	1.5264877
35	0x3f15860f	0.5840768
36	0x3e83e99e	0.25764173
37	0x3eeef319	0.46669844
38	0x3fa1f051	1.2651464
39	0x3f9fadcc	1.2474914
40	0x3f0ed196	0.5578855
41	0x3ef5fdd4	0.48045218
42	0x3ec33119	0.38123396
43	0x400cbdc7	2.199083
44	0x3f28a563	0.6587736
45	0x3e6ea571	0.23305298
46	0x3e2121c4	0.15735537
47	0x3edbf4b8	0.42960143
48	0x3e88ffcf	0.26757666
49	0x3ee90d29	0.45517853
50	0x3f01e84d	0.5074509
51	0x3ee902f8	0.45510077
52	0x3fa2a0a8	1.2705278
53	0x3f18fa2a	0.5975672
54	0x3f5e063c	0.8672826
55	0x3ea1eed3	0.3162752
56	0x3fb46a5a	1.4094956
57	0x3f36a2b4	0.71342015
58	0x3f275cbc	0.65375876
59	0x3ef29eaa	0.47386676
60	0x3fa26bdf	1.268917
61	0x3f17f04e	0.5935105
62	0x3ec619d2	0.38691574
63	0x3f367305	0.71269256
64	0x3fd93d05	1.6971747
65	0x3ea0a833	0.31378326
66	0x3eb5120e	0.35365337
67	0x3ea26c72	0.31723362
68	0x3e9df351	0.30849698
69	0x3fa509eb	1.2893652
70	0x3f0fab9b	0.56121224
71	0x3f86255a	1.0480149
72	0x3fd0822f	1.6289729
73	0x3ed65599	0.4186218
74	0x3f4d98bd	0.80311185
75	0x3f059ad3	0.5218937
76	0x3f421cbd	0.758251
77	0x3f28b9aa	0.659083
78	0x3ed06133	0.40699157
79	0x3f4409bc	0.76577353
80	0x3e217bc4	0.15769869
81	0x3e8723a3	0.26394376
82	0x3f48c87d	0.7843092
83	0x3eaecf89	0.34142712
84	0x3f5ec682	0.8702165
85	0x3f21bcec	0.63178897
86	0x3f56b2fc	0.8386686
87	0x3f883bab	1.0643209
88	0x3ed117a2	0.40838343
89	0x3e4b6dfa	0.19866171
90	0x3f674652	0.90341675
91	0x3e8701f2	0.26368672
92	0x3f327b6d	0.6971958
93	0x3f4b351b	0.7937791
94	0x3e34e92b	0.17667072
95	0x3ff2590d	1.8933426
96	0x3f22dcc6	0.63618124
97	0x3ed8908b	0.42297778
98	0x3fa73f61	1.3066217
99	0x3eefb949	0.4682105
100	0x3f37aeea	0.7175127
101	0x3f35ee23	0.7106649
102	0x3f00f742	0.50377285
103	0x3fbe06d6	1.4845836
104	0x3f04a38e	0.51812065
105	0x3f88df95	1.0693232
106	0x3f4c66d3	0.798444
107	0x3f58164b	0.84409016
108	0x3eacc77d	0.33745947
109	0x3ec91f7f	0.39281842
110	0x3ed87f41	0.42284587
111	0x3f817000	1.0112305
112	0x405a7435	3.4133427
113	0x3fc6c812	1.5529807
114	0x3f67a0bc	0.90479636
115	0x3f43f6d0	0.7654848
116	0x3f4dc439	0.80377537
117	0x3fc1763d	1.5114208
118	0x3f449137	0.7678408
119	0x3f07bd16	0.530229
120	0x3f5b14cf	0.85578626
121	0x3f494c0d	0.7863167
122	0x3f2c6472	0.6734077
123	0x3f61b08e	0.88160026
124	0x3ef9832b	0.48732886
125	0x3f17d59a	0.59310305
126	0x3f181c0d	0.594178
127	0x3f90d473	1.1314834
