udacity/Artificial Intelligence/Deep Reinforcement Learning/Navigation/checkpoint.pth (torch, 29615 bytes, 6 tensors)

fc1.weight f4 [64, 37]
0	0x3d741620	0.059591413
1	0xbd10a145	-0.03531005
2	0x3b90c665	0.0044181817
3	0xbe01d94b	-0.12680547
4	0xbe065d71	-0.13121583
5	0xbdae97d0	-0.0852505
6	0x3c253925	0.010084425
7	0x3dc38576	0.0954694
8	0x3db0e5bf	0.086375706
9	0xbe3c6b69	-0.18400349
10	0x3e09f452	0.13472107
11	0xbe9a4293	-0.30128917
12	0xbe124212	-0.14283016
13	0xbdbac1c9	-0.09118993
14	0xbf0306ac	-0.51182055
15	0xbd6a64e9	-0.05722514
16	0xbce6924e	-0.028145935
17	0x3e5af7bf	0.2138357
18	0x3deb3d72	0.11486329
19	0x3ccacdaf	0.02475628
20	0xbc962249	-0.018326895
21	0xbd3f415b	-0.046693187
22	0xbcad13dd	-0.021127636
23	0x3e7df4d1	0.24800421
24	0x3df95a77	0.12175458
25	0xbdedcf87	-0.11611848
26	0xbcef2567	-0.02919264
27	0xbd6d7afb	-0.05797861
28	0x3e16fbf6	0.14744553
29	0xbe238e40	-0.15972233
30	0x3cb556c3	0.022136098
31	0x3bf6546a	0.007517387
32	0xbe83150c	-0.25601995
33	0x3c660ef2	0.014041649
34	0xbd36068b	-0.044439834
35	0xbde9231d	-0.113836505
36	0x3bc5b6c8	0.006033752
37	0x3e5e2760	0.21694708
38	0x3db5f28c	0.08884153
39	0x3ce68705	0.028140554
40	0x3cd5bd9c	0.02609139
41	0xbe1bc6f4	-0.15212613
42	0x3e2512c6	0.16120443
43	0xbee4057a	-0.44535428
44	0x3d22c792	0.039741106
45	0xbe96bfba	-0.2944315
46	0xbf3cb0a5	-0.7370704
47	0x3cb57c68	0.022154048
48	0x3dc3fbe5	0.095695294
49	0x3d146bdd	0.03623568
50	0x3de5c94c	0.11220035
51	0x3dc99c11	0.098442204
52	0x3db21e46	0.086971804
53	0xbd4938b0	-0.049126327
54	0x3df874e9	0.12131674
55	0x3daef625	0.08543042
56	0xbdcc27da	-0.099685386
57	0xbdfaf180	-0.12253094
58	0xbd12979b	-0.035789113
59	0x3c3f6ba8	0.011683382
60	0xbd0268c3	-0.03183819
61	0x3dc9a8e7	0.09846669
62	0x3cc9ce34	0.024634458
63	0x3c29a81a	0.01035502
64	0x3de19e5f	0.11016535
65	0xbcae7c8d	-0.021299625
66	0x3b9012fb	0.004396794
67	0x3d13532f	0.035968002
68	0x3e071059	0.1318983
69	0x3df74a7d	0.120747544
70	0x3d930e8a	0.071805075
71	0x3e799573	0.24373417
72	0x3d8c1724	0.06840351
73	0xbc1990f1	-0.009372936
74	0xbe7ffbbd	-0.24998374
75	0x3eb54b1b	0.35408863
76	0x3dd11755	0.10209528
77	0x3c9e1a5b	0.019299677
78	0xbeebcd8b	-0.46055254
79	0xbec36ec0	-0.38170433
80	0x3e233702	0.15938953
81	0x3e623ca0	0.22093439
82	0x3d315379	0.043292496
83	0xbeaacc21	-0.33358863
84	0x3be5a8f4	0.007008666
85	0xbdd8c6c4	-0.105847865
86	0xbc856f84	-0.016288526
87	0x3d2be11a	0.04196272
88	0xbcb582ff	-0.02215719
89	0xbe8615a1	-0.26188377
90	0x3eb4d2f8	0.35317206
91	0x3e3cdd22	0.1844373
92	0xbe9c6436	-0.30545205
93	0xbebb86c2	-0.3662625
94	0x3da91217	0.082554035
95	0xbe0eca75	-0.13944419
96	0xbd96e9af	-0.0736879
97	0x3dd17af5	0.1022853
98	0x3d88d154	0.06680551
99	0xbeb4454e	-0.35209125
100	0x3e602748	0.21889985
101	0x3e700423	0.23439078
102	0xbe4c746c	-0.19966286
103	0xbeccc36f	-0.39992854
104	0x3d8d2558	0.068918884
105	0xbe2a83ef	-0.16651891
106	0xbe2961f5	-0.16541274
107	0xbc09206a	-0.0083695445
108	0x3dee6ed0	0.116422296
109	0x3ca63ef4	0.02029369
110	0xbc10eaaa	-0.008845011
111	0x3e1c1b30	0.15244746
112	0x3da27769	0.07932932
113	0x3d83af9c	0.06429979
114	0x3d89568c	0.06705961
115	0xbe252aa1	-0.16129543
116	0x3d1cb20a	0.03825573
117	0x39ff82ed	0.00048734937
118	0xbc23dfc8	-0.010002084
119	0x3d4f5ff2	0.05062861
120	0x3d70654c	0.058690354
121	0xbbf08899	-0.0073405025
122	0x3b99bd45	0.004691752
123	0xbab4858a	-0.0013772708
124	0x3bd33761	0.0064458107
125	0x3c9096bc	0.01765
126	0xbd022e89	-0.03178266
127	0xbd93a02d	-0.072082855
128	0xbd0fb87f	-0.03508806
129	0x3d405f7b	0.046966057
130	0x3dbb14fa	0.0913486
131	0x3c4bc464	0.01243696
132	0x3d853a69	0.065052815
133	0x3d9af3fd	0.07566068
134	0x3e15f9ec	0.14646119
135	0x3dd59c50	0.10430205
136	0x3c1b709e	0.009487299
137	0xbcc314e8	-0.02381368
138	0x3d9fea58	0.078083694
139	0x3e0f071b	0.13967554
140	0x3e358217	0.17725407
141	0x3ec527ba	0.3850687
142	0xbf0a9db9	-0.54146916
143	0xbee32ed4	-0.44371665
144	0xbee8bd9a	-0.45457155
145	0xc0038ede	-2.055595
146	0x3c4d4e85	0.012530928
147	0x3be09242	0.006853373
148	0xbd97d540	-0.07413721
149	0xbdfebeed	-0.1243876
150	0xbdfa908f	-0.122346036
151	0xbe30010b	-0.17187898
152	0xbbbc0a86	-0.005738559
153	0x3eb06f84	0.3446008
154	0xbee087e4	-0.43853676
155	0xbeb0f009	-0.34558132
156	0xbefb3d93	-0.49070415
157	0xbfea3238	-1.8296576
158	0x3d3f53ef	0.046710905
159	0xbc5d474c	-0.013505768
160	0xbd20b442	-0.039234407
161	0xbd8f8186	-0.070071265
162	0xbe10cce8	-0.14140666
163	0xbddf66f6	-0.1090831
164	0xbdda6d8a	-0.10665424
165	0x3d8afa6f	0.06786048
166	0xbd4f9d57	-0.05068716
167	0x3e24fe53	0.16112642
168	0xbda9f963	-0.0829952
169	0xbcb197df	-0.021678863
170	0x3d9824af	0.07428872
171	0x3d796d14	0.06089504
172	0x3e2964ae	0.16542313
173	0xbd02ba73	-0.031916093
174	0xb72b8c8b	-1.0225117e-05
175	0x3dcbe9d1	0.09956706
176	0x3e55df8c	0.20886058
177	0x3e704473	0.23463611
178	0x3c9ed61b	0.019389203
179	0x3d65b632	0.056081958
180	0x3e013295	0.12616952
181	0x3e30ca3d	0.17264648
182	0x3e8a15d3	0.26969776
183	0xbc6b519c	-0.014362719
184	0x3c0e1012	0.008670824
185	0x3e0d2886	0.1378499
186	0x3d952649	0.07282693
187	0x3d87fad1	0.06639636
188	0x3d9fabac	0.07796416
189	0x3d9077d3	0.07054105
190	0x3ebdf204	0.37098706
191	0x3e503bf2	0.20335367
192	0xbdf48ea3	-0.11941268
193	0xbdd90a83	-0.10597708
194	0xbf1b90f3	-0.6076805
195	0x3da4b53a	0.08042379
196	0xbd2812dd	-0.041033614
197	0x3d6d4373	0.057925653
198	0x3db9b5cf	0.0906788
199	0x3dd9a9a3	0.10628059
200	0x3d7115ab	0.058858555
201	0x3e587330	0.2113769
202	0x3d5c02f3	0.05371375
203	0x3cbf460e	0.023348834
204	0x3dce0229	0.10059006
205	0x3e8f65cd	0.28007355
206	0x3e0249ec	0.12723511
207	0x3dd7ae0d	0.105312444
208	0x3df1879c	0.117934436
209	0x3be8fab1	0.007109963
210	0x3de1ede3	0.110317014
211	0x3dae42de	0.08508848
212	0x3db125f6	0.086498186
213	0x3d701212	0.058610983
214	0x3d955649	0.07291848
215	0x3e519f80	0.20471
216	0x3d96d624	0.07365063
217	0xbce51ee5	-0.027968833
218	0x3dabe04d	0.08392391
219	0xbe196b93	-0.14982443
220	0x3cddbd9c	0.027067952
221	0x3d001211	0.03126723
222	0x3ea7e400	0.32791138
223	0xbef0f942	-0.4706517
224	0xbec51420	-0.38491917
225	0xbf1083e3	-0.56451243
226	0xbffff079	-1.9995261
227	0xbc379cf5	-0.011206855
228	0x3b725caf	0.0036981513
229	0xbd87ae4b	-0.066250406
230	0x3daa723f	0.08322572
231	0x3e03543f	0.12825106
232	0x3cd104f8	0.025515065
233	0x3e01fcee	0.12694141
234	0x3e0a1fd1	0.134887
235	0x3c8a27d1	0.016864689
236	0xbd6163a6	-0.055026673
237	0xbd9809c4	-0.07423738
238	0xbd93636b	-0.07196697
239	0x3cb0e588	0.021593824
240	0x3df9859b	0.12183686
241	0x3e4947bc	0.1965627
242	0x3c362890	0.011118069
243	0x3ac36c87	0.0014909663
244	0x3b6ddb25	0.003629395
245	0x3badbf17	0.0053023207
246	0x3d5f953e	0.054585688
247	0xbe72b9fe	-0.23703763
248	0xb99b2ddf	-0.0002959808
249	0x3c1cf028	0.009578742
250	0x3de87733	0.113508604
251	0x3e8d4df6	0.27598542
252	0x3cdfe035	0.02732859
253	0x3d0f6cff	0.035016056
254	0x3bb0bf03	0.005393864
255	0xbb112dc5	-0.0022152525

fc1.bias f4 [64]
0	0x3d9720c0	0.073792934
1	0x3c91e42a	0.017808992
2	0xbd824457	-0.06360691
3	0x3cd2ad1d	0.025717312
4	0x3e4edd5c	0.2020163
5	0x3e089dd3	0.13341455
6	0xbc236763	-0.00997338
7	0x3dd554a8	0.104165375
8	0xbccf42aa	-0.025300343
9	0xbe9b3348	-0.30312562
10	0x3de3a0f6	0.11114685
11	0x3e83065f	0.25590798
12	0x3dac2f75	0.08407489
13	0x3c82c85f	0.015964685
14	0xbcd413db	-0.025888374
15	0xbe2cde7f	-0.1688175
16	0x3c1b63ea	0.009484271
17	0x3db23703	0.08701899
18	0xbc321376	-0.010868898
19	0xbe280b67	-0.164106
20	0xbd9630fc	-0.07333562
21	0x3dae4e7f	0.08511066
22	0xbcd1d90a	-0.025616188
23	0xbe1e8774	-0.15481359
24	0xbe2c5696	-0.16829905
25	0x3e0660a6	0.13122806
26	0xbd3e5f1e	-0.04647743
27	0xbe4dc3b8	-0.20094192
28	0x3e305f3c	0.17223829
29	0x3e0ac99e	0.13553473
30	0x3d4201ef	0.047365125
31	0xbdcd8a73	-0.10036173
32	0x3e53ecb2	0.20695761
33	0x3d9afa9e	0.07567333
34	0xbe11a000	-0.14221191
35	0x3d56e71c	0.052466497
36	0xbce2a4d0	-0.02766648
37	0x3db4a87f	0.088212006
38	0xbdc7455a	-0.09730025
39	0xbdde5b5e	-0.10857271
40	0xbd6bf864	-0.05760993
41	0xbc1fcb55	-0.009753068
42	0xbe484262	-0.19556573
43	0x3e3e84f2	0.18605402
44	0xbc8d0a0a	-0.017216701
45	0xbd88eb6f	-0.066855304
46	0x3d8e71ec	0.069553226
47	0xbe39853f	-0.18117236
48	0xbdbe1917	-0.09282129
49	0x3da18017	0.07885759
50	0xbe19ca0e	-0.15018484
51	0xbd342289	-0.043978248
52	0xbd87a70f	-0.06623661
53	0xbe32be2c	-0.17455357
54	0xbdfbad06	-0.12288861
55	0xbd99d5ce	-0.07511483
56	0x3e52354a	0.2052814
57	0xbd1f2899	-0.038857076
58	0xbe04147f	-0.12898444
59	0xbdc1036a	-0.09424479
60	0x3d930d1e	0.07180236
61	0x3da27292	0.07932009
62	0x3c195369	0.009358265
63	0x3c873e2d	0.01650914

fc2.weight f4 [64, 64]
0	0xb9c2ff40	-0.0003719274
1	0xbd185ea6	-0.03719964
2	0xbe1c0a93	-0.15238409
3	0xbe93ac78	-0.2884252
4	0xbebdc6dd	-0.37065783
5	0xbe12f2ca	-0.14350429
6	0x3dd3ad55	0.10335795
7	0x3aef6132	0.0018263219
8	0x3c67923c	0.014133986
9	0x3de9a3db	0.11408206
10	0xbdc0d50d	-0.09415636
11	0xbd751a12	-0.059839316
12	0xbe5dde13	-0.21666746
13	0x3dd42227	0.103580765
14	0xbe86f03e	-0.26355165
15	0xbca9669d	-0.020678813
16	0xbcb2218e	-0.021744516
17	0xbefc13ce	-0.4923386
18	0x3dfc7c1f	0.12328362
19	0xbdd23c97	-0.10265463
20	0xbe96dcb4	-0.29465258
21	0x3d7cd30d	0.06172471
22	0x3e48103b	0.19537441
23	0x3bcd9be3	0.0062746867
24	0x3ca2e518	0.019884631
25	0xbdd45d08	-0.10369307
26	0x3e19e528	0.15028822
27	0x3d09e185	0.033662338
28	0x3f3a8e49	0.7287336
29	0xbe026852	-0.12735108
30	0xbe3ac5ec	-0.18239564
31	0xbe7c298e	-0.24625227
32	0x3e6f571a	0.2337307
33	0xbe796705	-0.24355705
34	0xbd339f0f	-0.043852862
35	0xbdc17b25	-0.09447316
36	0xbe65a3a0	-0.22425699
37	0x3e849f9d	0.25903025
38	0x3be20830	0.0068979487
39	0xbe8b1e5f	-0.2717161
40	0xbebbbec0	-0.36668968
41	0xbb58675d	-0.0033020594
42	0x3e4f6d7e	0.20256612
43	0x3e11d8d8	0.14242876
44	0xbbf85324	-0.0075782705
45	0xbdf4a058	-0.11944646
46	0xbea49c8c	-0.32150686
47	0xbc8320f0	-0.016006917
48	0x3d87fe41	0.06640292
49	0xbc842516	-0.016130965
50	0xbdfa5cfd	-0.12224767
51	0x3c99f532	0.018793676
52	0xbe07be6a	-0.13256231
53	0x3e2a12e7	0.16608773
54	0xbdb3c074	-0.08776942
55	0xbd8746b9	-0.06605286
56	0xbd5ee19f	-0.054414388
57	0xbee0d483	-0.43912134
58	0xbce97284	-0.028496988
59	0xbda784ac	-0.08179602
60	0x3e85880f	0.26080367
61	0x3d2101e0	0.03930843
62	0xbe3ec9b0	-0.18631625
63	0x3dae4938	0.08510059
64	0xbd61f841	-0.055168394
65	0x3d20d9cd	0.03927021
66	0xbe4ab63e	-0.19796082
67	0x3ef440de	0.4770574
68	0x3e7c11f9	0.24616231
69	0x3e0dbac0	0.1384077
70	0xbf19eebb	-0.601299
71	0x3e5f39e0	0.21799421
72	0xbe0d823e	-0.13819215
73	0xbc1f41e1	-0.009720297
74	0x3de41247	0.111362986
75	0x3e915647	0.28386137
76	0x3e08532c	0.13312978
77	0x3da5792c	0.08079752
78	0xbd83ef84	-0.06442168
79	0x3e42c1be	0.1901922
80	0x3e209c0e	0.1568453
81	0x3e00e6ef	0.12588094
82	0xbdc00d32	-0.09377517
83	0x3d1da714	0.038489416
84	0x3d8de545	0.06928495
85	0x3d8caf8d	0.06869421
86	0x3d91c0c4	0.07116845
87	0xbe0ca059	-0.13733043
88	0xbcca4c47	-0.024694575
89	0x3da6d7fb	0.08146664
90	0x3d3995fe	0.04530906
91	0xbe467bdc	-0.19383186
92	0x3da224ec	0.079171985
93	0xbcf15c2f	-0.029462902
94	0xbd9147e5	-0.07093791
95	0xbe05decf	-0.13073276
96	0xbe0654e7	-0.13118325
97	0xbe09c2f2	-0.13453272
98	0xbd561d10	-0.05227381
99	0x3cdce150	0.026962906
100	0x3beb4d0f	0.007180817
101	0x3da7258b	0.08161458
102	0x3dcea498	0.100899875
103	0xbe11aa12	-0.14225033
104	0x3dbdd4a0	0.092690706
105	0xbedd38ae	-0.43207306
106	0xbe4017d7	-0.18759094
107	0xbda1f8cb	-0.079087816
108	0x3e10c6f1	0.1413839
109	0xbd6c90f8	-0.05775544
110	0xbdc84293	-0.09778323
111	0xbdd0e248	-0.1019941
112	0xbd354d5f	-0.04426324
113	0xbed0728b	-0.4071239
114	0x3e0dfd5a	0.13866177
115	0x3db8f87c	0.0903177
116	0xbb91bc68	-0.0044475086
117	0xbf1cac33	-0.61200255
118	0xbd881d75	-0.066462435
119	0x3e091001	0.13385011
120	0x3dbffa86	0.093739554
121	0x3d751cce	0.059841923
122	0x3df30c96	0.11867635
123	0x3d0a1db9	0.033719752
124	0xbe092c4a	-0.13395801
125	0xbd540668	-0.051763922
126	0xbd1f20c8	-0.038849622
127	0xbd6219ab	-0.05520026
128	0x3c73ca19	0.014879727
129	0xbd153c81	-0.036434654
130	0x3dc74f4d	0.09731922
131	0x3de9ab5c	0.11409637
132	0x3e988d8d	0.29795495
133	0xbd77eb95	-0.060527403
134	0xbeb27c13	-0.34860286
135	0xbd7d5dcd	-0.061857034
136	0x3da72eb0	0.08163202
137	0xbec1d74e	-0.37859577
138	0xbbfd47d6	-0.007729511
139	0x3daf7e4b	0.0856901
140	0x3db3c84a	0.087784365
141	0x3d926a2e	0.071491584
142	0xbd6ce52d	-0.057835747
143	0xbdc301d2	-0.095218316
144	0xbcf66d57	-0.030081434
145	0x3e66974e	0.22518656
146	0xb9d54114	-0.00040675013
147	0x3e62ef10	0.22161508
148	0xbd7bc3e2	-0.061466105
149	0x3dc1e0f4	0.094667345
150	0xbd58ed2f	-0.05296057
151	0xbbae99ca	-0.0053283917
152	0x3d87bff3	0.06628408
153	0x3dd73eea	0.10510047
154	0x3ed3ed35	0.41391912
155	0xbd58ae98	-0.05290088
156	0xbeabc59f	-0.3354921
157	0x3dd2fcb7	0.10302108
158	0x3db6f92e	0.08934246
159	0x3df78345	0.120855846
160	0x3d3a8332	0.045535274
161	0xbe426950	-0.18985486
162	0x3db4524f	0.088047616
163	0x3e9c2d96	0.3050353
164	0x3d4a87b5	0.049445827
165	0xbd377575	-0.04478975
166	0xbe2f0b34	-0.17094117
167	0xbcbb32fd	-0.022851462
168	0x3dbc8cb7	0.09206527
169	0x3df68478	0.12036985
170	0xbe0ff30a	-0.14057556
171	0xbe5d521a	-0.2161335
172	0xbdec0544	-0.11524442
173	0x3ca062ea	0.019578416
174	0x3bff6cbf	0.007794946
175	0xbdb23af2	-0.08702649
176	0x3dd0f98f	0.102038495
177	0xbe603f0d	-0.21899052
178	0xbe28eee3	-0.16497378
179	0xbd1586dd	-0.03650557
180	0xbe2bb2b9	-0.16767396
181	0x3eb6c0ba	0.35693914
182	0xbdf4d511	-0.11954702
183	0xbe02e51e	-0.12782714
184	0x3da4bd08	0.08043867
185	0xbda6a7d1	-0.08137477
186	0x3e0fece5	0.14055212
187	0x3d81056b	0.062998615
188	0xbedfbdba	-0.43699437
189	0xbe1b4503	-0.15163045
190	0x3de435b3	0.11143055
191	0x3d1b5dd9	0.037931297
192	0xbda41018	-0.08010882
193	0x3d5448e2	0.05182732
194	0x3df8c001	0.12145997
195	0x3e00d9d0	0.12583089
196	0x3e3047a6	0.17214832
197	0xbe1644b9	-0.14674653
198	0x3e527ab2	0.20554617
199	0x3d88e91b	0.06685086
200	0xbda2a2ce	-0.07941209
201	0xbe172517	-0.14760242
202	0x3d11e27e	0.03561639
203	0xbdaf369f	-0.0855534
204	0x3e69ddd3	0.22838525
205	0x3e57c44f	0.2107098
206	0x3d83edea	0.06441863
207	0xbe465d81	-0.19371606
208	0x3c824c97	0.015905662
209	0xbdbdbb49	-0.092642374
210	0x3da65de8	0.0812338
211	0xbe9908f1	-0.29889634
212	0x3e43d2ba	0.19123355
213	0xbb4c45b4	-0.0031169476
214	0xbba59248	-0.0050528385
215	0x3bece407	0.0072293314
216	0xbe132d3f	-0.14372729
217	0xbdd62267	-0.104557805
218	0x3e8543cf	0.26028296
219	0x3d4351ec	0.04768555
220	0x3e8069d6	0.25080746
221	0xbcb4cf2a	-0.02207144
222	0x3e2522b1	0.16126515
223	0xbe43bd1e	-0.19115111
224	0x3e2604ac	0.1621272
225	0x3e09ed0e	0.13469335
226	0xbf14dfad	-0.581538
227	0xba990fe3	-0.0011677708
228	0xbdddb818	-0.10826129
229	0x3ea00dd9	0.31260565
230	0xbe034502	-0.12819293
231	0xbd6cbaf4	-0.05779548
232	0xbc80434b	-0.015657088
233	0xbd256673	-0.040380906
234	0xbd485c31	-0.048916046
235	0xbe7d4b62	-0.24735788
236	0x3d60882a	0.054817356
237	0x3e2d233a	0.16907969
238	0x3da3f323	0.08005359
239	0x3d8eaeb0	0.06966913
240	0x3e133b07	0.14377986
241	0x3e046cee	0.12932178
242	0xbea7c427	-0.3276684
243	0xbde75c50	-0.11296904
244	0x3e38faf7	0.18064485
245	0xbe0ed024	-0.13946587
246	0xbe617793	-0.2201827
247	0x3d572705	0.052527446
248	0xbeb8c7c8	-0.3608992
249	0xbd909029	-0.07058746
250	0xbe7c1179	-0.2461604
251	0xbe8d900e	-0.27648968
252	0xbe50e0bd	-0.20398231
253	0x3e4c5f03	0.19958119
254	0xbe936d05	-0.28794113
255	0xbcb5fb74	-0.022214629

fc2.bias f4 [64]
0	0xbd08e91e	-0.033425443
1	0x3da39efe	0.0798931
2	0x3d4157b9	0.0472028
3	0x3d244d07	0.04011252
4	0x3e38042c	0.17970341
5	0xbdcf1bac	-0.101127
6	0xbdc733ec	-0.097267
7	0xbd818c91	-0.06325639
8	0x3e95333a	0.29140645
9	0x3ef4122f	0.47670123
10	0xbe181809	-0.14852919
11	0x3e85b548	0.2611487
12	0x3d99359b	0.074809276
13	0xbc2b6928	-0.010462083
14	0xbd9c000c	-0.076171964
15	0x3e747d1b	0.23875849
16	0xbc87c3cc	-0.016572855
17	0x3de2a9f1	0.1106757
18	0x3d06f585	0.03294899
19	0x3dff2b20	0.12459397
20	0x3e742ea8	0.23845923
21	0x3edd0a6e	0.4317202
22	0xbe6e9d31	-0.23302151
23	0xbe3c175b	-0.18368284
24	0xbd9e972d	-0.07743678
25	0xbe24d3f1	-0.16096474
26	0x3e5f3ff9	0.21801747
27	0x3d351b1c	0.044215307
28	0xbdda92a6	-0.10672502
29	0x3e83d18b	0.25745806
30	0x3d63ca53	0.055612873
31	0x3e00e34e	0.1258671
32	0x3b0337fb	0.002002238
33	0x3e8b017d	0.27149573
34	0x3d7ec87d	0.06220292
35	0x3dbad294	0.09122196
36	0xbd0dc22f	-0.034609016
37	0xbe18924f	-0.14899562
38	0x3dc6ee68	0.09713441
39	0x3d29dbdf	0.04146945
40	0xbe1ac50c	-0.1511423
41	0x3f02a225	0.5102866
42	0x3eaebfb1	0.34130624
43	0xbd9b60c4	-0.07586816
44	0x3caf5bc1	0.021406056
45	0xbdc12a89	-0.09431941
46	0x3e520e1d	0.20513196
47	0x3bc9e6bf	0.0061615403
48	0xbd4ad0a8	-0.049515396
49	0xbd426a39	-0.047464583
50	0xbd9b89d5	-0.07594649
51	0x3e9bc8b9	0.30426577
52	0xbd8718eb	-0.065965496
53	0x3cde638f	0.027147083
54	0x3ebb825a	0.36622888
55	0xbe186d37	-0.14885412
56	0xbe7f0b69	-0.24906696
57	0xbc045cc4	-0.008078758
58	0x3d55e4de	0.052220218
59	0xbde85fb1	-0.11346377
60	0x3cd01e87	0.025405182
61	0x3e96b5a1	0.29435447
62	0x3dfef955	0.124499
63	0xbdfc4227	-0.12317305

fc3.weight f4 [4, 64]
0	0x3f2acf1e	0.66722286
1	0x3e558c9c	0.2085442
2	0x3d2a4950	0.041573822
3	0xbe6583bd	-0.22413535
4	0x3e4c894a	0.19974247
5	0x3dd5f6cf	0.10447466
6	0x3d34a83c	0.044105753
7	0xbe46bfd2	-0.19409111
8	0x3e0c8c7d	0.13725467
9	0x3e1b1145	0.15143307
10	0xbe84517e	-0.25843424
11	0x3e88c468	0.26712346
12	0x3db30cd0	0.08742678
13	0x3e8b0e1c	0.27159202
14	0xbd1c5030	-0.03816241
15	0x3e23e483	0.16005139
16	0xbd60ae69	-0.05485383
17	0x3e5f87b9	0.21829118
18	0x3d81c2e0	0.063359976
19	0x3e49313b	0.19647686
20	0x3ddc007f	0.10742282
21	0x3e0b8f05	0.13628776
22	0xbc1279d1	-0.008940176
23	0xbe12ea35	-0.14347155
24	0xbda431fb	-0.080173455
25	0x3c3e33c1	0.011609019
26	0x3e77d49a	0.24202195
27	0xbee85d31	-0.453836
28	0x3d0c5fbe	0.034270994
29	0x3e028549	0.12746157
30	0xbe89dc3b	-0.26925835
31	0x3e15a3bd	0.14613242
32	0x3e176781	0.14785577
33	0x3e6147da	0.22000065
34	0x3e9d6c51	0.307467
35	0x3d99a28c	0.075017065
36	0x3e676d9e	0.2260041
37	0xbe146d2a	-0.14494768
38	0x3da5d129	0.08096535
39	0x3e65c1d9	0.22437228
40	0x3d877cb6	0.066155836
41	0x3e1620b3	0.14660911
42	0x3dace278	0.08441633
43	0x3ea95c64	0.330783
44	0x3e2af70f	0.16695808
45	0xbe059baa	-0.13047662
46	0x3e017bfb	0.12644951
47	0x3dca2204	0.09869769
48	0xbe36ba14	-0.1784442
49	0x3e2b0bdb	0.16703741
50	0x3d24ab28	0.04020229
51	0x3e96b6d2	0.29436356
52	0x3e8dd0fd	0.27698508
53	0xbe3c0dfd	-0.18364711
54	0x3e0ac904	0.13553244
55	0x3f336597	0.7007689
56	0xbe3b3b5b	-0.18284361
57	0x3e321ac2	0.1739302
58	0x3e9b8ccf	0.30380866
59	0xbcf5e8c5	-0.03001822
60	0xbed2e107	-0.41187307
61	0x3e25019c	0.16113895
62	0xbe1b3963	-0.1515861
63	0xbd66d408	-0.056354553
64	0x3f1573d2	0.5837985
65	0x3e2e1893	0.17001562
66	0x3e0859a3	0.13315444
67	0xbe45c5e9	-0.19313778
68	0x3e36aaab	0.17838542
69	0x3e01285a	0.12613049
70	0x3e5d1a30	0.21592021
71	0xbe23204a	-0.15930286
72	0x3e0b5d70	0.13609862
73	0x3e126b6b	0.14298789
74	0xbe75e565	-0.24013288
75	0x3e2dfb8e	0.16990492
76	0x3d901a2f	0.07036244
77	0x3e7e2c7c	0.24821657
78	0xbba704c8	-0.0050970055
79	0x3e30db24	0.17271096
80	0xbd7909fe	-0.060800545
81	0x3e2c0a44	0.16800791
82	0x3e122601	0.1427231
83	0x3e0fbd29	0.14037003
84	0x3e1a9f5b	0.15099852
85	0x3e503878	0.20334041
86	0xbd23c731	-0.039984886
87	0xbe35fb37	-0.17771612
88	0x3e9dce46	0.30821437
89	0xbd45603c	-0.04818748
90	0x3e640e7d	0.22271152
91	0xbec6d6d7	-0.38835785
92	0xbd24d3a2	-0.04024089
93	0x3d9c2194	0.07623592
94	0x3da084ae	0.07837807
95	0x3e2e3ae8	0.17014658
96	0xbc08fa9f	-0.008360534
97	0x3e2ca34c	0.16859168
98	0x3eb02655	0.34404245
99	0x3edc1ab1	0.42989114
100	0x3e90eb37	0.28304455
101	0xbde5b9e2	-0.11217095
102	0x3e44fac8	0.1923629
103	0x3e7e79b5	0.24851115
104	0x3dff67c0	0.124709606
105	0x3e456ebd	0.19280525
106	0x3d8df8be	0.069322094
107	0x3ec80d5c	0.39072692
108	0x3e9448dc	0.28961837
109	0xbd7e7d83	-0.062131416
110	0x3dc49ee2	0.09600617
111	0xbe5a0f7f	-0.21294974
112	0xbe1b3742	-0.15157798
113	0x3e7c745b	0.24653761
114	0x3e105eff	0.14098738
115	0x3e3cc04e	0.18432733
116	0x3d1f4a99	0.0388895
117	0x3e615cb1	0.22008015
118	0x3e0518a5	0.12997682
119	0x3ef18049	0.47168186
120	0xbe2287f2	-0.15872172
121	0xbe20b33d	-0.15693374
122	0x3d813671	0.06309212
123	0xbd1bc55e	-0.03803002
124	0xbb25dc9e	-0.00253085
125	0x3d75c339	0.060000632
126	0xbed4cf9b	-0.4156464
127	0xbe2580a0	-0.16162348
128	0x3ecd92c9	0.4015105
129	0x3e040228	0.12891448
130	0x3e49c7f1	0.19705178
131	0xbdd77129	-0.105196305
132	0x3e9bf968	0.3046372
133	0x3da28d9a	0.079371646
134	0x3ec2bf1a	0.38036424
135	0xbdbd5b42	-0.09245922
136	0x3e11f310	0.14252877
137	0x3e0fde44	0.14049631
138	0xbedf9ca7	-0.43674204
139	0x3e54a03c	0.2076425
140	0x3e851b5c	0.25997436
141	0x3e177bfe	0.14793393
142	0xbd985c66	-0.074394986
143	0x3ec5d701	0.38640597
144	0x3d9ad9f6	0.07561104
145	0x3e036369	0.1283089
146	0xbe8c020f	-0.2734532
147	0xbacf3805	-0.0015809542
148	0x3e08fb50	0.13377118
149	0x3e907147	0.28211424
150	0xbe005258	-0.12531412
151	0x3e8edb01	0.27901462
152	0xbe2c7265	-0.16840513
153	0xbd94b832	-0.07261695
154	0x3f018ccc	0.50605464
155	0xbe49a640	-0.19692326
156	0x3d8cee77	0.06881421
157	0x3e3e9e3c	0.18615049
158	0xbe7321e3	-0.23743396
159	0xbc7f36e1	-0.015577049
160	0xbd3b062a	-0.045660175
161	0x3e7091bd	0.23493095
162	0x3eb9a8e1	0.36261657
163	0x3ed8f5bf	0.4237499
164	0x3ea97b48	0.3310187
165	0xbe6bbc33	-0.23021011
166	0x3e5acf10	0.2136805
167	0x3e7b8b48	0.2456485
168	0x3d28ffcb	0.04125957
169	0x3e3d8149	0.1850635
170	0x3dd45510	0.10367787
171	0x3e989e7c	0.29808414
172	0x3dd00298	0.10156745
173	0x3e13afb5	0.14422496
174	0x3e0518f5	0.12997802
175	0xbe322664	-0.17397457
176	0x3d3ab025	0.04557814
177	0x3e35f9ec	0.17771119
178	0x3e8e8cc0	0.2784176
179	0x3e24d3af	0.16096376
180	0xbe34a491	-0.17640902
181	0x3e120a03	0.14261632
182	0x3ddd7bff	0.10814666
183	0x3eb84ae2	0.3599463
184	0xbd854857	-0.06507938
185	0x3dbae813	0.09126296
186	0x3de062be	0.109563336
187	0xbc3a6a14	-0.01137783
188	0xbe052369	-0.13001789
189	0x3dee78ff	0.11644172
190	0xbd44ef35	-0.048079688
191	0xbe590708	-0.21194088
192	0x3f1f999d	0.6234377
193	0x3e2bea06	0.16788492
194	0x3eb6a5bd	0.35673323
195	0xbe9da5b8	-0.30790496
196	0x3db8f245	0.09030584
197	0x3f04f982	0.5194322
198	0xbe8c2052	-0.27368408
199	0xbdb49450	-0.08817351
200	0x3e7db383	0.2477551
201	0x3e2b2d6f	0.1671655
202	0xbdf45a1a	-0.11931248
203	0x3da98762	0.08277775
204	0x3e8f94d8	0.28043246
205	0x3e0982f6	0.13428864
206	0x3d72be00	0.05926323
207	0x3df0560c	0.11735162
208	0x3db26d2d	0.0871223
209	0x3dfc0760	0.12306094
210	0x3e238c52	0.15971497
211	0x3e026148	0.12732422
212	0x3d989fdf	0.07452368
213	0x3e6eaffe	0.23309323
214	0xbe1f08a1	-0.15530635
215	0xbe9a12e6	-0.30092543
216	0x3e174568	0.1477257
217	0xbe2f5eed	-0.17126055
218	0x3ea08e81	0.31358722
219	0x3e6ab23f	0.22919558
220	0x3da38d7c	0.079859704
221	0xbb55db10	-0.0032631792
222	0x3d50e1a3	0.050996434
223	0x3d42f5fb	0.047597867
224	0xbd8e9a90	-0.06963074
225	0x3e6226eb	0.22085159
226	0x3db552db	0.08853694
227	0x3bd2bd6e	0.006431273
228	0xbd13732f	-0.03599852
229	0xbd0b3ff2	-0.03399653
230	0x3e44f6ae	0.19234726
231	0x3f02c26b	0.5107791
232	0xbda915a6	-0.08256082
233	0x3e45da49	0.1932155
234	0x3e2c2fb1	0.16815068
235	0xbe21218f	-0.15735458
236	0x3ee938ef	0.4555125
237	0xbe41f3b1	-0.18940617
238	0x3db59b5f	0.08867525
239	0xbea881df	-0.32911584
240	0xbc93f887	-0.018062843
241	0x3cbaf544	0.02282203
242	0x3ea50a0d	0.3223423
243	0x3e75f868	0.2402054
244	0xbea0e479	-0.3142431
245	0xbd24ea2a	-0.04026238
246	0x3e086fa5	0.13323839
247	0x3f16be01	0.5888367
248	0xbe2b399d	-0.16721196
249	0xbebf0e25	-0.3731548
250	0xbf236c88	-0.6383748
251	0xbed4155c	-0.41422546
252	0xbf204ee8	-0.626204
253	0x3e252796	0.16128382
254	0xbec21a0f	-0.37910506
255	0x3e1c61e9	0.15271725

fc3.bias f4 [4]
0	0x3ea69f06	0.325432
1	0x3e8908da	0.26764566
2	0x3e3cadf2	0.1842573
3	0x3e764600	0.2405014
